nn_metamodel/ann_metamodel/runs/Jan.18 21:01:51/model_weights.pth (torch_old, 9337 bytes, 29 tensors)

fc.weight f4 [1, 3]
000000 a0 33 38 3e 4c 17 6a be 80 2a be bc
       0.17988443 -0.2286045 -0.023213625

regression1.0.weight f4 [55, 3]
000000 74 1a f7 3e 78 d4 fe 3e 30 ad 8d be 9a 08 06 3f
       0.4826237 0.49771476 -0.27671194 0.52356875
000010 ae 5e 0d be 64 ce d3 bd bc 52 05 3f 00 4c a2 3d
       -0.13805649 -0.103421 0.5207937 0.07924652
000020 d8 f5 d5 be 8b 4d ad be 00 7d 83 3c 60 e4 8d bc
       -0.41789126 -0.33848223 0.016050816 -0.017320812
000030 40 4b b6 3c e6 2b 35 be e0 95 77 bd 98 8d 1b 3e
       0.022252679 -0.17692527 -0.060445666 0.15190732
000040 24 45 66 3e 22 0e be 3e 58 0f f3 3e 9e dd 88 3e
       0.22487313 0.37120157 0.47472644 0.2673158
000050 60 a8 7b bd bb c3 fc be 8c 0f f8 3e f2 92 a7 3e
       -0.06143987 -0.4936808 0.4844936 0.32729298
000060 ec 5f 0b 3f e8 f9 e3 3d 9c 97 15 3e a4 a2 47 3e
       0.5444324 0.1113165 0.14608616 0.19495636
000070 64 77 e6 3e ac e0 bb 3e 6e b1 85 3e 40 cc dc bd
       0.45012963 0.3669485 0.2611193 -0.10781145
000080 14 e3 95 be 50 85 c2 3d 64 06 be 3e 80 1d 7e bc
       -0.2927481 0.094980836 0.3711425 -0.015509963
000090 18 85 01 3f 68 04 c6 be d0 59 a3 3e 50 32 fc 3d
       0.5059371 -0.38675237 0.3190446 0.12314284
0000a0 b2 f7 c4 be d8 a9 87 3e 58 c8 aa be 3e cb cb 3e
       -0.38470227 0.26496768 -0.33355975 0.398035
0000b0 5e 23 a2 3e b2 f5 03 bf 64 2a 98 3e 40 8e bc 3d
       0.31667608 -0.51546776 0.2971984 0.092068195
0000c0 ea de 8d 3e 02 9f 8e 3e 80 e8 ac bd b8 b1 66 be
       0.27709132 0.27855688 -0.08442783 -0.22528732
0000d0 f8 f3 f1 bd 08 ce 50 be 75 4b 04 bf 64 99 61 3e
       -0.118141115 -0.20391095 -0.5167764 0.2203117
0000e0 a8 ab 80 be b8 09 12 3e 22 33 16 be 60 2e d3 3e
       -0.25130963 0.1426152 -0.14667943 0.4124632
0000f0 f0 ff 2c 3d 2d 12 09 bf 00 04 c9 ba 98 54 b0 bd
       0.04223627 -0.5354336 -0.0015336275 -0.08609885
000100 fe 1f 9b be 30 3f fd 3e 80 49 d6 3d f0 f5 36 be
       -0.30297846 0.4946227 0.10463238 -0.17867255
000110 b3 bc 11 bf ac 8f 06 3f 26 27 e1 be 90 78 5c 3d
       -0.5692856 0.52562976 -0.4397518 0.053825915
000120 08 71 b5 3e 06 54 fb be 34 f7 42 3e 0a 47 0d 3f
       0.35437799 -0.49087542 0.19039613 0.5518652
000130 16 3f 6f be 18 38 47 be dc 93 05 bf 6e ba 12 bf
       -0.23363909 -0.19454992 -0.5217874 -0.5731572
000140 c2 f1 23 be a4 f2 e0 3e 00 48 26 3b 13 20 de be
       -0.16010192 0.4393512 0.0025372505 -0.43383846
000150 2c dc bf 3e 00 e1 76 3d c4 1a 09 3f fc fc 0f bf
       0.37472665 0.06027317 0.53556466 -0.562454
000160 94 a0 06 bf 70 ca 75 3d 7c 6e ea be f2 af fd be
       -0.5258877 0.060007513 -0.45787418 -0.49548298
000170 c6 a4 cf 3e 4a 33 f3 be 16 3a ec be 74 67 2b 3e
       0.405554 -0.47500068 -0.46138066 0.16738683
000180 68 68 3f 3e 1e f1 0a 3f 4a 08 3b be 60 cb 68 3d
       0.18692172 0.54274166 -0.18264881 0.05683458
000190 c7 8d b4 be 0c 73 02 3e a0 c8 c4 3d 0d 2a 85 be
       -0.35264418 0.127392 0.09608579 -0.26008645
0001a0 08 34 dd 3e 60 cb 09 bd bc 61 ec bd 68 8d 3d be
       0.4320376 -0.03364122 -0.11542079 -0.18510973
0001b0 a8 68 e2 bd 28 e4 a5 bd a0 57 16 3e 52 5d d4 3e
       -0.11055118 -0.08100158 0.14681864 0.41477448
0001c0 60 d2 a1 3c c6 a0 02 3f c0 37 35 be e4 56 74 3e
       0.019753635 0.5102657 -0.17697048 0.23861271
0001d0 97 75 0a bf 84 13 94 3e 8c 7f 0e 3e 2c 36 5d 3e
       -0.5408568 0.2892114 0.13915843 0.21602696
0001e0 ab d1 ee be 24 fc ee 3e e8 4a 73 be a0 52 cf bc
       -0.4664434 0.46676743 -0.23759043 -0.025307953
0001f0 14 ae c0 3e e6 c7 09 bf 88 40 d1 3e cb 4c 9e be
       0.3763281 -0.53820646 0.40869546 -0.30917963
000200 1e 83 0a bf 50 f6 9b be 98 db e8 be c8 2e e4 3e
       -0.5410632 -0.3046136 -0.45480037 0.4456694
000210 34 9d 98 3e b0 13 c4 be 8c e8 63 3e 88 4b 85 3e
       0.29807436 -0.3829627 0.22256678 0.26034188
000220 c0 90 e0 3c 36 d5 9e 3e 79 a5 fc be ba 44 d3 3e
       0.027412772 0.31022042 -0.49344996 0.41263372
000230 70 a4 ce 3e 00 38 44 3c 00 49 3e bd fc 2b cc bd
       0.4035983 0.011976242 -0.046456337 -0.09969327
000240 c0 ef 0a bd 59 a2 aa be 50 89 2c 3e f0 56 df 3d
       -0.03392005 -0.33326986 0.16849256 0.10905254
000250 60 cb ea bc 5a 7e 12 3f 60 bd d0 bc 2c e9 e8 be
       -0.02866143 0.5722405 -0.025480926 -0.45490396
000260 10 4c 6d 3d ef 45 f5 be ca 38 f1 be a8 58 7a be
       0.057933867 -0.47904918 -0.4711364 -0.24447882
000270 2e 74 ec be b3 10 e5 be 88 62 00 be f0 4a 44 3d
       -0.46182388 -0.44739303 -0.12537587 0.04792303
000280 40 31 fb bc c0 f3 b7 3d 80 3a e6 3c 4c 8f f6 3e
       -0.030663133 0.089820385 0.028104067 0.48156202
000290 18 33 8d 3d
       0.06894511

regression1.0.bias f4 [55]
000000 a0 e1 22 3d 40 92 eb 3c 40 5a 46 3c 84 c5 b6 bd
       0.039765954 0.02875626 0.012106478 -0.08924392
000010 40 c1 9f bd 24 3c 00 3f 60 24 06 bd ec da e4 3e
       -0.078005314 0.5009177 -0.032749534 0.44698274
000020 c8 b4 76 3e f2 eb 0e 3f 94 71 fe 3e 14 f5 d9 be
       0.240924 0.55828774 0.49696028 -0.42569792
000030 79 d0 d1 be 26 e2 01 bf 9e 9a 05 bf 00 b8 0b be
       -0.40979365 -0.507357 -0.5218905 -0.13644409
000040 e4 40 b4 be d8 48 de 3d 02 44 ae be 3c 82 ba 3e
       -0.35205758 0.108537376 -0.3403626 0.36427486
000050 c0 78 12 3f 0a 23 82 3e 90 bc 2e 3e 92 a2 0b bf
       0.572155 0.25417358 0.17064118 -0.5454494
000060 eb d1 d2 be cc 78 05 be b4 87 8e 3e 38 32 b7 3d
       -0.4117578 -0.13034362 0.27837908 0.08945125
000070 34 b3 2a 3e e8 e2 02 bf a0 e1 d7 3e 62 af d3 be
       0.16669923 -0.5112748 0.42164326 -0.41344744
000080 1c 52 83 3e 30 11 bd 3e 60 5c c7 bc 70 26 b2 3e
       0.25648582 0.36927176 -0.02433604 0.3479495
000090 80 c6 78 3e 90 bd 0e bd 5a 2c 0e bf 04 8c b9 be
       0.24294472 -0.03484875 -0.55536425 -0.36239636
0000a0 c0 7a dc bc 38 e3 b7 3e 08 08 31 3e 90 8d 3c bd
       -0.026914 0.35915542 0.1728822 -0.046033442
0000b0 a0 5b 93 be 16 7c ae 3e 40 73 8d 3d 92 54 bd 3e
       -0.28780842 0.34079045 0.06906748 0.36978585
0000c0 bc 45 3b 3e 78 af d1 bd 84 98 f1 3e 94 c6 35 be
       0.1828832 -0.10238546 0.47186673 -0.17751533
0000d0 6c 8f 12 bf 34 e8 37 3e e8 c0 bb be
       -0.57250094 0.17959672 -0.36670613

regression1.2.weight f4 [1, 55]
000000 4b 72 94 bd 3b fb 05 be e9 b1 e7 bd a4 c3 ad bc
       -0.07248362 -0.13084118 -0.113132305 -0.021211453
000010 14 c5 a5 bd 38 0d 39 3d 02 50 b4 bd c2 12 f3 3d
       -0.0809423 0.045178622 -0.08804323 0.11868812
000020 fa 84 f8 3d 30 44 9d bc 00 00 54 39 2c 1d 14 3d
       0.12134738 -0.019197553 0.00020217896 0.036160633
000030 90 99 00 bc c7 eb 02 be f0 59 c3 bd be d6 56 bd
       -0.007849112 -0.12785254 -0.095386386 -0.052450888
000040 6a 4b 83 3d 70 6c 34 3c 60 0c ee bd a4 47 e8 bd
       0.064108685 0.011012182 -0.11623454 -0.11341789
000050 2c 43 d4 3d 12 24 bb 3d a9 09 05 be 3a 60 c9 3d
       0.103643745 0.09137739 -0.12991966 0.09832807
000060 ca 1a 3a bd b0 fe 21 3c f0 3f b7 bc 80 27 35 3d
       -0.045435704 0.009887382 -0.022369355 0.044227123
000070 86 b4 a8 3d bc 1a 6c 3d f5 65 8c bd e6 a4 44 bd
       0.08237557 0.057642683 -0.06855384 -0.048008822
000080 1c 4f cc bc 22 65 ad 3d d4 5f 82 3d d2 3a ed 3d
       -0.024940066 0.08466555 0.06365934 0.11583485
000090 86 8b f6 3d d0 d4 87 3d ec 4b 8d 3d 7e 67 82 bd
       0.12038331 0.06632388 0.068992466 -0.06367396
0000a0 d6 bf d9 bd 5e 5a 8b bd 40 00 60 3c a1 7d e1 bd
       -0.10632293 -0.068043455 0.013671935 -0.1101029
0000b0 14 21 51 3d ac 2e b9 3d 84 f1 c0 3d f7 4c d7 bd
       0.051056936 0.09042105 0.094210654 -0.10512727
0000c0 48 29 27 bc 80 1f ca 3a e0 d2 10 3d ed 38 df bd
       -0.010202713 0.0015420765 0.035357356 -0.108995296
0000d0 46 a1 ba 3d 00 7b 8f 3c ee 0c c1 bd
       0.09112792 0.017514706 -0.09426294

regression2.0.weight f4 [6, 3]
000000 80 dc 2b bc 56 aa 03 be ce 49 c4 be 78 47 04 3e
       -0.010489583 -0.12857947 -0.38337559 0.12917888
000010 00 3d 2f 3e 38 2b 66 3e 64 5d c4 be 24 a3 4a 3e
       0.17113113 0.22477424 -0.383525 0.19788796
000020 30 d1 b8 be 30 ca dd 3e 80 77 71 bc 3c 00 98 be
       -0.36097097 0.4331832 -0.014737964 -0.2968768
000030 c6 b9 85 3e b8 e6 e6 3e dc 55 a1 3e 40 40 b0 bd
       0.26118296 0.450979 0.31510818 -0.08606005
000040 40 1e 3c 3d 40 c1 64 bc
       0.045927286 -0.01396209

regression2.0.bias f4 [6]
000000 0c 4b 81 3e 08 e9 10 bf 94 76 0a 3f a0 d2 34 be
       0.2525257 -0.5660558 0.54087186 -0.17658472
000010 0f 37 85 be b4 d1 7f be
       -0.2601857 -0.24982339

regression2.2.weight f4 [7, 6]
000000 86 9c cf 3e 4a 75 95 3e e8 d1 e5 bd 94 c2 b7 3e
       0.40549105 0.29191047 -0.11221677 0.3589064
000010 70 2b 53 3d e7 5c 32 be 68 7f 1f 3e 40 aa 16 3c
       0.051555097 -0.17418252 0.15575945 0.009195864
000020 64 40 9d bd 28 cf 13 3e 8c 31 1f 3e 7a d3 c3 be
       -0.07678297 0.14434493 0.15546244 -0.3824728
000030 84 c5 01 be ec 5e 2a 3e bc 24 a2 3e bf eb 86 be
       -0.12673002 0.16637772 0.3166865 -0.26351735
000040 38 54 8f 3e 14 08 87 be d8 e2 5c bd 44 1c a8 3d
       0.2799394 -0.2637335 -0.053927273 0.08208516
000050 f8 92 c9 be 52 1c bf 3e c0 cd 18 3d 20 51 7e 3e
       -0.3936994 0.37326294 0.037305593 0.24835634
000060 ea 84 be be 58 12 bf 3d f5 19 ad be 5e bb 92 be
       -0.3721078 0.09329671 -0.33808866 -0.28658575
000070 5e e7 ab be 20 22 b2 bc d3 18 6e be d6 68 b1 3e
       -0.33574957 -0.021744788 -0.23251657 0.34650296
000080 00 c0 e0 38 7c 50 0a 3e 90 6c ea 3d 67 c6 4b be
       0.00010716915 0.13507265 0.11446488 -0.19899903
000090 38 5d bd 3e 40 9c f2 bc 88 e4 b9 bd 1a 46 8a be
       0.36985183 -0.029615521 -0.09076792 -0.27006608
0000a0 f2 44 35 be ac 9a d5 bd
       -0.17702082 -0.10429892

regression2.2.bias f4 [7]
000000 a2 20 cc 3e b1 46 82 be 48 44 bd 3d 30 7a bf 3c
       0.39868647 -0.25444558 0.09241539 0.023373693
000010 14 97 bd be c8 f7 a4 be 70 61 8a 3d
       -0.37029326 -0.32220292 0.06756866

regression2.4.weight f4 [6, 7]
000000 b2 37 b5 be 00 04 84 be 55 32 92 3e 78 a1 83 be
       -0.35394055 -0.25784302 0.28554025 -0.25709128
000010 b0 b7 30 3d 00 21 3b 3d 2d 80 8c 3e e0 44 0f bc
       0.043143928 0.045685768 0.2744154 -0.008744448
000020 e0 dd c1 3d 76 92 62 3e 00 94 71 3d 53 29 10 be
       0.094661474 0.22126183 0.058979034 -0.14078264
000030 73 50 bf 3e 90 c2 d4 bc 60 f6 90 3c 58 ff 95 3d
       0.37366065 -0.02597168 0.017695606 0.073240936
000040 32 e5 0a be c1 62 4e be 48 1e 67 3d 46 0d a9 be
       -0.13563994 -0.20154859 0.056425363 -0.3301794
000050 fb 34 82 be 4f 33 82 3e b0 34 12 3d 8e 0e 51 3e
       -0.25431046 0.2542977 0.035694778 0.20415708
000060 23 0a 80 3e a2 c3 48 3e 20 43 c0 be 9e 90 73 3e
       0.25007734 0.19605878 -0.37551212 0.23785636
000070 00 a0 27 3b 7f 7a 97 3e 5e e3 14 3e 75 8c 98 3e
       0.0025577545 0.29585645 0.14539859 0.2979466
000080 56 88 4b 3e be 5b 05 3e 06 94 8d be 17 e3 a8 3e
       0.19876227 0.13023278 -0.27651995 0.32985756
000090 e6 53 16 3e b8 58 98 3d 68 2e ef 3d 9c ab 87 3d
       0.14680442 0.07438797 0.11678773 0.06624529
0000a0 f2 2b 6a 3e b6 96 ad be
       0.22868326 -0.33904046

regression2.4.bias f4 [6]
000000 c5 48 9b 3e c7 33 1a be ac 1a 97 be 72 27 11 be
       0.30328956 -0.15058814 -0.29512537 -0.14175203
000010 46 3e 79 3e 38 c4 82 be
       0.24340162 -0.25540328

regression2.6.weight f4 [1, 6]
000000 c6 9e a0 3e d8 2c 36 3e e8 61 1b 3e 80 e0 84 bd
       0.31371135 0.17790544 0.15174067 -0.064881325
000010 f0 74 c1 3c 98 89 e6 3d
       0.02361533 0.11256713

regression3.0.weight f4 [12, 3]
000000 00 ae f3 bc b8 9a 0a 3f ee b2 d3 be ef e6 f3 be
       -0.029746056 0.5414233 -0.4134745 -0.47637126
000010 b7 20 11 bf 88 a2 d9 3d fc 36 22 be 8e 78 4a be
       -0.56690544 0.106267035 -0.15841287 -0.1977255
000020 2a ae 13 3f b8 37 d1 be c0 a1 4f 3d 14 35 00 3e
       0.5768763 -0.40862823 0.050691366 0.12520248
000030 1a 9b 0b 3f 88 d9 04 3f 80 f6 dd 3e 86 e4 06 3f
       0.5453354 0.51894426 0.43352127 0.5269245
000040 cc 43 45 3e 2c e0 4c be b2 91 84 3e 04 18 77 3e
       0.19264144 -0.2000739 0.25892407 0.24130255
000050 45 e1 93 be 84 78 b9 3e 1e 08 11 be e0 ce 4b 3d
       -0.28882805 0.3622476 -0.14163253 0.04975784
000060 10 6c f4 3d 10 c2 74 bd 02 bd 0b 3f 08 43 ee 3d
       0.11934674 -0.059755385 0.5458528 0.11633879
000070 20 90 28 3d 2e 47 b3 be f0 46 6e 3d 24 e8 3d 3e
       0.041153073 -0.35015243 0.05817312 0.18545586
000080 40 90 6d 3c 1e e5 c4 3e de f3 09 3f be 81 08 3f
       0.014499724 0.38456053 0.53887737 0.5332297

regression3.0.bias f4 [12]
000000 a0 1c e9 bc 20 48 c2 3e 90 76 dd 3e bc b3 bb be
       -0.028456032 0.37945652 0.43254519 -0.36660564
000010 17 0c 06 bf 0e 81 02 be 86 63 8b 3e 4a 57 a3 be
       -0.523622 -0.12744543 0.27224368 -0.31902534
000020 80 2c 1a 3c 5c da 13 3e 62 b0 1e be c6 ac 05 bf
       0.009410024 0.14438766 -0.15496972 -0.52216756

regression3.2.weight f4 [14, 12]
000000 d2 b1 8a 3e b4 80 3e bd f6 1e 80 3e e2 61 35 3e
       0.2708879 -0.04650946 0.2502362 0.1771312
000010 82 08 8b bd ca 06 24 3e 68 a6 28 3d 74 99 8d 3d
       -0.06788732 0.16018215 0.041174322 0.069140345
000020 9e 2c 9b bd 08 a5 5f be be 80 3f 3e 70 0a 03 3e
       -0.075768694 -0.21840298 0.18701455 0.1279695
000030 3c 53 82 3e 2c eb 00 3e 00 71 0b 3c ae b3 ae bd
       0.25454128 0.12589711 0.008510828 -0.08530365
000040 8c 6b 09 be f0 72 90 3e 3c 66 26 3e d6 09 98 bd
       -0.13419932 0.2821269 0.16249937 -0.07423751
000050 5e ab b2 bd 60 7f 68 bc 2c c2 91 3e 8c ab a0 3d
       -0.08724092 -0.014190525 0.28468454 0.0784522
000060 48 47 5a 3e 24 73 8f 3d 40 ee 2c 3c 2a ef 54 3e
       0.21316254 0.07004383 0.01055485 0.20794359
000070 ad 9d 1e be ee 26 2a be 28 4d 74 3e bc 4a d1 3d
       -0.15489836 -0.16616413 0.23857558 0.102193326
000080 76 ad 43 be e5 b5 93 be 7c 1b d0 bd 84 03 ff 3d
       -0.19109139 -0.28849712 -0.10161492 0.124518424
000090 f2 a2 51 3e 22 31 80 bd 5c 9e 9f 3d 1c ba b5 bd
       0.20472315 -0.06259371 0.077938765 -0.08873388
0000a0 e0 24 d6 3c 60 42 47 3d 26 87 93 bd c8 c6 d7 3d
       0.02614063 0.048647285 -0.07203512 0.105359614
0000b0 b4 8a 93 bd 82 13 01 3e 48 91 01 bd 22 5c aa bd
       -0.0720419 0.12605098 -0.03163269 -0.08318354
0000c0 b6 ee 8e 3e 18 e3 b1 bd cc 39 9d 3d d3 7a 5b be
       0.27916497 -0.08685893 0.076770395 -0.21433572
0000d0 ce d8 8a 3e 36 6f 7c be 96 58 25 3e b0 df d3 bc
       0.27118534 -0.24651799 0.16147074 -0.025863498
0000e0 38 0d 77 bd 30 6d 11 be 6c f4 84 3d 80 af 5d be
       -0.06031534 -0.14201808 0.06491932 -0.21648979
0000f0 5e 3a 1d 3e 34 fd 86 be 92 f3 90 be b0 09 68 3e
       0.15354297 -0.26365054 -0.2831083 0.22659945
000100 bc 79 b8 3d 40 11 f2 3b 8c 8a 5c 3e c8 0a 48 bd
       0.09007594 0.0073873103 0.21537226 -0.048838407
000110 30 fa a8 bd ac fa 86 be 18 a2 6f 3e 01 b7 41 be
       -0.082508445 -0.26363122 0.23401678 -0.18917467
000120 00 70 4e bb 51 36 8c be f6 2f 83 bd 5e 1c d3 bd
       -0.0031499863 -0.2738519 -0.06405632 -0.10308145
000130 ca db 81 be 9a 5a 72 be a8 42 a3 bd c0 31 78 3d
       -0.25362998 -0.23667374 -0.07971698 0.06059432
000140 5e 13 81 3e 02 9f cc bd 44 63 2b 3e 60 b2 46 bc
       0.25210088 -0.09991266 0.16737086 -0.012127489
000150 b0 f7 f7 3c ce ad 51 3e d8 4f 76 3e 3a 6e 38 3e
       0.030269474 0.20476457 0.24053895 0.18010798
000160 f0 04 dc bc b1 80 8d be 20 b1 8e be c6 af 2b 3e
       -0.026857823 -0.27637246 -0.2786951 0.16766271
000170 c8 29 5a 3e dc 66 40 3e bc ce 85 3e ec ac 68 be
       0.21305001 0.18789238 0.26134288 -0.22722214
000180 b4 89 85 3d 01 c3 37 be 60 d1 b1 3c 20 96 96 bd
       0.065204054 -0.17945482 0.021706283 -0.07352853
000190 a0 f7 d1 3c 2e cd 8e 3e d8 f3 41 be b0 8b 6d bd
       0.025630772 0.27890915 -0.18940675 -0.057994545
0001a0 c0 15 07 3c a0 e3 6d bc 90 67 57 be 28 d1 5e bd
       0.008244932 -0.014519602 -0.210356 -0.054398686
0001b0 ed cd 91 be e8 f2 a0 bd 60 ab 62 3e 1a 7d 81 be
       -0.2847742 -0.07858831 0.22135687 -0.25290757
0001c0 00 3c f0 b9 8c dc 70 3e e0 78 a8 bd d8 83 02 3e
       -0.0004582107 0.23521632 -0.0822618 0.12745607
0001d0 80 d0 b6 bd 66 6d 71 be 62 fe a4 bd f6 1c d0 bd
       -0.08926487 -0.23576888 -0.08056332 -0.10161774
0001e0 28 c5 79 3e d0 33 e2 bd f0 c8 19 3e 9d d5 76 be
       0.24391615 -0.11045039 0.15018058 -0.24104924
0001f0 2a 6f 8b 3e 3c fa cd 3d 89 25 8a be fe ee 8e be
       0.2723325 0.10057494 -0.26981762 -0.27916712
000200 d8 bb 7d 3d ac 60 37 be 60 19 15 3d e0 ee 33 3c
       0.06194672 -0.17907971 0.036401153 0.010982245
000210 f0 d4 9f 3d a4 d6 9d 3d c0 ef ba bd 00 1a c8 bc
       0.078042865 0.07706955 -0.0912776 -0.02442646
000220 84 2b b4 3d 40 f0 21 3d b8 ac 74 3e 00 ec fb bb
       0.087973624 0.03953576 0.23894012 -0.0076880455
000230 1a 49 dd bd 70 16 5f bd d8 9c 62 3e 48 d7 61 bd
       -0.10804959 -0.054464757 0.22130144 -0.05513695
000240 a4 49 16 3e d8 fe 73 3e 56 50 4c be 12 97 4e 3e
       0.14676529 0.23827684 -0.1995252 0.20174816
000250 cf 28 21 be 64 dd 79 3e 06 cf 45 be 76 26 75 be
       -0.15738223 0.2440086 -0.19317254 -0.23940453
000260 0d bf 7e be 7c 3d 3e bd 78 09 32 3d a4 78 cf 3d
       -0.24877568 -0.046445355 0.04346606 0.10130432
000270 5a a4 14 be 64 00 c6 bd 4c 5d 9a 3d 4a 5c 84 3e
       -0.1451582 -0.09668043 0.07537326 0.2585166
000280 4c b3 c2 bd 8a 8a 87 3e 32 c3 df bd ca 28 34 be
       -0.095068544 0.26472884 -0.109259024 -0.17593685
000290 78 e8 73 3e 0a 92 ef bd a0 6b 9d bd fa 9c 2e 3e
       0.23819149 -0.116977766 -0.076865435 0.1705207

regression3.2.bias f4 [14]
000000 2a 64 85 3e 2a 7e 15 3e 50 23 eb 3d e0 2c 58 bc
       0.26052982 0.14598909 0.11481345 -0.013194293
000010 24 93 12 be f6 79 8e 3e b0 76 46 be 80 9b 37 3e
       -0.14313942 0.27827424 -0.19381213 0.17930412
000020 98 b9 26 3e b4 10 3a be 10 9e 62 3e d2 a4 77 be
       0.16281736 -0.18170434 0.22130609 -0.24183968
000030 f8 cf 6d 3e db 79 88 be
       0.23223865 -0.26655468

regression3.4.weight f4 [8, 14]
000000 00 1e 4c bb ce fc e8 bd 52 5e 27 3e 7f 37 7e be
       -0.003114581 -0.11376344 0.16344574 -0.24825858
000010 30 0a 96 3d 5f de 53 be b8 bf f2 bc 40 71 05 3c
       0.07326162 -0.20690297 -0.029632434 0.008144677
000020 28 af 1c 3d 50 1f 4d 3d b1 e6 0a be e4 8c 4c bd
       0.03825298 0.05007869 -0.13564564 -0.04993905
000030 e0 d2 96 3d 04 cd e4 3d 60 0f c7 bc 18 2e 67 be
       0.0736444 0.11171916 -0.024299324 -0.22576177
000040 9c cb 84 bd d0 5b 4f 3e 40 f3 17 3d 00 ad 65 bb
       -0.06484148 0.20249867 0.037097216 -0.0035045743
000050 cb 8e 70 be 02 2f 01 3e df d0 87 be 48 6f 78 3d
       -0.23491971 0.12615588 -0.26526543 0.060653
000060 11 63 81 3e 70 24 bd 3d 80 88 cc 3b 7b 63 83 3e
       0.25270894 0.092354655 0.006241858 0.25661835
000070 08 51 71 bd 18 aa eb 3d 50 4d d0 3c cc fc 57 3e
       -0.058915168 0.11507052 0.02542749 0.21092528
000080 10 e4 c8 bd d8 27 4f be e0 b0 ea 3d 2e 69 73 3e
       -0.098091245 -0.20230043 0.114595175 0.23770592
000090 12 df 6e 3e a0 35 3a 3c 16 0e 80 be b4 23 c1 3d
       0.23327282 0.011365324 -0.25010747 0.09430638
0000a0 00 8a 21 ba 08 a7 ac 3d 70 c8 6a 3d a0 f9 e8 3c
       -0.0006162226 0.08430296 0.05732006 0.028439343
0000b0 a8 32 69 3d d2 8f c2 bd 0e 08 88 be b8 ca 45 3e
       0.056933075 -0.09500088 -0.26568645 0.19315612
0000c0 e8 a4 4c 3d 80 94 c7 bb 84 a9 e2 3d 5e 05 c4 bd
       0.049961954 -0.0060907006 0.11067489 -0.09571336
0000d0 d6 88 43 be 80 01 57 3b e4 91 73 bd 80 86 5e be
       -0.19095168 0.003280729 -0.059465304 -0.21730995
0000e0 20 fc 26 be b8 19 2e bd 14 31 61 3e a4 d6 64 3e
       -0.16307116 -0.042504996 0.21991378 0.22347504
0000f0 a1 29 68 be e2 17 c6 bd d0 da 66 bd 60 14 74 bd
       -0.2267213 -0.09672524 -0.05636102 -0.059589744
000100 9e c2 76 be ce 54 0c 3e 72 de c7 bd 16 96 24 be
       -0.24097678 0.13704225 -0.09759225 -0.16072878
000110 8c 77 33 bd 88 53 ee 3d 00 0a 50 bc e0 2d 3f 3e
       -0.04381518 0.11637026 -0.012697697 0.18669844
000120 72 5a 4b 3e 34 59 17 3e 04 ea 23 bd 6d 66 7e be
       0.19858721 0.14780122 -0.040018097 -0.2484376
000130 04 64 a7 bd de c0 4c 3e 12 6d 70 3e fc 2e 66 3e
       -0.08173373 0.19995448 0.23479107 0.2247886
000140 fa aa 35 3e 18 83 0d be 20 79 7d bd 38 39 1e 3e
       0.17741004 -0.1381954 -0.061883092 0.15451515
000150 4e 88 12 3e 40 59 f6 bb 2c cf 77 bd e0 57 40 bd
       0.14309809 -0.0075179636 -0.06050031 -0.046958804
000160 ac 04 21 3e fa 8c 11 be 25 ce 80 be e2 39 72 3e
       0.15724438 -0.14213935 -0.25157276 0.23654893
000170 d2 1a 37 be 96 79 fc bd 04 9b 04 bd 58 78 a2 bc
       -0.17881325 -0.12327878 -0.032374397 -0.019832775
000180 ac 0d 86 3d 28 cb 19 3d 18 ee 40 3e 9e fb 66 be
       0.065455765 0.03754726 0.18840826 -0.22556922
000190 f6 a2 e8 bd 3a da e2 bd 00 ef bb 3a 48 24 9e bd
       -0.11359207 -0.1107678 0.0014338195 -0.07721764
0001a0 f6 78 6c be c9 45 5a be 58 46 28 3e a8 25 36 3e
       -0.23093018 -0.21315683 0.16433084 0.17787802
0001b0 dd e6 78 be e0 e4 0a bd 00 8e 71 3a e0 06 33 bc
       -0.24306817 -0.03390968 0.000921458 -0.010926932

regression3.4.bias f4 [8]
000000 90 ee 39 3d 12 53 44 3e 44 e4 5d bd a0 f0 a2 3c
       0.045393527 0.19172314 -0.05417277 0.01989013
000010 5a 6f f2 bd 00 74 58 be 92 a0 0e be 50 bb a4 3c
       -0.11837645 -0.21138 -0.1392844 0.020108849

regression3.6.weight f4 [1, 8]
000000 3d 2b 87 3e fa c8 93 be a3 c5 a8 3e cc f7 94 bd
       0.26400176 -0.2886427 0.32963285 -0.07273826
000010 fa 26 29 3e 3b 59 af 3e 1a 57 57 3e 35 7d 94 3e
       0.16518775 0.34247765 0.2102932 0.29001775

regression4.0.weight f4 [6, 3]
000000 ed 62 94 bf b6 0f 92 bd 65 f1 23 3e b5 9e 18 3d
       -1.159269 -0.07131903 0.16010053 0.03726073
000010 1f 52 f5 3e d9 97 10 bf 76 70 9f 3e ea ce de be
       0.47914216 -0.564817 0.31140488 -0.43517238
000020 20 51 d6 be d7 2e ad be 0c 41 0a 3f e6 02 f2 be
       -0.41858768 -0.33824798 0.54005504 -0.47267836
000030 fc 7a b8 3e dc 30 b4 be 1a a7 74 be 4a 2e 01 bf
       0.3603133 -0.35193527 -0.23891869 -0.50461257
000040 1b 4f 05 be 79 c6 88 bd
       -0.13018458 -0.06678481

regression4.0.bias f4 [6]
000000 02 cc db 3f f6 6f 8b 3f 92 ee 65 be 7a da c3 be
       1.7171633 1.0893543 -0.22454289 -0.38252622
000010 ea 3a c6 be 1b d2 9a 3f
       -0.38716823 1.2095369

regression4.2.weight f4 [7, 6]
000000 10 9f a9 3f 02 3c ef 3e b2 49 4b be c0 e3 5c 3e
       1.3251667 0.4672547 -0.19852331 0.21571255
000010 0c 2e cd 3e d9 4f fe 3e b0 f1 97 3f a0 ff 15 be
       0.40074193 0.49670294 1.1870632 -0.14648294
000020 c8 e2 2e 3e a0 54 73 bd dc fa 97 bd 5e 8c 58 3d
       0.17078698 -0.059406877 -0.074208945 0.05286824
000030 a7 d7 a9 3f 88 9f 99 3d 48 26 b5 bd 80 35 32 3e
       1.3268937 0.07501131 -0.08845192 0.17403221
000040 d4 6b 78 3e 98 0b 04 3e 29 1a 89 3f ca 73 14 3f
       0.24259883 0.12895048 1.0711108 0.5798918
000050 1c 57 02 3e 6e b4 98 3e 94 d1 c0 bd 94 92 0f 3f
       0.12728542 0.29825157 -0.09414974 0.56083035
000060 42 7a bb be 10 7f 83 bc c0 33 a1 3e 30 1c 5f 3e
       -0.36616713 -0.016051799 0.31484795 0.21788096
000070 93 f2 a9 be c8 67 ec bd e4 e8 a0 3f b4 6d 14 3f
       -0.33192882 -0.11543232 1.2571073 0.57979894
000080 a8 1c 37 bd 7c 39 2c 3e 35 6b 68 be 7b 5a 2e 3f
       -0.044705063 0.16818804 -0.22697146 0.6810681
000090 d9 a8 b9 be d8 c1 df 3d 80 b0 06 be 98 81 db 3d
       -0.36261633 0.10925645 -0.13153267 0.107180774
0000a0 b8 73 9a 3e b8 cd 01 3e
       0.3016641 0.12676132

regression4.2.bias f4 [7]
000000 64 90 97 3f 69 f2 32 3f 01 f6 6f 3f 0b 47 b3 3f
       1.184094 0.6990114 0.9373475 1.4006056
000010 4a 89 a4 be ff f6 4d 3f 1f b6 9c be
       -0.32135993 0.8045501 -0.30607697

regression4.4.weight f4 [8, 7]
000000 e9 ad 58 3f d1 f3 00 3f 90 e3 4e 3f 86 8e 35 3f
       0.84640366 0.50372034 0.8081598 0.709206
000010 cc b1 b5 3d d7 ab 5d 3f 52 37 15 be 9e 7d 84 3f
       0.08871803 0.8659033 -0.14571884 1.0350835
000020 c9 03 53 3f 98 cf 8f 3f b5 c5 56 3f d4 cb 92 be
       0.8242765 1.1235228 0.83895427 -0.28671134
000030 f9 3b 2d 3f d0 7c a5 3d a7 8c 7a 3e e7 c0 ce 3e
       0.67669636 0.08080447 0.24467717 0.40381548
000040 99 54 63 3f 19 80 2b 3f 4e aa 56 3e 7c ae 5b 3f
       0.8880096 0.66992337 0.20963404 0.8581312
000050 e4 d5 aa bd e5 33 b9 bc d2 ad be bc 3c 22 f7 3d
       -0.08341578 -0.022607753 -0.023276243 0.120670766
000060 39 c1 90 be f7 06 95 3e 3f 2f 53 3e 0e 86 7b 3e
       -0.28272417 0.29106876 0.20623492 0.24562857
000070 c7 1c 32 3f 88 68 64 3f bb 49 67 3f 53 26 79 3f
       0.6957516 0.89222 0.9034688 0.97324103
000080 7e 4b 64 3e ac 48 49 3f c7 80 12 be c4 83 39 3f
       0.22294423 0.78626513 -0.14306937 0.72466683
000090 86 bd 81 3f 39 d9 44 3f a1 b9 98 3f 58 81 53 bd
       1.0135963 0.76893955 1.193165 -0.051637024
0000a0 62 27 d3 3e 46 7f 49 3e 4a 51 a2 3f a5 e5 2a 3f
       0.41240984 0.19677457 1.2681057 0.6675666
0000b0 f2 0d 89 3f fd 58 3f 3f 6c 08 e9 bd 35 55 e7 3e
       1.0707381 0.7474516 -0.113785595 0.45182195
0000c0 10 86 2f bd d9 18 b5 3d a3 2f c0 be c0 58 8c 3e
       -0.04285246 0.0884263 -0.37536344 0.2741146
0000d0 0c 05 31 be f2 d4 81 be e1 eb 92 be 78 ea db 3d
       -0.17287081 -0.25357777 -0.28695586 0.10738081

regression4.4.bias f4 [8]
000000 bd 8b cc 3f b1 99 b0 3f 55 d5 45 3f 93 e3 66 be
       1.5980145 1.3796903 0.77278644 -0.2254775
000010 9c 85 b1 3f 27 bc c6 3f d2 22 e1 3f 0f 60 9f 3d
       1.3868899 1.552617 1.7588751 0.077819936

regression4.6.weight f4 [7, 8]
000000 30 54 c0 3c 81 7d 90 3e 30 e3 0e 3e 2c d5 86 bd
       0.023477644 0.28220752 0.13953853 -0.06583628
000010 62 c5 ea bd 9e 53 8e be 6d c7 11 be 08 e6 55 3d
       -0.11463429 -0.2779817 -0.14236231 0.052221328
000020 ef 82 03 be e0 2b 0b bc 7a 14 3e 3e a0 18 ff 3d
       -0.12842916 -0.008494347 0.18562499 0.12455869
000030 32 7b 57 3e ca 0f ac be 58 75 10 3d 6a 33 73 3e
       0.21043089 -0.33605796 0.035268158 0.23750082
000040 39 1f 44 be 40 87 ae 3c 1a 63 90 be b5 10 9f 3e
       -0.19152535 0.021304727 -0.28200608 0.31067434
000050 e8 61 9e be c4 a9 ee 3d 7a e4 7e be 88 ee 23 bd
       -0.30934072 0.11653474 -0.24891844 -0.040022403
000060 e1 77 ab 3f 2b 63 63 3f 4f 35 a9 3e e6 0d 4e 3d
       1.3395959 0.88823193 0.33048484 0.050306223
000070 d9 35 58 3f 80 d5 a5 3f 82 b8 4b 3f d8 02 b0 3d
       0.84457165 1.295578 0.7957841 0.085942924
000080 7c db b4 3f 5a e4 91 3f cf 84 6a 3f 99 6c 62 be
       1.4129481 1.1397812 0.916089 -0.22111739
000090 9f 94 5d 3f bc 09 5f 3f 42 72 a1 3f e5 8a b1 bd
       0.865549 0.8712423 1.2612994 -0.0866907
0000a0 33 9e f1 3e 53 3f 4b 3f 98 be 63 3f 4f 6a 78 3e
       0.4719101 0.793935 0.889627 0.24259304
0000b0 99 9b 13 3f e1 7f 5a 3f f6 ae 52 3f 00 3e da 3a
       0.576593 0.8535138 0.8229822 0.0016650558
0000c0 42 3f 24 3e ec ef 99 be 70 43 99 bc d0 79 49 bd
       0.16039756 -0.30065858 -0.018708915 -0.049188435
0000d0 62 d7 93 be a2 5d 4c 3e 44 49 89 bd 8e fb 22 be
       -0.28875262 0.19957593 -0.067034274 -0.15916273

regression4.6.bias f4 [7]
000000 16 a4 0a 3e c3 d5 5e be 68 30 08 be dc a5 af 3f
       0.13539156 -0.21761231 -0.13299716 1.3722491
000010 0d c3 be 3f ab 5e 1b 3f 80 5a 2d bc
       1.4903275 0.60691327 -0.010580659

regression4.8.weight f4 [6, 7]
000000 bc 2f d5 3d ad 13 9f 3e 68 4e 82 be c4 07 e4 3d
       0.10409495 0.310697 -0.25450444 0.11134294
000010 7d 37 4f be 80 01 35 be f4 96 8a bd 4f 7f b6 be
       -0.20236011 -0.17676353 -0.06767073 -0.35644004
000020 2e 9c 0e be b0 b4 bb bc 15 48 2c be 30 71 2b 3d
       -0.13926765 -0.022913307 -0.16824372 0.04185599
000030 20 54 6c 3d 1b 88 8f be 28 f7 6c be 25 0d 9f 3e
       0.057697415 -0.28033528 -0.23141158 0.31064716
000040 c5 4b 3b be 2c a2 8a 3f a2 ad 9b 3f 7b 1f 56 3f
       -0.18290623 1.0830741 1.2162364 0.83641785
000050 80 87 7d 3c f1 53 41 be 8e 00 00 3e 1c 71 98 bd
       0.0154742 -0.18879677 0.12500212 -0.07443449
000060 9b f7 78 be 31 9d 11 be 2c cd 9f 3d 16 a8 ae be
       -0.24313204 -0.1422012 0.07802805 -0.34112614
000070 b0 9a b9 bc 47 ca 99 3e 0e df 5a 3e 4e 03 a8 3f
       -0.022656769 0.30037138 0.21374151 1.3126009
000080 24 05 99 3f ba 88 85 3f c8 e0 f6 3d 60 da b5 3d
       1.1954694 1.0432351 0.12054592 0.08879542
000090 15 19 a8 3e 10 d1 3d bd 53 70 1b be c2 d2 dd be
       0.32831636 -0.046341956 -0.15179567 -0.43324858
0000a0 4b d0 a1 be 76 7a 90 be
       -0.31604227 -0.2821843

regression4.8.bias f4 [6]
000000 30 fe 22 bd b0 a8 93 bc f8 34 ab 3f 8a 65 6c 3d
       -0.039793193 -0.018024772 1.337554 0.057714023
000010 f3 21 2f 3f 6d 21 36 3e
       0.6841118 0.17786188

regression4.10.weight f4 [1, 6]
000000 0e 46 ad be a1 12 3a be 6c e5 ab 3f 32 4a b6 be
       -0.3384251 -0.18171169 1.3429389 -0.35603482
000010 51 a8 ae 3f 08 0d 85 be
       1.3645116 -0.25986505
