nn_metamodel/ann_metamodel/runs/Jan.18 20:47:56/model_weights.pth (torch_old, 10017 bytes, 29 tensors)

fc.weight f4 [1, 3]
0.2050494 0.17678106 -0.5245734
00000000: 78f8 513e 1806 353e 714a 06bf

regression3.0.weight f4 [12, 3]
-0.7296961 0.5933738 0.13592318 -1.2600614 -0.2833006 0.36189002 -0.5198749 -0.3711349
-0.104474574 -0.4459874 0.55237204 -0.60242563 -0.361077 -0.26471606 -0.11319019 -0.9239287
-0.2769024 0.27406827 -0.37605116 0.2596189 0.14482379 -0.1374802 0.114618 -0.37223873
-0.49074423 0.17942762 0.057980657 -1.2435609 0.31477323 -0.12641396 -0.45550025 -0.21907933
0.03555272 -0.58455527 -0.32278582 0.2018693
00000000: 5dcd 3abf 58e7 173f 722f 0b3e b149 a1bf
00000010: c70c 91be a649 b93e 8516 05bf 6505 bebe
00000020: c4f6 d5bd 7658 e4be 4168 0d3f 9138 1abf
00000030: 16df b8be dd88 87be 42d0 e7bd 9786 6cbf
00000040: 27c6 8dbe ad52 8c3e c789 c0be c5ec 843e
00000050: b04c 143e 9cc7 0cbe d8bc ea3d 1396 bebe
00000060: d442 fbbe e0bb 373e 207d 6d3d 012d 9fbf
00000070: f529 a13e a972 01be 5437 e9be 5556 60be
00000080: bb9f 113d 6aa5 15bf 2f44 a5be d3b6 4e3e

regression3.0.bias f4 [12]
1.2197176 2.062502 -0.1952877 1.9386599 1.8202254 1.6362938 1.4046558 -0.10458678
-0.46237174 1.8766991 1.8654871 1.8591363
00000000: b51f 9c3f 0800 0440 80f9 47be 0226 f83f
00000010: 25fd e83f 1372 d13f c3cb b33f 9831 d6bd
00000020: fdbb ecbe ad37 f03f 48c8 ee3f 2ef8 ed3f

regression3.2.weight f4 [21, 12]
-0.28639063 -0.21731797 0.17248431 0.10796872 0.19074392 0.254951 -0.1912328 -0.22971007
-0.2632796 -0.21065524 -0.19813816 0.22708601 0.03197408 0.72027165 -0.22290416 1.1963407
0.8552256 0.71494055 0.07261755 0.25866973 -0.14438182 0.8988845 0.83681566 0.70650214
0.16904292 0.7809076 -0.07488488 1.2672628 0.5075558 0.6796709 0.5758771 -0.0008915663
-0.17164704 1.1551548 0.86586696 0.880593 -0.07453844 -0.22120771 0.25815195 -0.14548543
0.24268645 -0.0024922788 -0.09439629 -0.21368316 0.09323859 -0.20191872 -0.28257924 -0.112317905
0.32952023 0.8589844 0.14338881 1.1344122 0.8491412 0.65109307 0.28480145 -0.18003657
-0.27035818 1.0429224 0.6637261 0.63142544 0.50557274 0.7226126 -0.15306664 0.8274124
0.9276218 1.1876317 0.17612626 -0.19396299 -0.12711123 0.88363993 0.95478565 0.64153546
-0.14070307 -0.033190966 -0.051032707 0.09293312 -0.08483702 -0.12108374 0.13836375 -0.20199084
0.23368996 0.06568152 -0.07529415 -0.26302636 -0.09971732 0.6832777 0.035141557 0.7389262
0.90995055 1.0683581 0.3487797 -0.21837941 0.26317233 0.7094371 0.78698623 0.81915
0.14789577 1.140403 -0.047664553 1.0012025 0.91307425 1.0887053 0.33377412 -0.2866177
-0.14728609 0.7638266 0.82618856 0.50803035 0.42036778 0.8790724 -0.28316635 0.9617354
0.6978306 0.74244016 0.5213671 0.1994164 -0.032700926 0.8919064 0.84352195 0.94547033
0.039563328 1.2333233 0.012267172 0.91292185 0.9299224 1.1712443 0.19381995 0.20963329
-0.15021007 1.2081373 0.5462748 0.86053044 -0.29180026 -0.07584435 0.27579588 0.20164265
-0.046545744 -0.019913375 0.0681831 -0.01754415 -0.23973258 -0.26575774 -0.042592373 -0.24788201
-0.26564193 0.27289313 -0.02741319 0.19090036 -0.077506036 -0.05857396 -0.16156177 -0.16907936
0.28102756 0.13788423 -0.18613723 0.13330144 0.3988311 1.0073516 -0.17873302 1.0103607
0.575934 1.0868015 0.58604616 -0.08984466 -0.13664947 1.2410129 0.93037313 0.87832093
0.06860545 0.12655947 -0.08024281 0.03178546 -0.07027595 0.0031224191 -0.08644581 -0.18102834
0.03048715 -0.27211905 0.19188172 -0.22427957 0.5005277 0.97448814 0.15155461 0.8539159
0.9166174 0.8699796 0.27317077 -0.009002209 -0.23312753 0.9698462 0.6560966 0.92510223
0.02643812 0.84004205 0.010440946 0.72125536 0.5290336 0.6910182 0.2917093 0.17995712
-0.25421268 1.1694329 0.7857718 0.63107485 0.21602577 -0.28241026 -0.2531175 -0.25818828
0.04010421 0.019785285 -0.10502708 -0.08064082 0.033177793 -0.0064501166 0.07934436 -0.22588906
0.330707 0.7181369 0.10063732 1.2792234 0.8593771 0.96066916 0.124239765 0.25343865
-0.20994955 1.2215754 0.42479768 0.48597935 0.32922626 0.88828814 0.2680446 1.3637766
0.49700135 0.8637028 0.23526075 -0.19355352 0.055869102 0.9730369 0.72976387 0.49226308
0.42806265 1.1417611 -0.004104078 1.0299567 0.8349527 0.67186415 0.049144212 -0.106169164
0.018325448 1.2587363 0.91703564 0.8025513
00000000: cba1 92be 9a88 5ebe ba9f 303e b41e dd3d
00000010: 6052 433e f088 823e 88d2 43be 1e39 6bbe
00000020: 95cc 86be 02b6 57be bbe4 4abe 3c89 683e
00000030: 41f7 023d b963 383f fd40 64be b121 993f
00000040: 11f0 5a3f 5806 373f 83b8 943d 5c70 843e
00000050: d4d8 13be 4b1d 663f 8d39 563f 53dd 343f
00000060: 9619 2d3e 8fe9 473f 3e5d 99bd ab35 a23f
00000070: 2def 013f e9fe 2d3f ae6c 133f 00b8 69ba
00000080: 3ec4 2fbe 1ddc 933f 75a9 5d3f 8b6e 613f
00000090: 9ca7 98bd 4684 62be 7e2c 843e 22fa 14be
000000a0: cc82 783e 8055 23bb d852 c1bd c2cf 5abe
000000b0: e0f3 be3d c8c3 4ebe 3aae 90be ee06 e6bd
000000c0: e0b6 a83e 67e6 5b3f 84d4 123e 6b34 913f
000000d0: 5161 593f 09ae 263f 7fd1 913e 825b 38be
000000e0: 636c 8abe 7b7e 853f f4e9 293f 19a5 213f
000000f0: 376d 013f 24fd 383f 80bd 1cbe 4dd1 533f
00000100: 9f78 6d3f 5104 983f 715a 343e 3c9e 46be
00000110: 7229 02be 3a36 623f d56c 743f ab3b 243f
00000120: 7714 10be 40f3 07bd ac07 51bd b853 be3d
00000130: 08bf adbd c0fa f7bd 3aaf 0d3e b0d6 4ebe
00000140: 6c4c 6f3e 0884 863d d233 9abd 64ab 86be
00000150: 9838 ccbd 4aeb 2e3f 98f0 0f3d 442a 3d3f
00000160: 85f2 683f f5bf 883f 4193 b23e da9e 5fbe
00000170: 86be 863e ab9d 353f ee77 493f d0b3 513f
00000180: fd71 173e baf8 913f e83b 43bd 6727 803f
00000190: 3cbf 693f b25a 8b3f 71e4 aa3e 8ebf 92be
000001a0: 2ad2 16be 248a 433f 1881 533f 470e 023f
000001b0: 723a d73e e40a 613f 2efb 90be 4b34 763f
000001c0: 07a5 323f 8f10 3e3f 5078 053f d033 4c3e
000001d0: 68f1 05bd fa53 643f 0ef1 573f 580a 723f
000001e0: 280d 223d 8add 9d3f 40fc 483c 3fb5 693f
000001f0: 650f 6e3f 55eb 953f bd78 463e 1caa 563e
00000200: abd0 19be 3ea4 9a3f aad8 0b3f b94b 5c3f
00000210: d866 95be 4854 9bbd 1e35 8d3e 697b 4e3e
00000220: c0a6 3ebd 6021 a3bc 95a3 8b3d c0b8 8fbc
00000230: 757c 75be 6611 88be 5775 2ebd c8d4 7dbe
00000240: 3802 88be a6b8 8b3e a091 e0bc 627b 433e
00000250: 7cbb 9ebd 40eb 6fbd 7370 25be 2423 2dbe
00000260: d8e2 8f3e 8631 0d3e c29a 3ebe 2c80 083e
00000270: 9733 cc3e e6f0 803f ca05 37be 8053 813f
00000280: 6970 133f 501c 8b3f 1f07 163f 7a00 b8bd
00000290: d7ed 0bbe 83d9 9e3f ef2c 6e3f a4d9 603f
000002a0: 0481 8c3d ce98 013e 5856 a4bd 7831 023d
000002b0: d6ec 8fbd 80a1 4c3b 800a b1bd 7e5f 39be
000002c0: 30c0 f93c 3053 8bbe a47c 443e 8ba9 65be
000002d0: 9522 003f 0e78 793f 2231 1b3e 3c9a 5a3f
000002e0: 70a7 6a3f fcb6 5e3f 0add 8b3e 007e 13bc
000002f0: fcb8 6ebe d747 783f f2f5 273f 80d3 6c3f
00000300: c294 d83c ff0c 573f 8010 2b3c 31a4 383f
00000310: bf6e 073f 92e6 303f ec5a 953e ae46 383e
00000320: 2a28 82be faaf 953f 5728 493f 1f8e 213f
00000330: dc35 5d3e 1498 90be 9e98 81be 4131 84be
00000340: 5044 243d c014 a23c 7018 d7bd 0427 a5bd
00000350: 70e5 073d 805b d3bb 4c7f a23d 764f 67be
00000360: 6e52 a93e d2d7 373f f01a ce3d 98bd a33f
00000370: 2300 5c3f 6aee 753f 6b71 fe3d b6c2 813e
00000380: 04fd 56be 955c 9c3f 157f d93e 49d2 f83e
00000390: 5890 a83e da66 633f 243d 893e 3b90 ae3f
000003a0: f676 fe3e a01b 5d3f 32e8 703e e532 46be
000003b0: 00d7 643d f218 793f ced1 3a3f e809 fc3e
000003c0: 072b db3e 3a25 923f 807b 86bb 9fd5 833f
000003d0: 76bf 553f 4aff 2b3f 714b 493d 386f d9bd
000003e0: 401f 963c 451e a13f d9c2 6a3f 0174 4d3f

regression3.2.bias f4 [21]
-0.10513961 0.97145295 1.4877481 -0.25222874 1.3899299 1.1910748 -0.043122873 1.1125478
1.4041513 1.4194056 1.4738237 0.038324483 0.0011828244 1.3189825 -0.12522224 1.2739471
1.3824577 -0.20040163 1.6002887 1.6123672 1.4974647
00000000: 7053 d7bd 24b1 783f 886e be3f 2024 81be
00000010: 39e9 b13f 2475 983f 9ca1 30bd f767 8e3f
00000020: 3bbb b33f 15af b53f 41a6 bc3f 22fa 1c3d
00000030: 0009 9b3a 6bd4 a83f 423a 00be b310 a33f
00000040: 60f4 b03f 1636 4dbe 43d6 cc3f 0c62 ce3f
00000050: ecac bf3f

regression3.4.weight f4 [9, 21]
-0.18193446 0.6477546 0.8469466 0.07642521 0.6867949 0.83607185 -0.06338838 0.6469494
0.76616496 0.73369336 0.84950596 -0.14416969 0.1913286 0.836412 0.21257128 0.8597863
0.6226302 0.11819632 0.78041786 0.8157194 0.6338157 -0.1876094 0.035708215 0.12762313
-0.14474808 0.17045735 0.09156749 0.0015139133 0.047322325 -0.06949563 0.14791158 -0.2386671
-0.16021714 0.20534976 -0.11441582 -0.1931431 -0.044415776 -0.046334762 0.20008485 -0.13879718
-0.24692234 0.104623534 -0.058526054 0.6392708 0.9152371 -0.16825654 0.983742 0.8427962
0.09490828 0.9910721 0.680136 0.89078844 0.7379923 0.09081962 0.21268909 0.7053035
0.12303646 0.92270184 0.8018531 -0.06930496 1.0180492 0.6644637 0.7822813 0.052208528
0.20391212 -0.14375612 -0.0860495 -0.22692578 -0.16120423 -0.14270961 0.013946245 -0.19974321
0.04784492 -0.24436305 -0.09132995 -0.12204835 -0.008496925 -0.10169403 0.083288684 0.11678398
0.14722754 0.03181885 -0.05331065 0.045098092 0.12728561 0.7945172 0.96163625 -0.15217277
0.6755048 0.80391216 0.1485988 0.7913491 0.73668945 0.89617103 1.035467 -0.036389835
-0.21290745 0.71310574 0.18165688 0.7895536 0.822421 -0.09360021 0.8159061 0.8171731
0.99482286 0.103516504 0.9291414 0.7923666 0.15201949 0.73478746 0.7960617 0.121420756
0.6021664 1.0234861 0.5973609 0.8913385 -0.103561565 -0.13278127 0.74965006 -0.1072657
0.9641536 0.67028964 0.17446782 0.8535171 0.9705012 1.0069937 -0.1608845 0.75209135
0.79351014 0.013435841 0.71086156 0.59060323 -0.13260737 0.60341567 0.71032476 0.8946963
0.86951494 -0.08339019 0.21319123 0.77811015 0.15885352 0.70657194 0.8384629 -0.10614761
0.8840371 0.861879 0.889205 0.098215595 0.8343689 0.8163141 -0.11332206 0.8759318
0.9650773 0.14775635 0.97192574 1.0249898 0.66441035 1.0004753 0.042054057 0.14510323
0.6304897 -0.08560027 0.64461315 0.9182808 0.030707628 1.002136 0.7088285 0.92486066
-0.1341601 0.04118624 -0.09358374 0.06133379 0.16710848 -0.11833048 0.11901949 -0.049838733
-0.250671 0.025858471 -0.17231429 -0.16975945 0.17407574 -0.0032732815 0.019851997 -0.04573533
-0.02068819 0.1973023 -0.22741935 0.04437753 0.114444114
00000000: 074d 3abe 3fd3 253f 7ed1 583f d284 9c3d
00000010: cad1 2f3f ce08 563f c4d1 81bd 7a9e 253f
00000020: 6323 443f 54d3 3b3f 3979 593f 38a1 13be
00000030: a5eb 433e 191f 563f 49ac 593e f41a 5c3f
00000040: b164 1f3f ea10 f23d 77c9 473f fdd2 503f
00000050: bf41 223f ae1c 40be c742 123d a3af 023e
00000060: d738 14be 5f8c 2e3e bc87 bb3d 806e c63a
00000070: 0ed5 413d ba53 8ebd 2276 173e 2665 74be
00000080: f60f 24be 3547 523e d752 eabd 4ec7 45be
00000090: 51ed 35bd 85c9 3dbd 0be3 4c3e d920 0ebe
000000a0: 36d9 7cbe dd44 d63d 04b9 6fbd 40a7 233f
000000b0: fb4c 6a3f 714b 2cbe 84d6 7b3f 7ec1 573f
000000c0: 465f c23d e7b6 7d3f 651d 2e3f b60a 643f
000000d0: 10ed 3c3f a3ff b93d 2bcb 593e c58e 343f
000000e0: 8afa fb3d 3036 6c3f 3f46 4d3f c2ef 8dbd
000000f0: 704f 823f 4b1a 2a3f 9643 483f 9cd8 553d
00000100: 57ce 503e ce34 13be b83a b0bd 3b5f 68be
00000110: b912 25be 7822 12be cb7e 643c 7c89 4cbe
00000120: 09f9 433d 4f3a 7abe 320b bbbd 7cf4 f9bd
00000130: b036 0bbc f644 d0bd 4293 aa3d 702c ef3d
00000140: d1c2 163e 7c54 023d 455c 5abd c7b8 383d
00000150: 2957 023e 7b65 4b3f cb2d 763f 2ed3 1bbe
00000160: e2ed 2c3f 30cd 4d3f 492a 183e db95 4a3f
00000170: ae97 3c3f 776b 653f 2f8a 843f 820d 15bd
00000180: 6904 5abe 198e 363f 4304 3a3e 2f20 4a3f
00000190: 2f8a 523f 78b1 bfbd 39df 503f 4232 513f
000001a0: b6ac 7e3f 7600 d43d 36dc 6d3f 8ad8 4a3f
000001b0: ffaa 1b3e 081b 3c3f b3ca 4b3f 72ab f83d
000001c0: 9427 1a3f 9801 833f a5ec 183f c32e 643f
000001d0: 1618 d4bd d0f7 07be 11e9 3f3f 1fae dbbd
000001e0: c5d2 763f 1a98 2b3f b1a7 323e 1980 5a3f
000001f0: c472 783f 2be5 803f e8be 24be 0f89 403f
00000200: 7b23 4b3f 0022 5c3c 06fb 353f c631 173f
00000210: 3aca 07be 7379 1a3f d8d7 353f d10a 653f
00000220: 8898 5e3f 7ac8 aabd cd4e 5a3e 3a32 473f
00000230: 7faa 223e e6e1 343f 81a5 563f eb63 d9bd
00000240: 4150 623f 1aa4 5c3f f0a2 633f 4225 c93d
00000250: 3399 553f f6f9 503f 6515 e8bd 113d 603f
00000260: 4e0f 773f 714d 173e 20d0 783f de32 833f
00000270: cc16 2a3f 930f 803f e040 2c3d f195 143e
00000280: c667 213f 324f afbd 5e05 253f 7314 6b3f
00000290: 908e fb3c fe45 803f c975 353f abc3 6c3f
000002a0: 4461 09be e7b2 283d d5a8 bfbd 2439 7b3d
000002b0: 7c1e 2b3e 4057 f2bd 7ec0 f33d b323 4cbd
000002c0: f357 80be 25d5 d33c 2873 30be 6cd5 2dbe
000002d0: e940 323e 8d84 56bb a8a0 a23c f854 3bbd
000002e0: 477a a9bc 9d09 4a3e 9ee0 68be 37c5 353d
000002f0: ad61 ea3d

regression3.4.bias f4 [9]
1.128067 -0.25504923 1.0189819 0.15927334 1.04838 1.3511456 1.105564 1.0211403
0.1411306
00000000: 8064 903f d095 82be 006e 823f 8d18 233e
00000010: 5131 863f 57f2 ac3f 1f83 8d3f bab4 823f
00000020: 8a84 103e

regression3.6.weight f4 [1, 9]
1.0607568 -0.04609068 0.8976906 -0.26656845 0.8148526 0.8906064 1.0719259 0.95224977
-0.053595956
00000000: e1c6 873f 95c9 3cbd 0dcf 653f a97b 88be
00000010: 2e9a 503f c8fe 633f de34 893f a4c6 733f
00000020: 6f87 5bbd

regression2.0.weight f4 [6, 3]
0.53023016 -0.09293419 0.33333808 -0.07667059 -0.11048478 -0.5744074 0.111765146 0.07725364
-0.2929355 -0.24965534 -0.020812452 0.16517222 -0.016039431 0.32520497 -0.5519885 0.3389864
-0.08824918 -0.5236985
00000000: 2abd 073f 4854 bebd 4aab aa3e 7805 9dbd
00000010: d845 e2bd 5d0c 13bf 20e5 e43d 2837 9e3d
00000020: a4fb 95be a6a5 7fbe e07e aabc e822 293e
00000030: 2065 83bc 4481 a63e 1e4f 0dbf a08f ad3e
00000040: fcbb b4bd 1b11 06bf

regression2.0.bias f4 [6]
-0.06059891 0.117880344 0.14518458 0.5135473 0.3219508 0.05468929
00000000: 9036 78bd 406b f13d 44ab 143e d677 033f
00000010: bcd6 a43e e001 603d

regression2.2.weight f4 [7, 6]
0.21477562 0.03982663 -0.40236986 0.28127307 0.36405706 0.35498655 0.37953663 0.3087479
-0.24931417 0.3593567 -0.25898665 0.09892404 -0.13737193 -0.054834157 0.23988867 -0.27906448
-0.040056646 -0.09643239 -0.012014419 -0.19399275 0.037317306 -0.006580949 -0.040610313 -0.22886182
0.25259578 -0.40253037 -0.37701482 0.29634893 -0.34683192 0.11589569 0.2940929 0.3992663
0.2623729 -0.2975541 -0.18081023 -0.07300234 0.21371353 -0.19494891 -0.23278858 -0.4059351
0.35567153 -0.24655505
00000000: 24ee 5b3e 4021 233d 6c03 cebe 0603 903e
00000010: b065 ba3e ccc0 b53e a052 c23e 3414 9e3e
00000020: 374c 7fbe 9afd b73e e699 84be b098 ca3d
00000030: 3aab 0cbe c899 60bd 60a5 753e 8ae1 8ebe
00000040: 7012 24bd 587e c5bd 20d8 44bc 09a6 46be
00000050: 08da 183d 00a5 d7bb 0057 26bd c15a 6abe
00000060: 3c54 813e 7618 cebe 1608 c1be 0cbb 973e
00000070: f493 b1be b85a ed3d 5893 963e a26c cc3e
00000080: be55 863e 0359 98be 5126 39be 4082 95bd
00000090: b8d7 5a3e b0a0 47be 2160 6ebe bad6 cfbe
000000a0: 941a b63e ed78 7cbe

regression2.2.bias f4 [7]
-0.36186686 -0.039173216 -0.08617109 -0.089259595 -0.27350003 0.2425577 -0.2548826
00000000: 9d46 b9be 1874 20bd 787a b0bd bccd b6bd
00000010: 3208 8cbe 0c61 783e f97f 82be

regression2.4.weight f4 [6, 7]
0.13337657 0.26264748 -0.08975577 -0.1531864 0.014206022 -0.0537149 -0.109677136 -0.08417174
0.06360859 -0.32003078 -0.22726423 -0.2883529 0.073132575 0.36496976 0.36239037 -0.25420606
-0.37504646 0.15469262 0.23615465 -0.15135762 0.12460664 0.24278727 -0.32154 -0.032012314
-0.11195296 -0.10123554 -0.16650182 -0.13575277 0.015717 0.2906693 0.27024648 -0.2844689
0.09117597 -0.21315534 -0.14920427 0.3031017 0.18571535 -0.24251692 0.18866125 -0.1893685
0.034354597 -0.2659833
00000000: de93 083e bb79 863e e0d1 b7bd e5dc 1cbe
00000010: 60c0 683c 2804 5cbd 689e e0bd 3c62 acbd
00000020: 3845 823d 13db a3be f4b7 68be fea2 93be
00000030: 88c6 953d 51dd ba3e 3b8b b93e 4c27 82be
00000040: 1706 c0be be67 1e3e 86d2 713e 7efd 1abe
00000050: c431 ff3d 3a9d 783e e4a0 a4be 581f 03bd
00000060: 9847 e5bd 9454 cfbd 747f 2abe c602 0bbe
00000070: f0c0 803c 9bd2 943e bf5d 8a3e e8a5 91be
00000080: 78ba ba3d 6545 5abe 01c9 18be 2530 9b3e
00000090: 2a2c 3e3e 5b56 78be 6a30 413e d1e9 41be
000000a0: 68b7 0c3d f72e 88be

regression2.4.bias f4 [6]
0.372763 -0.31486624 0.35708568 -0.13960382 -0.34861356 0.046263874
00000000: cbda be3e 2636 a1be efd3 b63e 4ef4 0ebe
00000010: 7a7d b2be 307f 3d3d

regression2.6.weight f4 [1, 6]
0.09667027 0.38477927 -0.35242897 -0.3928855 -0.17345957 0.0070842505
00000000: 10fb c53d ca01 c53e 9271 b4be 4a28 c9be
00000010: 639f 31be 0023 e83b

regression1.0.weight f4 [55, 3]
0.044911683 -0.18054283 0.15547979 -0.42873856 0.4594407 -0.010315597 -0.0065588355 -0.3353545
0.09613657 -0.5547533 -0.41501838 -0.27287045 0.1297391 -0.26941493 0.4006465 -0.19795272
0.4565829 -0.006468892 0.12047887 0.18397945 0.5138359 0.05937463 -0.17744538 0.34680843
0.45508957 0.42014974 0.22274083 -0.46329343 -0.39558497 -0.5689703 -0.5544078 -0.31306243
-0.33956644 0.42127424 -0.030988395 0.45460486 -0.4907001 -0.31161928 0.032536805 -0.22461998
-0.09168184 0.10553479 -0.49358195 0.43962216 0.43633533 -0.4864164 0.13891721 -0.4639106
0.4891323 -0.053545833 0.20051783 -0.119903535 0.42458904 0.20356399 0.3056106 -0.028819919
-0.34150946 -0.1791215 -0.4098454 -0.1838916 -0.55980164 -0.12069297 0.007486224 -0.2122528
-0.46374515 0.2873934 0.056688547 0.0095229745 -0.0112172365 0.57478416 -0.018721282 0.39424723
0.54476357 -0.16783777 0.32494283 0.17209566 -0.00091946125 -0.14194244 0.46433938 0.4725219
-0.4242196 0.18208617 0.03957033 -0.010468483 -0.26190406 -0.23890898 -0.051591933 0.28387785
-0.45972854 -0.52282524 0.3193292 -0.22579256 -0.063299656 -0.3508081 0.11918825 0.26732403
-0.117149204 0.4732237 -0.41698715 0.30643904 0.11969918 0.18226379 0.22279686 0.028786182
-0.05185616 -0.353948 -0.41585684 0.50946605 0.18491238 -0.17502418 -0.5589085 -0.24188149
0.20705074 0.44847953 -0.2906158 -0.251279 0.21157402 -0.3851237 -0.35773376 0.24937826
-0.20283216 0.08582902 -0.36670172 -0.5635027 -0.5557921 -0.23121911 -0.48687643 0.5684217
0.120425105 -0.5089685 0.29470664 0.51365304 0.35238445 0.33570385 0.4146322 0.23405665
0.026788056 0.14313966 0.10433471 -0.49619624 -0.13917345 -0.025779724 0.3978209 0.10319346
0.21579766 0.43649113 -0.032369673 -0.56399655 0.36394262 -0.5061301 0.50864184 -0.4157638
-0.5693994 0.18340689 0.33490717 -0.2886732 -0.38234466 0.42381537 0.45272636 -0.5574789
0.45032096 -0.16483834 -0.2473684 0.3798895 -0.570392
00000000: 50f5 373d 38e0 38be 1836 1f3e 9f83 dbbe
00000010: d03b eb3e c002 29bc 80eb d6bb 96b3 abbe
00000020: 40e3 c43d 5004 0ebf 4a7d d4be adb5 8bbe
00000030: 54da 043e c1f0 89be 8a21 cd3e 1eb4 4abe
00000040: 3cc5 e93e 00f9 d3bb a0bd f63d 1c65 3c3e
00000050: c08a 033f d032 733d 3eb4 35be e090 b13e
00000060: 8001 e93e de1d d73e 2c16 643e cc34 edbe
00000070: 1d8a cabe 0aa8 11bf abed 0dbf b849 a0be
00000080: a7db adbe 42b1 d73e 60db fdbc f8c1 e83e
00000090: 0b3d fbbe 908c 9fbe 5045 053d c802 66be
000000a0: b0c3 bbbd a022 d83d c6b6 fcbe 2816 e13e
000000b0: 5867 df3e 920b f9be 5040 0e3e b185 edbe
000000c0: 8c6f fa3e e052 5bbd 8c54 4d3e fc8f f5bd
000000d0: bc63 d93e 1473 503e fe78 9c3e c017 ecbc
000000e0: 54da aebe a06b 37be 42d7 d1be 144e 3cbe
000000f0: 294f 0fbf e02d f7bd 004f f53b cc58 59be
00000100: 0170 edbe 3a25 933e 4032 683d 4006 1c3c
00000110: 80c8 37bc 0e25 133f 605d 99bc c6da c93e
00000120: a075 0b3f aadd 2bbe e85e a63e d839 303e
00000130: 0008 71ba 5c59 11be e4bd ed3e 64ee f13e
00000140: 5033 d9be cc74 3a3e 8014 223d 0084 2bbc
00000150: 4a18 86be 8ea4 74be 1052 53bd 7058 913e
00000160: 8a61 ebbe e0d7 05bf 1e7f a33e 2a36 67be
00000170: 40a3 81bd 1f9d b3be f818 f43d b2de 883e
00000180: eceb efbd 604a f23e 577f d5be 94e5 9c3e
00000190: d824 f53d 5ca3 3a3e dc24 643e 00d1 eb3c
000001a0: 2067 54bd ac38 b5be 30eb d4be 5e6c 023f
000001b0: ac59 3d3e 8a39 33be a114 0fbf c8af 77be
000001c0: 1c05 543e 1c9f e53e 98cb 94be a4a7 80be
000001d0: dca6 583e ef2e c5be e128 b7be 045d 7f3e
000001e0: 3cb3 4fbe 20c7 af3d 54c0 bbbe b741 10bf
000001f0: 6448 0ebf b4c4 6cbe de47 f9be 1684 113f
00000200: 70a1 f63d c24b 02bf cae3 963e c47e 033f
00000210: bc6b b43e 60e1 ab3e ac4a d43e 8cac 6f3e
00000220: a072 db3c 3493 123e 70ad d53d 6f0d febe
00000230: 7c83 0ebe 0030 d3bc 2eaf cb3e 1857 d33d
00000240: 10fa 5c3e c47b df3e 1096 04bd 1462 10bf
00000250: b056 ba3e be91 01bf 5a36 023f fede d4be
00000260: 29c4 11bf 04cf 3b3e f478 ab3e f9cc 93be
00000270: aec2 c3be 54fe d83e c0cb e73e f0b6 0ebf
00000280: 7890 e63e 62cb 28be 244e 7dbe e080 c23e
00000290: 3605 12bf

regression1.0.bias f4 [55]
0.15315461 0.049271345 -0.13142714 -0.37284207 -0.40715027 -0.40510932 -0.24016622 0.4262489
-0.3606885 -0.09302291 0.43671536 0.1848073 0.018131375 -0.10323477 -0.31627554 -0.16397652
0.16193384 0.13598388 -0.1054886 0.37805498 0.46937394 -0.15181643 -0.40783316 -0.082776725
-0.3519014 -0.44274145 -0.44075722 0.38802397 0.38004893 0.5694684 0.40513432 0.13686675
0.41412014 -0.5551852 0.4473195 -0.41876572 -0.43187946 0.2067486 -0.16281846 -0.07257682
0.56394196 -0.12036136 0.2755586 0.21106243 0.5172657 -0.3956101 0.39706123 0.4109323
0.15863061 0.13246077 0.54755855 0.24345315 -0.21745744 0.42043334 -0.14912996
00000000: 90d4 1c3e c0d0 493d d694 06be 28e5 bebe
00000010: 0076 d0be 7d6a cfbe 22ee 75be 4c3d da3e
00000020: 2aac b8be cc82 bebd 2899 df3e 203e 3d3e
00000030: 4088 943c c06c d3bd deee a1be 76e9 27be
00000040: fcd1 253e 5c3f 0b3e 680a d8bd 6c90 c13e
00000050: c851 f03e c475 1bbe 82cf d0be d886 a9bd
00000060: 6c2c b4be 02af e2be eeaa e1be 14ab c63e
00000070: c695 c23e aec8 113f c46d cf3e cc26 0c3e
00000080: 8e07 d43e 9e20 0ebf 1007 e53e 7668 d6be
00000090: 4e1f ddbe e8b5 533e e2b9 26be 28a3 94bd
000000a0: 805e 103f 0480 f6bd 0416 8d3e c020 583e
000000b0: 866b 043f 688d cabe 9c4b cb3e b865 d23e
000000c0: 1070 223e cca3 073e cc2c 0c3f c84b 793e
000000d0: 2aad 5ebe 0a43 d73e 86b5 18be

regression1.2.weight f4 [1, 55]
0.11942296 -0.10635363 -0.02408196 0.027871996 -0.10707078 -0.1254996 0.12758563 0.00078105927
-0.04616373 0.07391772 0.067084536 -0.048937313 -0.13091525 -0.07035851 -0.04186047 0.00534077
-0.039316893 0.072273344 0.004570678 0.06246455 -0.111608826 0.119551614 0.0024207681 -0.032254137
-0.121592276 0.05503723 -0.067130715 0.0063112974 -0.091852136 -0.06160385 -0.02825766 -0.06606196
0.11350328 0.12726368 -0.0044820905 -0.12248273 -0.05339361 0.13328837 0.02758266 -0.093411766
0.104521215 0.0646687 -0.11355088 0.10618408 0.051920697 -0.041792408 -0.053320684 -0.09908217
-0.08242036 0.13358496 -0.073365286 0.099305674 -0.03635545 -0.08793822 0.12896915
00000000: 0694 f43d efcf d9bd 8847 c5bc d053 e43c
00000010: ed47 dbbd f882 00be cfa5 023e 00c0 4c3a
00000020: 2e16 3dbd 2c62 973d 9e63 893d 7e72 48bd
00000030: a60e 06be 1f18 90bd e275 2bbd a001 af3b
00000040: c00a 21bd 0c04 943d a0c5 953b d4da 7f3d
00000050: 2b93 e4bd 7ad7 f43d c0a5 1e3b ea1c 04bd
00000060: 5f05 f9bd b86e 613d d47b 89bd 00cf ce3b
00000070: f91c bcbd 5254 7cbd 9c7c e7bc 7e4b 87bd
00000080: 6874 e83d 6951 023e 80de 92bb 3ad8 fabd
00000090: 42b3 5abd bf7c 083e 08f5 e13c ab4e bfbd
000000a0: 380f d63d 0671 843d 5d8d e8bd 0a77 d93d
000000b0: ccaa 543d 842e 2bbd ca66 5abd 98eb cabd
000000c0: 01cc a8bd 7fca 083e 8a40 96bd c660 cb3d
000000d0: 74e9 14bd f418 b4bd 7d10 043e

regression4.0.weight f4 [6, 3]
-0.55778164 0.3944053 -0.49679908 -0.118285805 0.5265039 0.30055612 0.5742843 0.5702727
0.30738485 0.48296237 -0.5049538 -0.036657453 0.065303385 -0.41898337 0.10741162 0.22805816
-0.042049766 -0.13649434
00000000: c7ca 0ebf 7eef c93e 735c febe d43f f2bd
00000010: f6c8 063f 7ee2 993e 4c04 133f 64fd 113f
00000020: 8c61 9d3e d846 f73e a744 01bf 2026 16bd
00000030: c8bd 853d fd84 d6be a0fa db3d 1488 693e
00000040: 603c 2cbd 2cc5 0bbe

regression4.0.bias f4 [6]
0.52899885 -0.56451005 0.08797091 -0.52274275 0.4480648 0.22732061
00000000: 786c 073f bb83 10bf 182a b43d 78d2 05bf
00000010: c068 e53e bcc6 683e

regression4.2.weight f4 [7, 6]
0.23077935 -0.15471327 0.35910684 0.01019749 -0.33510816 -0.21897727 -0.30644 0.16965061
0.23111731 -0.17176333 -0.32468683 -0.21289204 -0.08481842 0.026632816 0.24398226 -0.14773035
0.34114212 -0.29544094 -0.2994908 -0.14427796 0.35541725 -0.20072885 -0.25801817 -0.30692956
-0.16078065 -0.18963253 0.037924916 -0.4000376 -0.101674676 -0.30519348 0.06858492 -0.048516363
-0.3881893 -0.37211058 -0.31690264 0.08231816 0.1626091 0.39667362 0.18297738 -0.37729317
0.17791682 -0.39235803
00000000: 6c51 6c3e 286d 1ebe dadc b73e 6013 273c
00000010: 4c93 abbe 943b 60be b4e5 9cbe e4b8 2d3e
00000020: 04aa 6c3e bae2 2fbe 5a3d a6be 5f00 5abe
00000030: 48b5 adbd 102d da3c 7cd6 793e a046 17be
00000040: 2eaa ae3e 0944 97be dc56 99be 9abd 13be
00000050: 40f9 b53e dd8b 4dbe f51a 84be df25 9dbe
00000060: afa3 24be 082f 42be 2857 1b3d bad1 ccbe
00000070: d03a d0bd 5242 9cbe 4076 8c3d 18b9 46bd
00000080: bfc0 c6be 4785 bebe 1041 a2be 6c96 a83d
00000090: 0083 263e ce18 cb3e 6c5e 3b3e 922c c1be
000000a0: d42f 363e 27e3 c8be

regression4.2.bias f4 [7]
-0.3520371 -0.25156593 0.2821985 0.12667483 0.40273803 0.34371877 -0.32316625
00000000: 353e b4be 40cd 80be 527c 903e 0cb7 013e
00000010: ae33 ce3e e8fb af3e 0c76 a5be

regression4.4.weight f4 [8, 7]
-0.2811035 -0.108178765 0.34772566 -0.21900931 -0.3002203 0.28620288 -0.3249241 -0.2716228
-0.024429172 0.109021544 -0.19028848 0.13769719 0.19881353 0.09931153 -0.1855115 -0.28334552
-0.08333674 -0.29929638 -0.36160377 -0.29592413 0.25575253 0.17148909 -0.22839577 0.22509405
-0.22888198 0.08111203 0.022653729 -0.3419572 -0.0032227337 -0.3689565 0.19284323 0.03869614
-0.2632856 -0.08434242 -0.23161519 -0.011179864 -0.32578054 0.3443999 0.35409436 -0.13440949
-0.30677044 0.27220634 0.24972257 -0.06891957 -0.26127702 -0.08570868 -0.10084608 0.058969766
-0.13035603 -0.12631261 0.30738655 0.27131388 -0.061579466 -0.35577846 -0.00083845854 0.20604643
00000000: ccec 8fbe d48c ddbd 1909 b23e fa43 60be
00000010: 7ab6 99be 2f89 923e 745c a6be 2512 8bbe
00000020: b01f c8bc b046 df3d fcda 42be 7e00 0d3e
00000030: c695 4b3e d863 cb3d baf6 3dbe aa12 91be
00000040: 74ac aabd 603d 99be 2124 b9be 5e83 97be
00000050: fff1 823e d69a 2f3e 95e0 69be 0e7f 663e
00000060: 0a60 6abe 101e a63d 5094 b93c 0415 afbe
00000070: 8034 53bb dee7 bcbe b278 453e d87f 1e3d
00000080: 5fcd 86be b8bb acbd 882c 6dbe c02b 37bc
00000090: b5cc a6be 2f55 b03e db4b b53e a4a2 09be
000000a0: 0411 9dbe a15e 8b3e 46b7 7f3e b425 8dbd
000000b0: 1ac6 85be 0888 afbd 6488 cebd 488a 713d
000000c0: 0d7c 05be 1858 01be c561 9d3e a7e9 8a3e
000000d0: c03a 7cbd 9828 b6be 00cc 5bba d6fd 523e

regression4.4.bias f4 [8]
0.14360252 0.16349855 -0.30286327 0.02332607 -0.050897866 0.12464723 0.23081288 -0.12230536
00000000: 8a0c 133e 2a6c 273e e510 9bbe 5016 bf3c
00000010: 487a 50bd 0c47 ff3d 365a 6c3e 3c7b fabd

regression4.6.weight f4 [7, 8]
-0.21226253 0.2627959 -0.24828245 -0.14504576 -0.16176891 0.29333594 -0.27225775 0.35172477
0.11373901 0.16451243 -0.24203181 -0.13477707 -0.3187912 -0.17661674 -0.29356253 -0.18685919
-0.27505672 0.10579306 0.040813267 0.34957203 0.005389869 -0.25882715 -0.22349487 -0.3470905
0.1652318 -0.07827538 -0.29016748 0.27132532 0.118486285 -0.14723057 -0.3341562 -0.22997318
-0.015253276 0.08699611 0.090272516 -0.33260712 0.3220162 -0.2956998 -0.13013825 0.03531581
0.11195278 0.26073304 0.16342482 0.24770132 0.11842796 0.31755283 -0.045588404 0.22015241
0.042321414 -0.19597803 0.35182223 -0.18621296 0.22431615 0.28318027 -0.05262956 -0.20392057
00000000: 595b 59be 2f8d 863e c13d 7ebe e086 14be
00000010: c0a6 25be 2130 963e 5e65 8bbe 4515 b43e
00000020: 00f0 e83d f275 283e 30d7 77be 0003 0abe
00000030: 9a38 a3be 05db 34be d44d 96be 0458 3fbe
00000040: 3cd4 8cbe 08aa d83d d02b 273d 1bfb b23e
00000050: 809d b03b fe84 84be d7db 64be d9b5 b1be
00000060: 8632 293e d84e a0bd d590 94be 27eb 8a3e
00000070: f0a8 f23d 9cc3 16be 8516 abbe 177e 6bbe
00000080: e0e8 79bc 042b b23d cce0 b83d 7b4b aabe
00000090: 4fdf a43e f765 97be f642 05be 50a7 103d
000000a0: 8047 e53d cd7e 853e d658 273e 6aa5 7d3e
000000b0: 5c8a f23d 4996 a23e e8ba 3abd a26f 613e
000000c0: 3859 2d3d 77ae 48be 0b22 b43e 9cae 3ebe
000000d0: 22b3 653e 01fd 903e 1892 57bd 8ed0 50be

regression4.6.bias f4 [7]
-0.08813712 -0.10708667 0.20323065 -0.25435078 -0.06746635 -0.00093212724 -0.06332019
00000000: 3c81 b4bd 4250 dbbd b21b 503e 443a 82be
00000010: cc2b 8abd 005a 74ba 04ae 81bd

regression4.8.weight f4 [6, 7]
-0.08277899 -0.16344841 0.3625991 0.2033253 0.0027080178 -0.3676578 -0.11965066 -0.19979796
-0.088757634 0.19190153 0.21522579 0.09711504 0.056165606 0.12388566 -0.08410776 0.20239356
-0.25940636 -0.32253554 0.12870386 0.2963796 -0.34495196 -0.0688667 -0.0019194186 0.33466354
0.35379508 0.050474465 0.2701982 0.16869846 0.3741224 -0.20542447 0.07860091 -0.16438694
0.26810542 0.09849018 0.19656631 0.17184606 0.1648216 0.018995404 0.0020433664 -0.37791225
-0.30587485 -0.29087222
00000000: 0888 a9bd 055f 27be 97a6 b93e 8234 503e
00000010: 0079 313b a53d bcbe 680b f5bd d697 4cbe
00000020: 90c6 b5bd d681 443e 2664 5c3e 40e4 c63d
00000030: e80d 663d c4b7 fd3d b040 acbd 4240 4f3e
00000040: e9d0 84be 6123 a5be f2ca 033e 11bf 973e
00000050: 8b9d b0be fc09 8dbd 0095 fbba 0559 ab3e
00000060: a124 b53e 50be 4e3d 6b57 8a3e 4abf 2c3e
00000070: f98c bf3e cb5a 52be 84f9 a03d 0d55 28be
00000080: 1d45 893e 38b5 c93d ae48 493e 6af8 2f3e
00000090: fec6 283e 409c 9b3c 00ea 053b b77d c1be
000000a0: a19b 9cbe 34ed 94be

regression4.8.bias f4 [6]
0.03962612 -0.2522428 -0.3677095 0.2850525 0.12443873 0.06321174
00000000: 004f 223d f825 81be 6b44 bcbe 67f2 913e
00000010: bcd9 fe3d 2875 813d

regression4.10.weight f4 [1, 6]
0.027839571 -0.08400774 -0.16386205 -0.047412515 -0.24167283 -0.26018173
00000000: d00f e43c 400c acbd 74cb 27be a033 42bd
00000010: 1579 77be 8a36 85be
