nn_metamodel/ann_metamodel/runs/Jan.18 20:54:16/model_weights.pth (torch_old, 9337 bytes, 29 tensors)

fc.weight f4 [1, 3]
00000000: 78f8 513e 1806 353e 714a 06bf
0.2050494 0.17678106 -0.5245734

regression3.0.weight f4 [12, 3]
00000000: 3eab 953f 8fc1 ec3e b527 273e 3753 febf
00000010: 20e9 3fbd bc79 553e 8516 05bf 6505 bebe
00000020: c4f6 d5bd 31d9 0bbf 5ae8 223f 5c8a 23bf
00000030: c263 083f bbd9 82be 8e86 aabd 5438 b8bf
00000040: 1654 cabd 65c9 883e e9b8 a63f b64a 093e
00000050: c1b2 243e 9cc7 0cbe d8bc ea3d 1396 bebe
00000060: d442 fbbe e0bb 373e 207d 6d3d 6650 cbbf
00000070: 3791 6f3b b66a 5bbe 61a1 c83e 1b2a 49be
00000080: d466 a33d fc5f d3bd 619e 99be a52d 483e
1.1692884 0.46241423 0.16323741 -1.9869145 -0.046853185 0.20847219 -0.5198749 -0.3711349
-0.104474574 -0.5462828 0.6363579 -0.63882995 0.5327722 -0.2555674 -0.083264455 -1.439219
-0.09879319 0.26716152 1.302518 0.13407406 0.16083814 -0.1374802 0.114618 -0.37223873
-0.49074423 0.17942762 0.057980657 -1.5883911 0.003655506 -0.21427426 0.39185622 -0.19644968
0.07978597 -0.10321042 -0.30003646 0.19548662

regression3.0.bias f4 [12]
00000000: 3402 fe3f 370c 0f40 80f9 47be 5110 2040
00000010: bb7e 2140 eab3 0940 9108 0a40 9831 d6bd
00000020: fdbb ecbe 4448 2140 367c 2440 9388 2040
1.9844422 2.2351205 -0.1952877 2.5009959 2.52336 2.151606 2.1567729 -0.10458678
-0.46237174 2.5200357 2.5700812 2.5083358

regression3.2.weight f4 [14, 12]
00000000: cba1 92be 9a88 5ebe ba9f 303e b41e dd3d
00000010: 6052 433e f088 823e 88d2 43be 1e39 6bbe
00000020: 95cc 86be 02b6 57be bbe4 4abe 3c89 683e
00000030: c705 55be e5f6 5abe fd40 64be ebd5 e03d
00000040: 9db3 f83d 5db4 42be 1ab1 57be 5c70 843e
00000050: d4d8 13be b7e9 02be 349d 2f3e 0409 163d
00000060: 703a 003f e793 473e 3e5d 99bd 107d 9f3f
00000070: 2504 703f c87d ca3e e8f8 7c3f 00b8 69ba
00000080: 3ec4 2fbe 7e64 cc3e 0399 9d3f 4da1 9e3f
00000090: 9ca7 98bd 4684 62be 7e2c 843e 22fa 14be
000000a0: cc82 783e 8055 23bb d852 c1bd c2cf 5abe
000000b0: e0f3 be3d c8c3 4ebe 3aae 90be ee06 e6bd
000000c0: 55c9 073f d15d 43c0 84d4 123e 30de 1cbf
000000d0: 46e2 2a3f 01b9 31c0 f717 433f 825b 38be
000000e0: 636c 8abe 5473 5fc0 e570 0b3f 4f2f 263e
000000f0: 8c11 513f f64b ee3d 80bd 1cbe a108 4b3f
00000100: 19f9 ab3f 1792 643f dc90 113f 3c9e 46be
00000110: 7229 02be c843 f83d e0ef a63f 57a8 7b3f
00000120: 7714 10be 40f3 07bd ac07 51bd b853 be3d
00000130: 08bf adbd c0fa f7bd 3aaf 0d3e b0d6 4ebe
00000140: 6c4c 6f3e 0884 863d d233 9abd 64ab 86be
00000150: f7ad aa3e 2174 393e 98f0 0f3d 35bc 553f
00000160: 956d b83f 0c24 623f acb4 5c3f da9e 5fbe
00000170: 86be 863e 3134 913d 19f6 a03f 061f a33f
00000180: 7f05 d13e 9f99 f43e e83b 43bd f52e 683f
00000190: 6146 a23f 3869 3c3f d6d7 2c3f 8ebf 92be
000001a0: 2ad2 16be fa84 5abd ead8 8f3f 4e4c 4b3f
000001b0: 42aa 113d 5e3e 4bbe 2efb 90be 50d7 4fbe
000001c0: c7a7 33be c676 a1be 5a08 bf3d d033 4c3e
000001d0: 68f1 05bd 16df 75be 6cec 2a3d c8b5 0d3e
000001e0: 7bf4 223e 8ef9 e53e 40fc 483c 2035 3a3f
000001f0: a6c9 923f c0a4 2a3f 03f8 c93e 1caa 563e
00000200: abd0 19be 77de 7f3e 68e1 333f 1664 813f
00000210: 4623 85be 4854 9bbd 1e35 8d3e 9802 6f3e
00000220: 2029 72bc 6021 a3bc ecb1 cc3d c0b8 8fbc
00000230: 757c 75be b99b 6fbe 4063 31bc ad4d 5dbe
00000240: 7e34 a73e 204c 273f a091 e0bc 1d46 9f3f
00000250: 5d84 8c3f d537 133f a18f 0d3f 2423 2dbe
00000260: d8e2 8f3e 2f91 ca3e b6fc 593f 7a68 963f
00000270: c8f9 3f3f 8c63 e33e ca05 37be d4da 803f
00000280: af8c 823f f05a 4e3f 0007 823f 7a00 b8bd
00000290: d7ed 0bbe 2b70 013f 40ec a73f 1775 a03f
-0.28639063 -0.21731797 0.17248431 0.10796872 0.19074392 0.254951 -0.1912328 -0.22971007
-0.2632796 -0.21065524 -0.19813816 0.22708601 -0.20802985 -0.21383245 -0.22290416 0.109783016
0.121436335 -0.19014116 -0.21063653 0.25866973 -0.14438182 -0.12784468 0.17149812 0.03662969
0.5008917 0.19490014 -0.07488488 1.2460041 0.93756324 0.39549088 0.988173 -0.0008915663
-0.17164704 0.3992042 1.231232 1.2392975 -0.07453844 -0.22120771 0.25815195 -0.14548543
0.24268645 -0.0024922788 -0.09439629 -0.21368316 0.09323859 -0.20191872 -0.28257924 -0.112317905
0.53041583 -3.052601 0.14338881 -0.6127653 0.66751516 -2.7769167 0.7620844 -0.18003657
-0.27035818 -3.491414 0.5446914 0.16228984 0.816674 0.11635582 -0.15306664 0.7931004
1.3435394 0.89285415 0.5686166 -0.19396299 -0.12711123 0.12122303 1.3041954 0.9830374
-0.14070307 -0.033190966 -0.051032707 0.09293312 -0.08483702 -0.12108374 0.13836375 -0.20199084
0.23368996 0.06568152 -0.07529415 -0.26302636 0.3333585 0.18110706 0.035141557 0.83490306
1.4408442 0.88336253 0.86213183 -0.21837941 0.26317233 0.07090033 1.2575103 1.2743843
0.40824506 0.47773454 -0.047664553 0.9069665 1.2677728 0.7359805 0.6751684 -0.2866177
-0.14728609 -0.053349473 1.1238072 0.79413307 0.03556276 -0.1984801 -0.28316635 -0.20296979
-0.1754447 -0.3153593 0.09327765 0.1994164 -0.032700926 -0.24010882 0.041729376 0.13838875
0.15913574 0.44916958 0.012267172 0.7273731 1.1467788 0.6665764 0.3944703 0.20963329
-0.15021007 0.24987207 0.7026582 1.0108669 -0.26003474 -0.07584435 0.27579588 0.23340833
-0.014780313 -0.019913375 0.099948734 -0.01754415 -0.23973258 -0.23399247 -0.010826886 -0.21611662
0.32657236 0.6535053 -0.02741319 1.2443272 1.0977894 0.5750707 0.55297285 -0.16907936
0.28102756 0.3956389 0.8515123 1.1750634 0.7499051 0.44411886 -0.17873302 1.0066781
1.0199183 0.8060751 1.0158386 -0.08984466 -0.13664947 0.5056178 1.3118973 1.2535733

regression3.2.bias f4 [14]
00000000: 0481 8c3d 4b7f 173d 8857 ea3f 7831 023d
00000010: b877 413f c708 f33f 800a b1bd e4c9 e23f
00000020: 09d8 f43f c8e8 c6be 95d9 fb3f 8ba9 65be
00000030: 9a18 0a40 7459 fc3f
0.06860545 0.03698663 1.8307962 0.03178546 0.755733 1.8987054 -0.08644581 1.7717862
1.9128429 -0.38849473 1.9675776 -0.22427957 2.1577516 1.9714799

regression3.4.weight f4 [8, 14]
00000000: 08ae 0f3e 2ead 4ebe 6e21 263e 5081 2ebd
00000010: 0826 e1bc 208d 08bc a103 5dbe e035 fbbc
00000020: 80f3 56bc a011 693e ffae 06be 5ca6 13bd
00000030: e05f 1e3c 82c7 82be 30b9 f3bd cb04 9fbd
00000040: 9de6 893f 449b 2a3e cc75 c8c0 e03a 9c3f
00000050: 4e70 3e3e ccaf 873f 9dd5 9d3f b473 44be
00000060: 2b7a 383f d4c5 74be 3a70 8b3f 2d2b 783f
00000070: c423 c7bd fd0a fabd f9b7 30bd c0ad c3bb
00000080: 0f8c 1e3d d2ea 90be 3053 433d 19ea a3be
00000090: 0fa7 803d 6a69 f43d abcc 5d3d e839 8e3d
000000a0: c0ec 84be a68d 2c3e 600a 47be aa5f 393e
000000b0: b4ed 7bbe 340a 4cbe b877 3e3d aee2 b2bd
000000c0: ee1d 7e3e 2ac5 763e 0a10 7abe 18c4 45bd
000000d0: a472 9fbd 167f 37be 50dd 533d 78e0 49bd
000000e0: e04b 103d e56d 0abe df53 983f c6f4 433e
000000f0: e9ef c0c0 5e5f 7d3f b4af e83d 1d7a 533f
00000100: 521a 4e3f 900f 10bd 32f9 723f 410f 863e
00000110: 058f a73f b9cd 8b3f 625a c7bd a77e 99be
00000120: 6387 e33d 761f 6fbe 6f78 8b3d c836 2ebe
00000130: 5c87 23bd a461 32be 425c 633d b0be 9a3d
00000140: 1c9c ff3d 74e5 843d 0571 a6bd f1b7 4dbd
00000150: 6c6e edbd c6f0 70bd f9ca a13d 1cfd 3dbe
00000160: 5efb 523e e6fa 493e 8684 4f3e 6f25 83be
00000170: 848a 09be 9aa2 ae3d 0de6 913d 164c ebbd
00000180: 6faf 5d3d aea0 efbd 1aed 11be 56a6 5d3d
00000190: f5d0 8d3f 7037 c53c c625 c7c0 1167 a63f
000001a0: 96c3 173e e846 ac3f 36ed a03f 0fc0 93bd
000001b0: 3142 993f 18ab c6bd 645a 893f 8f95 593f
0.14031231 -0.2018325 0.1622369 -0.04260379 -0.027483955 -0.008334428 -0.21583416 -0.030665338
-0.013119578 0.2276063 -0.13152693 -0.036047325 0.009666413 -0.25542837 -0.11900556 -0.07764586
1.0773503 0.16660792 -6.2643795 1.2205467 0.18597528 1.0600524 1.2330815 -0.19184762
0.72061414 -0.2390359 1.0893624 0.9694088 -0.097236186 -0.12209127 -0.0431442 -0.0059716403
0.03870779 -0.28304154 0.047686756 -0.3201454 0.06281864 0.11934169 0.054150265 0.069446385
-0.25961876 0.1685091 -0.19437551 0.18102899 -0.24602395 -0.19925767 0.04650089 -0.08734642
0.24816105 0.2409865 -0.24420181 -0.048282713 -0.07785538 -0.17919573 0.051724732 -0.049286336
0.03522861 -0.13518484 1.1900595 0.19136342 -6.029286 0.98973644 0.11361638 0.82608205
0.8050891 -0.03517109 0.9491149 0.26183513 1.3090521 1.0922157 -0.09734036 -0.2997944
0.11109807 -0.23351845 0.0681008 -0.17013085 -0.03992401 -0.1742006 0.055507906 0.07555902
0.124809474 0.06489077 -0.081270255 -0.05022425 -0.11593327 -0.05882337 0.07900042 -0.18553585
0.20603701 0.19724616 0.20265397 -0.25614497 -0.13431746 0.085271075 0.07123957 -0.114891216
0.054122385 -0.11700569 -0.14250603 0.05411371 1.1079394 0.024074286 -6.223361 1.3000203
0.14820704 1.3459139 1.2572391 -0.07214367 1.1973325 -0.09700602 1.073071 0.84993833

regression3.4.bias f4 [8]
00000000: c949 6bbe dbaf dc3f 8df4 173e bf88 35be
00000010: bc99 f53f ee6e f03d 0dbd 1fbd badd f73f
-0.22977366 1.7241167 0.14839382 -0.17727946 1.9187541 0.11739908 -0.038998652 1.936454

regression3.6.weight f4 [1, 8]
00000000: f057 0ebd 4f82 d43f 9875 89be dbe7 84be
00000010: 5230 d53f 76b0 92bd dacc 92be 2bfd ab3f
-0.034751832 1.6602267 -0.2684753 -0.25958142 1.6655371 -0.071625635 -0.28671914 1.3436636

regression2.0.weight f4 [6, 3]
00000000: 1a85 073f 1ee5 7ebe cd29 09bf 446f c53e
00000010: c88f 1ebe 63b5 97be c410 bb3e a8ec e3be
00000020: d866 f83e cc9c 683e aa90 803e c27f 0e3f
00000030: b641 b4be d4b4 e23e 8af2 96be 70a9 203e
00000040: 940e 103f 489c b5bd
0.5293747 -0.24892089 -0.5357941 0.3856145 -0.15484536 -0.29630575 0.3653623 -0.44516492
0.48515964 0.22716063 0.2511037 0.5566369 -0.35206383 0.44278586 -0.29481918 0.15689635
0.56272244 -0.08867699

regression2.0.bias f4 [6]
00000000: 10ab a63e 90aa ee3e 4060 713c b2c3 3bbe
00000010: 2263 c53e b967 fbbe
0.32552385 0.46614504 0.01473242 -0.1833637 0.38552195 -0.49102572

regression2.2.weight f4 [7, 6]
00000000: b86e 0bbd e808 c83d aa5a cb3e 5a5a 5bbe
00000010: f6d8 24be 79d7 bdbe 7644 7fbe 4bb2 88be
00000020: c4f9 8a3d 4421 a5be 30c5 113e 5674 d0be
00000030: a2f6 2ebe bfcf 69be 7867 163d 73d1 42be
00000040: 0815 553e 2abb 843e 2406 8d3e b06a df3d
00000050: 28cd 2dbd d435 0b3e 3cd8 733e 585e 503d
00000060: c66f 9a3e c8c2 91be 8df3 8ebe 08aa 723d
00000070: 6656 8e3e 8014 28bd 26be 30be 7cd1 8d3e
00000080: 0055 a13e b40b 02be bbef cbbe 8431 c1bd
00000090: ac00 ae3e 707f 273d b8b7 6abd 0750 33be
000000a0: 0821 efbd e86f afbd
-0.034041137 0.09767324 0.3971761 -0.21421185 -0.16098389 -0.37078455 -0.2492846 -0.26698527
0.0678592 -0.32251942 0.14235377 -0.40713757 -0.1708627 -0.22833155 0.03671977 -0.19025211
0.20808804 0.25924045 0.27543747 0.10909021 -0.04243198 0.13594753 0.23812956 0.050871223
0.301634 -0.2846892 -0.2792019 0.059244186 0.27800292 -0.041035175 -0.17260036 0.27698886
0.31510162 -0.12699777 -0.39831337 -0.094332725 0.33984888 0.04089302 -0.057304114 -0.17510997
-0.11676222 -0.08566266

regression2.2.bias f4 [7]
00000000: 4cc6 a23e 404f 463e d257 a93e c0fa d53c
00000010: 329d 913e 9806 00be 10ab 913d
0.31791914 0.19366169 0.33074814 0.026120543 0.28440243 -0.12502515 0.07112706

regression2.4.weight f4 [6, 7]
00000000: b25a 573e 6061 9fbe 6d67 b93e f9b0 61be
00000010: e4e6 8f3d b493 6fbe e680 6bbe c039 883c
00000020: a43f 3ebe 49f4 bf3e f6c8 61be 45b8 9a3e
00000030: 4012 0ebd c275 533e 05f3 b53e 8aac 8ebe
00000040: 0003 8e3c f807 8c3d 00a4 be3c 604e f5bd
00000050: ac11 83be f131 6bbe b048 8dbe d79c 15be
00000060: 6116 ad3e 9867 8e3d 0ae0 4bbe 630f bd3e
00000070: a8db e03d 75df 8c3e d809 00bd 2012 d43d
00000080: f943 3cbe 40bf 2e3d 08f5 423d d6e2 463e
00000090: 7632 2e3e 3e96 1c3e 80a3 923d 82fd 48be
000000a0: 6c98 fd3d c36c bd3e
0.21030691 -0.3112898 0.3621172 -0.22040166 0.07026461 -0.23396188 -0.2299839 0.0166291
-0.18578964 0.37491062 -0.22049317 0.30218711 -0.034685373 0.2065039 0.35536972 -0.27866012
0.017335415 0.068374574 0.02327156 -0.119778395 -0.2559942 -0.2296827 -0.2759452 -0.14610611
0.33806136 0.06953353 -0.19909683 0.36925802 0.10979396 0.27514234 -0.031259388 0.103550196
-0.18385305 0.04266286 0.04759696 0.19422469 0.17011437 0.15291688 0.071600914 -0.19627956
0.12382588 0.3699704

regression2.4.bias f4 [6]
00000000: 2308 833e d7d1 a93e 937c c03e b498 c6bd
00000010: 9f05 8b3e 704a 953c
0.25592145 0.33167908 0.37595043 -0.096970946 0.27152726 0.018223971

regression2.6.weight f4 [1, 6]
00000000: 3cfd 8a3e e8f8 48be a5fc 23be 342a 3bbe
00000010: e051 483e 584f 6b3d
0.27146327 -0.196262 -0.16014345 -0.18277818 0.19562483 0.057448715

regression1.0.weight f4 [55, 3]
00000000: 94fc aabe 027b aa3e 90bc b5be bc78 0a3e
00000010: 3458 debd 282b 263e 9e49 113f 9ead 28be
00000020: 0c3a a13e a088 3abd 533f 05bf d0e0 4f3e
00000030: 0a32 a3be d8f5 e5be a8ce eb3e 8867 ff3d
00000040: d022 573d 8066 853c 0095 253c a0a2 053f
00000050: ce3f e3be f485 863e 5018 dd3e 6054 ad3d
00000060: 552f 11bf cb19 c1be d813 fe3e 10c2 f4be
00000070: fc06 fc3e 2031 fa3c e2dd b2be 48e0 ff3e
00000080: d49a de3e 0ecb 0dbe 7087 1b3e 3731 00bf
00000090: 005b 11bb 080f 143e 1093 e73e a8e1 633e
000000a0: 249d 24be 0851 b63e 2abd 073f 4854 bebd
000000b0: 4aab aa3e 7805 9dbd d845 e2bd 5d0c 13bf
000000c0: 20e5 e43d 2837 9e3d a4fb 95be a6a5 7fbe
000000d0: e07e aabc e822 293e 2065 83bc 4481 a63e
000000e0: 1e4f 0dbf a08f ad3e fcbb b4bd 1b11 06bf
000000f0: 9036 78bd 406b f13d 44ab 143e d677 033f
00000100: bcd6 a43e e001 603d 9e83 9b3e 50b3 663d
00000110: 67ac 11bf d8a9 cb3e 80cd 033f d484 003f
00000120: 2c68 093f b08e df3e d285 b4be dc19 023f
00000130: bf86 bbbe dc41 0f3e 90ef 46be 14d1 9ebd
00000140: aeb2 ad3e 7210 cabe 6008 68bd 24a6 0bbe
00000150: a030 8bbc 3c77 8cbe 402a 583d c07b 18bc
00000160: 703d 6bbd b2b6 a5be 1ee6 b63e 47bb 11bf
00000170: 727e 08bf 5c94 d63e 1422 fbbe bcd5 273e
00000180: 2ef2 d43e c28c 103f 70fa bd3e c273 d7be
00000190: abeb 82be f46f d3bd c0be 9a3e 7828 8dbe
000001a0: 928e a8be d6f6 12bf 50c4 003f 6186 b2be
000001b0: 8202 03bf 60ea 62bd 0094 f9bd fe42 01be
000001c0: 0009 c6be 6aa1 af3e 028e b8be 30a0 503e
000001d0: 2c6a cd3e 0c65 0cbe ac9c 6fbe 60c4 b13c
000001e0: 4c0a a8bd 308e 2bbe 06a9 03be c8fd c63d
000001f0: 374b fabe e2bd b1be ce84 e1be 30c9 e43d
00000200: 5ab8 0e3f 24b6 0d3f 12d0 c6be 1ca9 12bf
00000210: d0f7 713e e4b1 b83e 60c0 6cbe 70e8 423e
00000220: d8e1 bd3e 6379 fbbe 004b 48bd 801d 2fbe
00000230: e859 1ebe 4b38 82be b257 54be c0ac c43c
00000240: 9454 e33e 9e5b d33e 297b debe bc9d 0e3e
00000250: 10b5 a6be 1a62 69be c00d ed3e 243f 913e
00000260: b8ab bdbe f68c 933e 901a 94be b0f2 563d
00000270: 0e06 d0be 86c4 113f 3141 f6be 18a3 0b3f
00000280: c65d 5abe f852 08bf 08bb 903d 54fe 0b3e
00000290: 124e 0b3f
-0.33395827 0.33296973 -0.35495424 0.13522619 -0.10856667 0.162274 0.56752956 -0.1647248
0.314896 -0.045540452 -0.5204975 0.20300603 -0.31874114 -0.44914126 0.46056104 0.12470919
0.052523434 0.016284227 0.010106325 0.5220127 -0.44384617 0.26274073 0.4318261 0.08463359
-0.5671285 -0.3771499 0.49624515 -0.47804308 0.4922408 0.030541003 -0.34934908 0.499758
0.434775 -0.1384699 0.15188384 -0.50075096 -0.0022179484 0.14458859 0.45229387 0.2225405
-0.1607557 0.35608697 0.53023016 -0.09293419 0.33333808 -0.07667059 -0.11048478 -0.5744074
0.111765146 0.07725364 -0.2929355 -0.24965534 -0.020812452 0.16517222 -0.016039431 0.32520497
-0.5519885 0.3389864 -0.08824918 -0.5236985 -0.06059891 0.117880344 0.14518458 0.5135473
0.3219508 0.05468929 0.30373853 0.05632335 -0.5690369 0.39778018 0.51485443 0.5020268
0.5367458 0.4366355 -0.35258347 0.5082071 -0.3662624 0.13989967 -0.19427323 -0.07754722
0.33925384 -0.39465672 -0.056648612 -0.13637596 -0.01699096 -0.2743472 0.052774668 -0.009306848
-0.05743164 -0.32365948 0.3572244 -0.5692639 -0.5331794 0.41910064 -0.49049437 0.16390127
0.41591018 0.5646478 0.3710513 -0.42080504 -0.25570425 -0.10324088 0.30223656 -0.27569938
-0.32921273 -0.5740789 0.5029955 -0.34868148 -0.511757 -0.0553993 -0.12186432 -0.12623212
-0.3867874 0.34302837 -0.36045843 0.20373607 0.40120065 -0.13710421 -0.2339961 0.021700084
-0.08205089 -0.16753459 -0.12857446 0.09716374 -0.4888551 -0.34715182 -0.44046634 0.11171186
0.5575005 0.5535605 -0.3883062 -0.5728929 0.23629689 0.3607322 -0.2312026 0.1903398
0.37086368 -0.49116048 -0.04889965 -0.17101097 -0.15463984 -0.25433573 -0.20736578 0.024008155
0.44400465 0.41280836 -0.4345334 0.13927358 -0.32560015 -0.22791329 0.46299553 0.28368485
-0.37045074 0.28818482 -0.28926516 0.05247754 -0.4062962 0.56940496 -0.48096612 0.54545736
-0.21324834 -0.532516 0.070669234 0.13671237 0.54416

regression1.0.bias f4 [55]
00000000: 922f ffbe 5f3d 0ebf 4032 7bbe 4025 243c
00000010: c090 19bc 50f5 373d 38e0 38be 1836 1f3e
00000020: 9f83 dbbe d03b eb3e c002 29bc 80eb d6bb
00000030: 96b3 abbe 40e3 c43d 5004 0ebf 4a7d d4be
00000040: adb5 8bbe 54da 043e c1f0 89be 8a21 cd3e
00000050: 1eb4 4abe 3cc5 e93e 00f9 d3bb a0bd f63d
00000060: 1c65 3c3e c08a 033f d032 733d 3eb4 35be
00000070: e090 b13e 8001 e93e de1d d73e 2c16 643e
00000080: cc34 edbe 1d8a cabe 0aa8 11bf abed 0dbf
00000090: b849 a0be a7db adbe 42b1 d73e 60db fdbc
000000a0: f8c1 e83e 0b3d fbbe 908c 9fbe 5045 053d
000000b0: c802 66be b0c3 bbbd a022 d83d c6b6 fcbe
000000c0: 2816 e13e 5867 df3e 920b f9be 5040 0e3e
000000d0: b185 edbe 8c6f fa3e e052 5bbd
-0.4984098 -0.55562395 -0.24530888 0.010018647 -0.00937289 0.044911683 -0.18054283 0.15547979
-0.42873856 0.4594407 -0.010315597 -0.0065588355 -0.3353545 0.09613657 -0.5547533 -0.41501838
-0.27287045 0.1297391 -0.26941493 0.4006465 -0.19795272 0.4565829 -0.006468892 0.12047887
0.18397945 0.5138359 0.05937463 -0.17744538 0.34680843 0.45508957 0.42014974 0.22274083
-0.46329343 -0.39558497 -0.5689703 -0.5544078 -0.31306243 -0.33956644 0.42127424 -0.030988395
0.45460486 -0.4907001 -0.31161928 0.032536805 -0.22461998 -0.09168184 0.10553479 -0.49358195
0.43962216 0.43633533 -0.4864164 0.13891721 -0.4639106 0.4891323 -0.053545833

regression1.2.weight f4 [1, 55]
00000000: bcd1 3f3d 7467 e5bc c815 cb3d b8bb 423d
00000010: 322d 923d c08e dcbb e858 a3bd e259 2bbd
00000020: 7608 c4bd 0eea 2fbd 19e1 05be 1cea e6bc
00000030: 802a e53a 900b 4bbd 56d0 ddbd 8c76 893d
00000040: e0ea 583c 00c2 113b c0b0 2bbb 6376 093e
00000050: 0046 8fbb 8092 bc3d 6948 023e 908e 20bd
00000060: 5e6c 9b3d 4ca1 243d 002c 61b9 f0c8 07bd
00000070: 1a19 de3d 0603 e23d 8be8 cabd ec2f 2e3d
00000080: 406a 173c c03a 20bb e48a 7abd 848b 64bd
00000090: 586a 45bc 14c8 873d 84e4 dbbd 8912 fabd
000000a0: febc 983d 60ff 57bd f836 72bc 81cb a7bd
000000b0: 2009 e43c 34ba 7f3d 6c22 e0bc f658 e23d
000000c0: f372 c7bd a292 923d 6003 e53c 6c5b 2e3d
000000d0: c021 553d a04c dc3b 306d 46bc
0.046830878 -0.028003432 0.09916264 0.047542304 0.071375266 -0.0067308843 -0.07975942 -0.041833766
-0.09571926 -0.04294782 -0.13074149 -0.028187804 0.001748398 -0.049571574 -0.108307526 0.06712064
0.013239592 0.0022240877 -0.002619788 0.13424067 -0.0043723583 0.0920763 0.12722935 -0.03919846
0.07589029 0.040192887 -0.00021474063 -0.033150613 0.108446315 0.11035733 -0.09907635 0.04252617
0.009241641 -0.002444908 -0.061167613 -0.055797115 -0.01204928 0.06629959 -0.10736945 -0.122105666
0.074579224 -0.05273378 -0.014783613 -0.08193112 0.027836382 0.062433437 -0.027360164 0.11052124
-0.09738722 0.07156874 0.02795571 0.042567655 0.05203414 0.0067230016 -0.012110993

regression4.0.weight f4 [6, 3]
00000000: 30eb d4be 5e6c 023f ac59 3d3e 8a39 33be
00000010: a114 0fbf c8af 77be 1c05 543e 1c9f e53e
00000020: 98cb 94be a4a7 80be dca6 583e ef2e c5be
00000030: e128 b7be 045d 7f3e 3cb3 4fbe 20c7 af3d
00000040: 54c0 bbbe b741 10bf
-0.41585684 0.50946605 0.18491238 -0.17502418 -0.5589085 -0.24188149 0.20705074 0.44847953
-0.2906158 -0.251279 0.21157402 -0.3851237 -0.35773376 0.24937826 -0.20283216 0.08582902
-0.36670172 -0.5635027

regression4.0.bias f4 [6]
00000000: 6448 0ebf b4c4 6cbe de47 f9be 1684 113f
00000010: 70a1 f63d c24b 02bf
-0.5557921 -0.23121911 -0.48687643 0.5684217 0.120425105 -0.5089685

regression4.2.weight f4 [7, 6]
00000000: f463 553e 56f6 b93e 5427 7f3e 5813 733e
00000010: e81c 963e a079 293e 502c 9b3c d049 cf3d
00000020: c417 973d 6aa4 b3be 708b c9bd 0055 95bc
00000030: cc06 903e ac70 953d 1441 1c3e d406 9e3e
00000040: 5081 bbbc 4630 ccbe e6c2 833e 1a3d b7be
00000050: e425 b83e c885 96be 0525 cebe 00cd 043e
00000060: ac7f 723e 9105 51be 6e6c 8abe 0470 993e
00000070: 8ae7 a33e 35d4 c9be 9a08 a33e 20b6 eebd
00000080: 261d 33be e288 893e 0481 cebe a0ca dd3d
00000090: 80b4 0e3d ac53 bebd b6fb 86be 7667 93be
000000a0: 4eaa 92be 20e6 2dbe
0.2083891 0.36320752 0.24917346 0.23737848 0.2931893 0.16550303 0.018942028 0.101215005
0.0737758 -0.35086375 -0.09841049 -0.018229008 0.28130186 0.07296881 0.152592 0.30864584
-0.02288881 -0.3988058 0.25734633 -0.35788804 0.35966408 -0.29398942 -0.4026262 0.12968826
0.23681515 -0.2041228 -0.2703585 0.29968274 0.32012588 -0.39419714 0.318425 -0.11655831
-0.17491588 0.26862246 -0.40332806 0.10829663 0.034840107 -0.09293303 -0.26363915 -0.28789872
-0.28645557 -0.16982317

regression4.2.bias f4 [7]
00000000: 9051 9a3e 4c95 82be 28b6 86bd 9c1b 9e3e
00000010: 98d0 053e 800e 523c fc7f 95bd
0.30140352 -0.2550453 -0.06577712 0.3088044 0.13067853 0.01282084 -0.07299802

regression4.4.weight f4 [8, 7]
00000000: 2905 54be 2cd9 dbbd 141c d93d 5851 b63d
00000010: 8c6e 8dbd 5a6f 7d3e 7753 9d3e 808b cbbd
00000020: d8b2 88be 70f6 5dbd 0be7 6bbe 3666 94be
00000030: f4bb 93be 150f 823e 8ac5 7e3e 3de0 be3e
00000040: 43cb 873e 6080 b73d 4fce 8a3e a616 babe
00000050: 0bef 953e ef5c 8cbe 2ec2 90be da98 0a3e
00000060: b44b dabd b09c 42bd 0906 bd3e 485f a1bd
00000070: 96b9 383e 2e7d 0d3e e560 ad3e 069a 84be
00000080: 8916 853e c5bc 893e 54ae d43d 2098 b13d
00000090: 3988 b73e da33 233e a4c6 11be 05ec 8c3e
000000a0: 70f1 c7bd 4f64 ab3e 9ba2 98be 1c3f 8abd
000000b0: fc00 a03d 16aa 99be e21c b4be 4b1b b73e
000000c0: 807b 0f3b 5b81 04be 1e2b 543e 128e 403e
000000d0: 6677 0cbe 9be2 bbbe ccf3 49be 944e f0bd
-0.20705093 -0.107347816 0.106010586 0.08902234 -0.06905851 0.24749509 0.3072774 -0.09938717
-0.26698947 -0.0541901 -0.23037355 -0.2898423 -0.28854334 0.25402132 0.24880043 0.37280455
0.26522264 0.089600325 0.27110526 -0.36345404 0.29283938 -0.27414653 -0.28273147 0.1353487
-0.106589705 -0.04751271 0.36918667 -0.078795016 0.18039545 0.13817284 0.33862987 -0.2589876
0.25993755 0.26901832 0.10384813 0.08671594 0.35846117 0.15937749 -0.14235932 0.2752382
-0.097628474 0.33474967 -0.29811558 -0.067503184 0.07812688 -0.30012578 -0.35178286 0.3576301
0.002189368 -0.1293997 0.20719573 0.18804196 -0.13717422 -0.36696324 -0.19721907 -0.117337376

regression4.4.bias f4 [8]
00000000: e046 753c 84b4 e1bd d672 4f3e e0e8 513c
00000010: 4a4b 333e 602d a0be 9393 ab3e 8059 de3b
0.014970511 -0.11020759 0.2025865 0.012811869 0.17509189 -0.31284618 0.33511028 0.0067855716

regression4.6.weight f4 [7, 8]
00000000: 9833 adbd 113c a3be b2c5 133e 1f3e 34be
00000010: 7090 873c 549e 76be 3e67 25be a8bd 97bd
00000020: 835f 31be 1760 983e 2dd9 aa3e 008c 40bc
00000030: 186e a4be f55b 0fbe b3ef b23e bc1d 943d
00000040: 56ce 7abe 3151 8c3e daa1 2d3e 7370 98be
00000050: ad8c 8e3e 8e67 0b3e ce6b e0bd d429 0fbe
00000060: f003 85be 6b4b 5dbe a555 b33e 71fb 44be
00000070: bf50 853e a439 c3bd 1b1c 6cbe 4d23 ad3e
00000080: a8ff 7b3d 47e2 aebe ca51 773e 85c3 9bbe
00000090: c858 94bd c513 a53e 3678 3c3e dd0e b43e
000000a0: ddcc b23e 6ac0 403e e96c 973e 0e52 9ebe
000000b0: e0e4 b7bc 88cc 233d a65d 83be 88b5 863d
000000c0: 2002 0f3e f0f1 d2bc d02e abbd 09dc a53e
000000d0: 54fe b0be d0a7 5c3d e2e5 a3be df7b 8c3e
-0.08457106 -0.31881765 0.14430884 -0.17601822 0.016548365 -0.24083835 -0.16152665 -0.07409221
-0.17321591 0.2976081 0.33368817 -0.011752129 -0.32115245 -0.13999923 0.349485 0.07232234
-0.24492773 0.27405694 0.16956273 -0.29773292 0.27841702 0.13613722 -0.10958062 -0.139808
-0.25979567 -0.21610801 0.3502628 -0.19236542 0.26038167 -0.095324785 -0.23057596 0.33815995
0.06152311 -0.3415701 0.24152294 -0.30422607 -0.07243496 0.32241645 0.18405232 0.3516759
0.34921923 0.188234 0.2957528 -0.30921978 -0.022448003 0.039989978 -0.25657386 0.06577593
0.13965654 -0.02575013 -0.08358538 0.32394436 -0.34569037 0.053870976 -0.32011324 0.27438256

regression4.6.bias f4 [7]
00000000: ba8b 0e3e 4ea8 4c3e 8733 09be d33a 9f3e
00000010: 20b1 103c b096 94be f430 42be
0.13920489 0.19986078 -0.13398562 0.31099567 0.008831292 -0.29021215 -0.18963987

regression4.8.weight f4 [6, 7]
00000000: 3642 91be e2d5 203e be1b 5b3e a5d6 22be
00000010: 74e8 99be 83d4 49be 90d2 a0bd e0fd c93c
00000020: 0e4e 673e e30d 0cbe 49b5 a13e 7d0b 8cbe
00000030: f0f6 8dbe 00c8 08be 8f79 a83e 864c 3ebe
00000040: 8a9c 74be 9f7d 91be 2b6d 18be 78c7 33be
00000050: 40d1 0f3d 32a0 bdbe 84c8 c0bd f3aa 90be
00000060: e00a 823d 58fb 37bd 6a02 b8be 4763 b0be
00000070: d937 96be f014 9c3d ee28 1a3e fb07 bc3e
00000080: 4678 2d3e 2fd8 b2be 16ac 283e 4afc b9be
00000090: 62df a6be 997e 6ebe 89c4 853e 802f f03d
000000a0: e5e7 be3e f7ed a23e
-0.28370827 0.1570659 0.21397302 -0.15902193 -0.3006016 -0.19709973 -0.078526616 0.02465719
0.22588369 -0.13677172 0.31583622 -0.27352515 -0.2772746 -0.13357544 0.32905242 -0.18583879
-0.2388784 -0.28416154 -0.14885394 -0.1755656 0.035111666 -0.37036282 -0.09413245 -0.28255424
0.063497305 -0.044917434 -0.35939342 -0.34450743 -0.29339483 0.07621181 0.15054676 0.3672484
0.16940412 -0.3493056 0.16471896 -0.36325294 -0.32592303 -0.2329048 0.26126507 0.1172781
0.37286296 0.31822178

regression4.8.bias f4 [6]
00000000: ee2f 99be ccec 8fbe d48c ddbd 1909 b23e
00000010: fa43 60be 7ab6 99be
-0.2991938 -0.2811035 -0.108178765 0.34772566 -0.21900931 -0.3002203

regression4.10.weight f4 [1, 6]
00000000: e046 9e3e cab0 b3be b636 96be 8028 d8bc
00000010: 702a f13d c877 52be
0.30913448 -0.35095817 -0.29338616 -0.0263865 0.117756724 -0.20553505
