nn_metamodel/ann_metamodel/runs/Jan.18 20:56:44/model_weights.pth (torch_old, 9337 bytes, 29 tensors)

fc.weight f4 [1, 3]
0	0x3e51f878	0.2050494
1	0x3e350618	0.17678106
2	0xbf064a71	-0.5245734

regression3.0.weight f4 [12, 3]
0	0xbc0d39c0	-0.008619726
1	0x3f135f64	0.5756743
2	0x3e98cc4e	0.29843372
3	0xbf0a6e32	-0.54074395
4	0xbe83eab9	-0.25765017
5	0x3f07b1aa	0.5300547
6	0xbf051685	-0.5198749
7	0xbebe0565	-0.3711349
8	0xbdd5f6c4	-0.104474574
9	0x3d775320	0.06038201
10	0x3ef9f17c	0.4881705
11	0xbf058257	-0.5215201
12	0x3eb1977e	0.34685892
13	0xbe483a46	-0.1955348
14	0x3d1a27d0	0.037635624
15	0xbead3466	-0.3382904
16	0xbea153fc	-0.31509387
17	0x3ecd485c	0.40094268
18	0x3e9c0976	0.30475968
19	0x3e833ace	0.25630802
20	0x3e935986	0.28779238
21	0xbe0cc79c	-0.1374802
22	0x3deabcd8	0.114618
23	0xbebe9613	-0.37223873
24	0xbefb42d4	-0.49074423
25	0x3e37bbe0	0.17942762
26	0x3d6d7d20	0.057980657
27	0xbf09b9bf	-0.5379905
28	0x3e9e735c	0.30947387
29	0xbd234a10	-0.039865553
30	0x3e82bbbc	0.25533855
31	0xbe1ef2de	-0.15522334
32	0x3e4ac2ac	0.19800824
33	0x3dfa1460	0.122109175
34	0xbe80cc70	-0.25155973
35	0x3eb9ff5a	0.3632763

regression3.0.bias f4 [12]
0	0xbdec6200	-0.115421295
1	0x3f0fa748	0.56114626
2	0xbe47f980	-0.1952877
3	0x3eaf3058	0.3421657
4	0x3ed1e4ac	0.40994775
5	0x3dc09610	0.09403622
6	0x3d966388	0.07343203
7	0xbdd63198	-0.10458678
8	0xbeecbbfd	-0.46237174
9	0x3ea7a6aa	0.32744342
10	0x3ef30d14	0.47470915
11	0x3eefc158	0.46827197

regression3.2.weight f4 [14, 12]
0	0xbe92a1cb	-0.28639063
1	0xbe5e889a	-0.21731797
2	0x3e309fba	0.17248431
3	0x3ddd1eb4	0.10796872
4	0x3e435260	0.19074392
5	0x3e8288f0	0.254951
6	0xbe43d288	-0.1912328
7	0xbe6b391e	-0.22971007
8	0xbe86cc95	-0.2632796
9	0xbe57b602	-0.21065524
10	0xbe4ae4bb	-0.19813816
11	0x3e68893c	0.22708601
12	0xbdfc3b20	-0.12315965
13	0xbe227b13	-0.15867262
14	0xbe6440fd	-0.22290416
15	0x3e5499ae	0.20761749
16	0x3e5dee9c	0.21673054
17	0xbe007f9d	-0.1254868
18	0xbdfbbc32	-0.12291755
19	0x3e84705c	0.25866973
20	0xbe13d8d4	-0.14438182
21	0xbccbfdb0	-0.024901241
22	0x3e88384e	0.26605457
23	0x3dffc46c	0.124886364
24	0xbdb03464	-0.08603743
25	0xbe315e4c	-0.17321128
26	0xbd995d3e	-0.07488488
27	0x3e49fe52	0.19725922
28	0xbe69f3ba	-0.2284688
29	0xbe6f96f8	-0.23397434
30	0x3e8fabc2	0.28060728
31	0xba69b800	-0.0008915663
32	0xbe2fc43e	-0.17164704
33	0x3e19fd4c	0.15038031
34	0x3e4e833e	0.20167252
35	0x3e54829e	0.20752952
36	0xbd98a79c	-0.07453844
37	0xbe628446	-0.22120771
38	0x3e842c7e	0.25815195
39	0xbe14fa22	-0.14548543
40	0x3e7882cc	0.24268645
41	0xbb235580	-0.0024922788
42	0xbdc152d8	-0.09439629
43	0xbe5acfc2	-0.21368316
44	0x3dbef3e0	0.09323859
45	0xbe4ec3c8	-0.20191872
46	0xbe90ae3a	-0.28257924
47	0xbde606ee	-0.112317905
48	0x3decdc08	0.11565405
49	0xbd81bbb6	-0.06334631
50	0x3e12d484	0.14338881
51	0x3dbfef84	0.09371856
52	0x3e1f1c06	0.15538034
53	0xbe69e01b	-0.22839396
54	0x3cfd6620	0.030932486
55	0xbe385b82	-0.18003657
56	0xbe8a6c63	-0.27035818
57	0x3d9e0034	0.077148825
58	0x3d1db238	0.03850004
59	0xbb89b180	-0.004202068
60	0x3e761a1c	0.24033397
61	0xbe72e2f6	-0.23719391
62	0xbe1cbd80	-0.15306664
63	0xbe7ed0f2	-0.24884394
64	0x3e3b4c78	0.1829089
65	0x3e8a4474	0.2700535
66	0xbe056825	-0.13028009
67	0xbe469e3c	-0.19396299
68	0xbe022972	-0.12711123
69	0xbdfbee60	-0.12301326
70	0x3e8ff17a	0.2811392
71	0xbd276bec	-0.040874407
72	0xbe101477	-0.14070307
73	0xbd07f340	-0.033190966
74	0xbd5107ac	-0.051032707
75	0x3dbe53b8	0.09293312
76	0xbdadbf08	-0.08483702
77	0xbdf7fac0	-0.12108374
78	0x3e0daf3a	0.13836375
79	0xbe4ed6b0	-0.20199084
80	0x3e6f4c6c	0.23368996
81	0x3d868408	0.06568152
82	0xbd9a33d2	-0.07529415
83	0xbe86ab64	-0.26302636
84	0xbe88ded7	-0.26732513
85	0xbe440a3a	-0.19144526
86	0x3d0ff098	0.035141557
87	0xbe74eb5b	-0.23917906
88	0x3e83bd7c	0.25730503
89	0x3e714294	0.23560554
90	0x3e0e7cdc	0.13914818
91	0xbe5f9eda	-0.21837941
92	0x3e86be86	0.26317233
93	0xbe5bb040	-0.21453953
94	0x3e5194ac	0.2046687
95	0x3e684450	0.22682309
96	0xbdeb8786	-0.115004584
97	0x3e32b9f6	0.17453751
98	0xbd433be8	-0.047664553
99	0xbda337fa	-0.07969661
100	0x3e2824fa	0.16420355
101	0x3e2901ce	0.16504595
102	0x3cf0d0f0	0.029396504
103	0xbe92bf8e	-0.2866177
104	0xbe16d22a	-0.14728609
105	0xbe81350b	-0.2523578
106	0x3e195bd6	0.14976439
107	0xbe3564d7	-0.17714249
108	0x3e2145ea	0.15749326
109	0xbd9f9cf4	-0.07793608
110	0xbe90fb2e	-0.28316635
111	0xbde68c80	-0.11257267
112	0xbd305e34	-0.04305859
113	0xbe3097ec	-0.17245454
114	0x3e5efd14	0.21776229
115	0x3e4c33d0	0.1994164
116	0xbd05f168	-0.032700926
117	0xbde39d90	-0.11114037
118	0x3e319d56	0.17345175
119	0x3e88772a	0.26653415
120	0xbe589c74	-0.21153432
121	0x3e8d56f6	0.27605408
122	0x3c48fc40	0.012267172
123	0xbe23a968	-0.15982592
124	0x3e40c5a6	0.18825397
125	0x3e815d6c	0.25266588
126	0xbdcb9744	-0.09940961
127	0x3e56aa1c	0.20963329
128	0xbe19d0ab	-0.15021007
129	0x3e4ca74c	0.19985694
130	0xbdf837a8	-0.121199906
131	0x3e3cff8e	0.18456861
132	0xbe852346	-0.26003474
133	0xbd9b5448	-0.07584435
134	0x3e8d351e	0.27579588
135	0x3e6f0298	0.23340833
136	0xbc722920	-0.014780313
137	0xbca32160	-0.019913375
138	0x3dccb1ec	0.099948734
139	0xbc8fb8c0	-0.01754415
140	0xbe757c75	-0.23973258
141	0xbe6f9bb9	-0.23399247
142	0xbc316340	-0.010826886
143	0xbe5d4dad	-0.21611662
144	0xbe880238	-0.26564193
145	0x3e8bb8a6	0.27289313
146	0xbce091a0	-0.02741319
147	0x3e437b62	0.19090036
148	0xbd9ebb7c	-0.077506036
149	0xbd6feb40	-0.05857396
150	0xbe257073	-0.16156177
151	0xbe2d2324	-0.16907936
152	0x3e8fe2d8	0.28102756
153	0x3e0d3186	0.13788423
154	0xbe3e9ac2	-0.18613723
155	0x3e08802c	0.13330144
156	0x3e0a84b4	0.13527185
157	0x3d2e53e8	0.042560488
158	0xbe3705ca	-0.17873302
159	0xbd8563fa	-0.0651321
160	0xbe2debe2	-0.16984513
161	0x3e27c40a	0.16383377
162	0x3e90395a	0.28168756
163	0xbdb8007a	-0.08984466
164	0xbe0bedd7	-0.13664947
165	0x3e6b3dd0	0.22972798
166	0x3e8317da	0.25604135
167	0x3e4779f0	0.19480109

regression3.2.bias f4 [14]
0	0x3d8c8104	0.06860545
1	0x3e0198ce	0.12655947
2	0xbda45658	-0.08024281
3	0x3d023178	0.03178546
4	0xbd8fecd6	-0.07027595
5	0x3b4ca180	0.0031224191
6	0xbdb10a80	-0.08644581
7	0xbe395f7e	-0.18102834
8	0x3cf9c030	0.03048715
9	0xbe8b5330	-0.27211905
10	0x3e447ca4	0.19188172
11	0xbe65a98b	-0.22427957
12	0x3e7486a4	0.23879486
13	0x3c8a6910	0.0168958

regression3.4.weight f4 [8, 14]
0	0x3e0fae08	0.14031231
1	0xbe4ead2e	-0.2018325
2	0x3e26216e	0.1622369
3	0xbd2e8150	-0.04260379
4	0xbce12608	-0.027483955
5	0xbc088d20	-0.008334428
6	0xbe5d03a1	-0.21583416
7	0xbcfb35e0	-0.030665338
8	0xbc56f380	-0.013119578
9	0x3e6911a0	0.2276063
10	0xbe06aeff	-0.13152693
11	0xbd13a65c	-0.036047325
12	0x3c1e5fe0	0.009666413
13	0xbe82c782	-0.25542837
14	0xbdf3b930	-0.11900556
15	0xbe0a3ee6	-0.13500556
16	0x3d9c5dcc	0.07635078
17	0x3e2a9b44	0.16660792
18	0xbe7100f5	-0.23535521
19	0x3e618518	0.22023427
20	0x3e3e704e	0.18597528
21	0x3d0d3aa0	0.034479737
22	0x3e4ccd10	0.200001
23	0xbe85de3a	-0.26146108
24	0xbe6ff728	-0.23434126
25	0xbe74c5d4	-0.2390359
26	0x3d1814e0	0.037129283
27	0x3c960ed0	0.01831761
28	0xbdc723c4	-0.097236186
29	0xbd98e6c4	-0.0746589
30	0x3cfba180	0.030716658
31	0xbbc3adc0	-0.0059716403
32	0x3d967178	0.07345861
33	0xbe5626dd	-0.20913263
34	0x3d435330	0.047686756
35	0xbe7d21d9	-0.24719943
36	0x3dbed0fc	0.09317204
37	0x3e239260	0.15973806
38	0x3dbf8560	0.09351611
39	0x3d8e39e8	0.069446385
40	0xbe390f38	-0.18072212
41	0x3e70451a	0.2346386
42	0xbe470a60	-0.19437551
43	0x3e395faa	0.18102899
44	0xbe7bedb4	-0.24602395
45	0xbe4c0a34	-0.19925767
46	0x3d3e77b8	0.04650089
47	0xbdb2e2ae	-0.08734642
48	0x3e7e1dee	0.24816105
49	0x3e76c52a	0.2409865
50	0xbe7a100a	-0.24420181
51	0xbd45c418	-0.048282713
52	0xbd9f72a4	-0.07785538
53	0xbe377f16	-0.17919573
54	0x3d53dd50	0.051724732
55	0xbd49e078	-0.049286336
56	0x3d104be0	0.03522861
57	0xbe464bc8	-0.19364846
58	0x3e3c11b8	0.18366134
59	0x3e43f4c6	0.19136342
60	0xbb790300	-0.0037996173
61	0xbc8c6df0	-0.017142266
62	0x3de8afb4	0.11361638
63	0xbe55760c	-0.20845813
64	0xbe5246bb	-0.20534794
65	0xbdc94e22	-0.09829356
66	0x3c8afc70	0.016966075
67	0x3e860f41	0.26183513
68	0x3e8283bd	0.25491133
69	0x3e0efd80	0.1396389
70	0xbdc75a62	-0.09734036
71	0xbe831f3f	-0.25609776
72	0x3e378d32	0.17924955
73	0xbe6f1f76	-0.23351845
74	0x3dcf2598	0.10114592
75	0xbdd4373a	-0.10362096
76	0xbd23875c	-0.03992401
77	0xbde2399c	-0.11046144
78	0x3dab2d30	0.08358228
79	0x3de69a04	0.11259845
80	0x3e247346	0.16059598
81	0x3d84e574	0.06489077
82	0x3a8f8900	0.0010950863
83	0x3c0a8480	0.008454442
84	0xbded6e6c	-0.11593327
85	0xbcb11730	-0.021617502
86	0x3e0361de	0.12830302
87	0xbe3dfd1c	-0.18553585
88	0x3e7462fe	0.23865888
89	0x3e770cde	0.24126002
90	0x3e4f8486	0.20265397
91	0xbe642bca	-0.22282329
92	0xbded0108	-0.11572462
93	0x3de76ed8	0.11300439
94	0x3dbfb214	0.093601376
95	0xbdeb4c16	-0.114891216
96	0x3df3d5a4	0.11905983
97	0xbd9efee2	-0.07763459
98	0xbe11ed1a	-0.14250603
99	0xbd1145cc	-0.035466954
100	0x3d280480	0.041019917
101	0x3cc53770	0.024074286
102	0xbe5c6276	-0.21521935
103	0x3e6ff3de	0.23432872
104	0x3e17c396	0.14820704
105	0x3e854c03	0.26034555
106	0x3e28c354	0.16480762
107	0xbe4455a0	-0.19173288
108	0x3e143c0e	0.14476034
109	0xbdc6ab18	-0.09700602
110	0xbcbefb80	-0.023313284
111	0xbe347450	-0.17622495

regression3.4.bias f4 [8]
0	0xbe6b49c9	-0.22977366
1	0x3d64a268	0.055818945
2	0x3e5907a4	0.21194321
3	0xbe3588bf	-0.17727946
4	0x3e84cbe1	0.25936797
5	0x3e32dc88	0.17466938
6	0x3af30700	0.0018541515
7	0x3dc4e7dc	0.09614536

regression3.6.weight f4 [1, 8]
0	0xbd0e57f0	-0.034751832
1	0x3e9f8fb9	0.3116434
2	0xbea1d112	-0.3160482
3	0xbe84e7db	-0.25958142
4	0x3eaa5841	0.33270457
5	0xbdeaa4f0	-0.114572406
6	0xbea0380b	-0.31292757
7	0x3adc5a00	0.001681149

regression2.0.weight f4 [6, 3]
0	0xbf5d06a7	-0.86338276
1	0xbe8e9979	-0.27851465
2	0xbec0c0d2	-0.3764711
3	0xbf6f1f5b	-0.9340722
4	0xbdbb22ba	-0.09137483
5	0xbddcdd31	-0.107843764
6	0xbf658bf8	-0.896667
7	0xbed4cb49	-0.41561344
8	0x3f2a476c	0.6651523
9	0xbfad7253	-1.3550514
10	0x3d6a52b0	0.057207763
11	0x3eec4449	0.46145847
12	0xbfe9872e	-1.8244379
13	0x3ef04b27	0.46932337
14	0xbe4f76e0	-0.20260191
15	0xbf957dbc	-1.1678996
16	0x3f32e000	0.69873047
17	0x3d60bc03	0.054866802

regression2.0.bias f4 [6]
0	0x403d1a94	2.9547472
1	0x404671c3	3.1006935
2	0x402407ad	2.5629685
3	0x400874bf	2.1321256
4	0x403f8930	2.9927483
5	0x4004b15f	2.0733259

regression2.2.weight f4 [7, 6]
0	0x40114989	2.2701132
1	0x3fd30ec4	1.6488881
2	0x3fc6d096	1.5532405
3	0x3f5b2ad0	0.856122
4	0x3fc72999	1.555957
5	0x3eeb6376	0.4597432
6	0xbe7f4476	-0.2492846
7	0xbe88b24b	-0.26698527
8	0x3d8af9c4	0.0678592
9	0xbea52144	-0.32251942
10	0x3e11c530	0.14235377
11	0xbed07456	-0.40713757
12	0x400821ef	2.1270711
13	0x3fa90478	1.3204489
14	0x3f9867fd	1.1906735
15	0x3f6198b0	0.8812361
16	0x3ff60adb	1.9222063
17	0x3f8b774e	1.0895784
18	0x4025ca8d	2.5904877
19	0x3fd7c8c9	1.685815
20	0x3f924a72	1.1428969
21	0x3f9ebe1a	1.2401764
22	0x3ffd2550	1.9777012
23	0x3f6700c4	0.90235543
24	0x3e908b86	0.28231448
25	0xbeb02d2a	-0.34409457
26	0xbea3eda7	-0.32017252
27	0x3c9b2eab	0.018943151
28	0x3e602d8a	0.21892372
29	0xbdbbd962	-0.09172322
30	0x400819b2	2.1265683
31	0x3fe51cc1	1.78994
32	0x3fb8be48	1.4433069
33	0x3f700440	0.93756485
34	0x3fa782ed	1.308683
35	0x3f33b9e2	0.7020551
36	0x3f6b0e8b	0.91819066
37	0x3e94825f	0.29005715
38	0x3e4c1345	0.19929226
39	0xbda1854c	-0.078867525
40	0xbdc0f5de	-0.094218954
41	0xbe46e315	-0.19422562

regression2.2.bias f4 [7]
0	0x402e2f65	2.7216427
1	0x3e464f40	0.19366169
2	0x402ef8fc	2.7339468
3	0x401f8cc6	2.4929671
4	0x3e7223e6	0.23646507
5	0x40127edb	2.2889926
6	0x3e9f2f55	0.310908

regression2.4.weight f4 [6, 7]
0	0x3fddd810	1.7331562
1	0xbe9f6160	-0.3112898
2	0x3fed22ce	1.8526247
3	0x3fa54e74	1.2914567
4	0x3debd236	0.11514704
5	0x3fa39d72	1.2782423
6	0x3e63e162	0.22253945
7	0xbdf9097e	-0.121600136
8	0xbe3e3fa4	-0.18578964
9	0x3e6fcc81	0.23417856
10	0xbeb4186d	-0.35174885
11	0x3e860ddb	0.26182446
12	0xbe3defde	-0.18548533
13	0x3e5375c2	0.2065039
14	0x3e46880e	0.19387838
15	0xbe8eac8a	-0.27866012
16	0xbe1706c4	-0.14748675
17	0xbdb076f6	-0.0861644
18	0xbc85c3ff	-0.01632881
19	0xbea28689	-0.31743267
20	0xbe8311ac	-0.2559942
21	0xbe725f15	-0.23669083
22	0xbe8d48b0	-0.2759452
23	0xbe1d3da6	-0.15355548
24	0x3ea909fb	0.33015427
25	0x3d7ca556	0.061681114
26	0xbe4be00a	-0.19909683
27	0x3ebd0f63	0.36925802
28	0x3fd27b8b	1.6443952
29	0x3e8cdf75	0.27514234
30	0x3fbc3b87	1.4705666
31	0x3fd035fa	1.6266472
32	0xbe0da166	-0.138311
33	0x3fc81dcf	1.5634097
34	0x3efffcba	0.49997503
35	0x3fe143a3	1.7598766
36	0x3e2e3276	0.17011437
37	0x3fd7a7af	1.6848048
38	0x3fd0191d	1.6257664
39	0xbe14aec0	-0.14519787
40	0x3fd502af	1.6641444
41	0x3f52717a	0.822044

regression2.4.bias f4 [6]
0	0x40168067	2.351587
1	0x3e6cb86f	0.23117231
2	0x3e8a187d	0.26971808
3	0xbdd6e4cc	-0.10492858
4	0x401996a4	2.3998194
5	0x400eb72c	2.22993

regression2.6.weight f4 [1, 6]
0	0x3fe44108	1.7832346
1	0xbddc241a	-0.10749073
2	0xbd26ea10	-0.040750563
3	0xbe32af04	-0.17449576
4	0x3fdb0da1	1.7113534
5	0x3fcbe3fe	1.5928953

regression1.0.weight f4 [55, 3]
0	0xbeaafc94	-0.33395827
1	0x3eaa7b02	0.33296973
2	0xbeb5bc90	-0.35495424
3	0x3e0a78bc	0.13522619
4	0xbdde5834	-0.10856667
5	0x3e262b28	0.162274
6	0x3f11499e	0.56752956
7	0xbe28ad9e	-0.1647248
8	0x3ea13a0c	0.314896
9	0xbd3a88a0	-0.045540452
10	0xbf053f53	-0.5204975
11	0x3e4fe0d0	0.20300603
12	0xbea3320a	-0.31874114
13	0xbee5f5d8	-0.44914126
14	0x3eebcea8	0.46056104
15	0x3dff6788	0.12470919
16	0x3d5722d0	0.052523434
17	0x3c856680	0.016284227
18	0x3c259500	0.010106325
19	0x3f05a2a0	0.5220127
20	0xbee33fce	-0.44384617
21	0x3e8685f4	0.26274073
22	0x3edd1850	0.4318261
23	0x3dad5460	0.08463359
24	0xbf112f55	-0.5671285
25	0xbec119cb	-0.3771499
26	0x3efe13d8	0.49624515
27	0xbef4c210	-0.47804308
28	0x3efc06fc	0.4922408
29	0x3cfa3120	0.030541003
30	0xbeb2dde2	-0.34934908
31	0x3effe048	0.499758
32	0x3ede9ad4	0.434775
33	0xbe0dcb0e	-0.1384699
34	0x3e1b8770	0.15188384
35	0xbf003137	-0.50075096
36	0xbb115b00	-0.0022179484
37	0x3e140f08	0.14458859
38	0x3ee79310	0.45229387
39	0x3e63e1a8	0.2225405
40	0xbe249d24	-0.1607557
41	0x3eb65108	0.35608697
42	0x3f07bd2a	0.53023016
43	0xbdbe5448	-0.09293419
44	0x3eaaab4a	0.33333808
45	0xbd9d0578	-0.07667059
46	0xbde245d8	-0.11048478
47	0xbf130c5d	-0.5744074
48	0x3de4e520	0.111765146
49	0x3d9e3728	0.07725364
50	0xbe95fba4	-0.2929355
51	0xbe7fa5a6	-0.24965534
52	0xbcaa7ee0	-0.020812452
53	0x3e2922e8	0.16517222
54	0xbc836520	-0.016039431
55	0x3ea68144	0.32520497
56	0xbf0d4f1e	-0.5519885
57	0x3ead8fa0	0.3389864
58	0xbdb4bbfc	-0.08824918
59	0xbf06111b	-0.5236985
60	0xbd783690	-0.06059891
61	0x3df16b40	0.117880344
62	0x3e14ab44	0.14518458
63	0x3f0377d6	0.5135473
64	0x3ea4d6bc	0.3219508
65	0x3d6001e0	0.05468929
66	0x3e9b839e	0.30373853
67	0x3d66b350	0.05632335
68	0xbf11ac67	-0.5690369
69	0x3ecba9d8	0.39778018
70	0x3f03cd80	0.51485443
71	0x3f0084d4	0.5020268
72	0x3f09682c	0.5367458
73	0x3edf8eb0	0.4366355
74	0xbeb485d2	-0.35258347
75	0x3f0219dc	0.5082071
76	0xbebb86bf	-0.3662624
77	0x3e0f41dc	0.13989967
78	0xbe46ef90	-0.19427323
79	0xbd9ed114	-0.07754722
80	0x3eadb2ae	0.33925384
81	0xbeca1072	-0.39465672
82	0xbd680860	-0.056648612
83	0xbe0ba624	-0.13637596
84	0xbc8b30a0	-0.01699096
85	0xbe8c773c	-0.2743472
86	0x3d582a40	0.052774668
87	0xbc187bc0	-0.009306848
88	0xbd6b3d70	-0.05743164
89	0xbea5b6b2	-0.32365948
90	0x3eb6e61e	0.3572244
91	0xbf11bb47	-0.5692639
92	0xbf087e72	-0.5331794
93	0x3ed6945c	0.41910064
94	0xbefb2214	-0.49049437
95	0x3e27d5bc	0.16390127
96	0x3ed4f22e	0.41591018
97	0x3f108cc2	0.5646478
98	0x3ebdfa70	0.3710513
99	0xbed773c2	-0.42080504
100	0xbe82ebab	-0.25570425
101	0xbdd36ff4	-0.10324088
102	0x3e9abec0	0.30223656
103	0xbe8d2878	-0.27569938
104	0xbea88e92	-0.32921273
105	0xbf12f6d6	-0.5740789
106	0x3f00c450	0.5029955
107	0xbeb28661	-0.34868148
108	0xbf030282	-0.511757
109	0xbd62ea60	-0.0553993
110	0xbdf99400	-0.12186432
111	0xbe0142fe	-0.12623212
112	0xbec60900	-0.3867874
113	0x3eafa16a	0.34302837
114	0xbeb88e02	-0.36045843
115	0x3e50a030	0.20373607
116	0x3ecd6a2c	0.40120065
117	0xbe0c650c	-0.13710421
118	0xbe6f9cac	-0.2339961
119	0x3cb1c460	0.021700084
120	0xbda80a4c	-0.08205089
121	0xbe2b8e30	-0.16753459
122	0xbe03a906	-0.12857446
123	0x3dc6fdc8	0.09716374
124	0xbefa4b37	-0.4888551
125	0xbeb1bde2	-0.34715182
126	0xbee184ce	-0.44046634
127	0x3de4c930	0.11171186
128	0x3f0eb85a	0.5575005
129	0x3f0db624	0.5535605
130	0xbec6d012	-0.3883062
131	0xbf12a91c	-0.5728929
132	0x3e71f7d0	0.23629689
133	0x3eb8b1e4	0.3607322
134	0xbe6cc060	-0.2312026
135	0x3e42e870	0.1903398
136	0x3ebde1d8	0.37086368
137	0xbefb7963	-0.49116048
138	0xbd484b00	-0.04889965
139	0xbe2f1d80	-0.17101097
140	0xbe1e59e8	-0.15463984
141	0xbe82384b	-0.25433573
142	0xbe5457b2	-0.20736578
143	0x3cc4acc0	0.024008155
144	0x3ee35494	0.44400465
145	0x3ed35b9e	0.41280836
146	0xbede7b29	-0.4345334
147	0x3e0e9dbc	0.13927358
148	0xbea6b510	-0.32560015
149	0xbe69621a	-0.22791329
150	0x3eed0dc0	0.46299553
151	0x3e913f24	0.28368485
152	0xbebdabb8	-0.37045074
153	0x3e938cf6	0.28818482
154	0xbe941a90	-0.28926516
155	0x3d56f2b0	0.05247754
156	0xbed0060e	-0.4062962
157	0x3f11c486	0.56940496
158	0xbef64131	-0.48096612
159	0x3f0ba318	0.54545736
160	0xbe5a5dc6	-0.21324834
161	0xbf0852f8	-0.532516
162	0x3d90bb08	0.070669234
163	0x3e0bfe54	0.13671237
164	0x3f0b4e12	0.54416

regression1.0.bias f4 [55]
0	0xbeff2f92	-0.4984098
1	0xbf0e3d5f	-0.55562395
2	0xbe7b3240	-0.24530888
3	0x3c242540	0.010018647
4	0xbc1990c0	-0.00937289
5	0x3d37f550	0.044911683
6	0xbe38e038	-0.18054283
7	0x3e1f3618	0.15547979
8	0xbedb839f	-0.42873856
9	0x3eeb3bd0	0.4594407
10	0xbc2902c0	-0.010315597
11	0xbbd6eb80	-0.0065588355
12	0xbeabb396	-0.3353545
13	0x3dc4e340	0.09613657
14	0xbf0e0450	-0.5547533
15	0xbed47d4a	-0.41501838
16	0xbe8bb5ad	-0.27287045
17	0x3e04da54	0.1297391
18	0xbe89f0c1	-0.26941493
19	0x3ecd218a	0.4006465
20	0xbe4ab41e	-0.19795272
21	0x3ee9c53c	0.4565829
22	0xbbd3f900	-0.006468892
23	0x3df6bda0	0.12047887
24	0x3e3c651c	0.18397945
25	0x3f038ac0	0.5138359
26	0x3d7332d0	0.05937463
27	0xbe35b43e	-0.17744538
28	0x3eb190e0	0.34680843
29	0x3ee90180	0.45508957
30	0x3ed71dde	0.42014974
31	0x3e64162c	0.22274083
32	0xbeed34cc	-0.46329343
33	0xbeca8a1d	-0.39558497
34	0xbf11a80a	-0.5689703
35	0xbf0dedab	-0.5544078
36	0xbea049b8	-0.31306243
37	0xbeaddba7	-0.33956644
38	0x3ed7b142	0.42127424
39	0xbcfddb60	-0.030988395
40	0x3ee8c1f8	0.45460486
41	0xbefb3d0b	-0.4907001
42	0xbe9f8c90	-0.31161928
43	0x3d054550	0.032536805
44	0xbe6602c8	-0.22461998
45	0xbdbbc3b0	-0.09168184
46	0x3dd822a0	0.10553479
47	0xbefcb6c6	-0.49358195
48	0x3ee11628	0.43962216
49	0x3edf6758	0.43633533
50	0xbef90b92	-0.4864164
51	0x3e0e4050	0.13891721
52	0xbeed85b1	-0.4639106
53	0x3efa6f8c	0.4891323
54	0xbd5b52e0	-0.053545833

regression1.2.weight f4 [1, 55]
0	0x3d3fd1bc	0.046830878
1	0xbce56774	-0.028003432
2	0x3dcb15c8	0.09916264
3	0x3d42bbb8	0.047542304
4	0x3d922d32	0.071375266
5	0xbbdc8ec0	-0.0067308843
6	0xbda358e8	-0.07975942
7	0xbd2b59e2	-0.041833766
8	0xbdc40876	-0.09571926
9	0xbd2fea0e	-0.04294782
10	0xbe05e119	-0.13074149
11	0xbce6ea1c	-0.028187804
12	0x3ae52a80	0.001748398
13	0xbd4b0b90	-0.049571574
14	0xbdddd056	-0.108307526
15	0x3d89768c	0.06712064
16	0x3c58eae0	0.013239592
17	0x3b11c200	0.0022240877
18	0xbb2bb0c0	-0.002619788
19	0x3e097663	0.13424067
20	0xbb8f4600	-0.0043723583
21	0x3dbc9280	0.0920763
22	0x3e024869	0.12722935
23	0xbd208e90	-0.03919846
24	0x3d9b6c5e	0.07589029
25	0x3d24a14c	0.040192887
26	0xb9612c00	-0.00021474063
27	0xbd07c8f0	-0.033150613
28	0x3dde191a	0.108446315
29	0x3de20306	0.11035733
30	0xbdcae88b	-0.09907635
31	0x3d2e2fec	0.04252617
32	0x3c176a40	0.009241641
33	0xbb203ac0	-0.002444908
34	0xbd7a8ae4	-0.061167613
35	0xbd648b84	-0.055797115
36	0xbc456a58	-0.01204928
37	0x3d87c814	0.06629959
38	0xbddbe484	-0.10736945
39	0xbdfa1289	-0.122105666
40	0x3d98bcfe	0.074579224
41	0xbd57ff60	-0.05273378
42	0xbc7236f8	-0.014783613
43	0xbda7cb81	-0.08193112
44	0x3ce40920	0.027836382
45	0x3d7fba34	0.062433437
46	0xbce0226c	-0.027360164
47	0x3de258f6	0.11052124
48	0xbdc772f3	-0.09738722
49	0x3d9292a2	0.07156874
50	0x3ce50360	0.02795571
51	0x3d2e5b6c	0.042567655
52	0x3d5521c0	0.05203414
53	0x3bdc4ca0	0.0067230016
54	0xbc466d30	-0.012110993

regression4.0.weight f4 [6, 3]
0	0xbed4eb30	-0.41585684
1	0x3f026c5e	0.50946605
2	0x3e3d59ac	0.18491238
3	0xbe33398a	-0.17502418
4	0xbf0f14a1	-0.5589085
5	0xbe77afc8	-0.24188149
6	0x3e54051c	0.20705074
7	0x3ee59f1c	0.44847953
8	0xbe94cb98	-0.2906158
9	0xbe80a7a4	-0.251279
10	0x3e58a6dc	0.21157402
11	0xbec52eef	-0.3851237
12	0xbeb728e1	-0.35773376
13	0x3e7f5d04	0.24937826
14	0xbe4fb33c	-0.20283216
15	0x3dafc720	0.08582902
16	0xbebbc054	-0.36670172
17	0xbf1041b7	-0.5635027

regression4.0.bias f4 [6]
0	0xbf0e4864	-0.5557921
1	0xbe6cc4b4	-0.23121911
2	0xbef947de	-0.48687643
3	0x3f118416	0.5684217
4	0x3df6a170	0.120425105
5	0xbf024bc2	-0.5089685

regression4.2.weight f4 [7, 6]
0	0x3e5563f4	0.2083891
1	0x3eb9f656	0.36320752
2	0x3e7f2754	0.24917346
3	0x3e731358	0.23737848
4	0x3e961ce8	0.2931893
5	0x3e2979a0	0.16550303
6	0x3c9b2c50	0.018942028
7	0x3dcf49d0	0.101215005
8	0x3d9717c4	0.0737758
9	0xbeb3a46a	-0.35086375
10	0xbdc98b70	-0.09841049
11	0xbc955500	-0.018229008
12	0x3e9006cc	0.28130186
13	0x3d9570ac	0.07296881
14	0x3e1c4114	0.152592
15	0x3e9e06d4	0.30864584
16	0xbcbb8150	-0.02288881
17	0xbecc3046	-0.3988058
18	0x3e83c2e6	0.25734633
19	0xbeb73d1a	-0.35788804
20	0x3eb825e4	0.35966408
21	0xbe9685c8	-0.29398942
22	0xbece2505	-0.4026262
23	0x3e04cd00	0.12968826
24	0x3e727fac	0.23681515
25	0xbe510591	-0.2041228
26	0xbe8a6c6e	-0.2703585
27	0x3e997004	0.29968274
28	0x3ea3e78a	0.32012588
29	0xbec9d435	-0.39419714
30	0x3ea3089a	0.318425
31	0xbdeeb620	-0.11655831
32	0xbe331d26	-0.17491588
33	0x3e8988e2	0.26862246
34	0xbece8104	-0.40332806
35	0x3dddcaa0	0.10829663
36	0x3d0eb480	0.034840107
37	0xbdbe53ac	-0.09293303
38	0xbe86fbb6	-0.26363915
39	0xbe936776	-0.28789872
40	0xbe92aa4e	-0.28645557
41	0xbe2de620	-0.16982317

regression4.2.bias f4 [7]
0	0x3e9a5190	0.30140352
1	0xbe82954c	-0.2550453
2	0xbd86b628	-0.06577712
3	0x3e9e1b9c	0.3088044
4	0x3e05d098	0.13067853
5	0x3c520e80	0.01282084
6	0xbd957ffc	-0.07299802

regression4.4.weight f4 [8, 7]
0	0xbe540529	-0.20705093
1	0xbddbd92c	-0.107347816
2	0x3dd91c14	0.106010586
3	0x3db65158	0.08902234
4	0xbd8d6e8c	-0.06905851
5	0x3e7d6f5a	0.24749509
6	0x3e9d5377	0.3072774
7	0xbdcb8b80	-0.09938717
8	0xbe88b2d8	-0.26698947
9	0xbd5df670	-0.0541901
10	0xbe6be70b	-0.23037355
11	0xbe946636	-0.2898423
12	0xbe93bbf4	-0.28854334
13	0x3e820f15	0.25402132
14	0x3e7ec58a	0.24880043
15	0x3ebee03d	0.37280455
16	0x3e87cb43	0.26522264
17	0x3db78060	0.089600325
18	0x3e8ace4f	0.27110526
19	0xbeba16a6	-0.36345404
20	0x3e95ef0b	0.29283938
21	0xbe8c5cef	-0.27414653
22	0xbe90c22e	-0.28273147
23	0x3e0a98da	0.1353487
24	0xbdda4bb4	-0.106589705
25	0xbd429cb0	-0.04751271
26	0x3ebd0609	0.36918667
27	0xbda15f48	-0.078795016
28	0x3e38b996	0.18039545
29	0x3e0d7d2e	0.13817284
30	0x3ead60e5	0.33862987
31	0xbe849a06	-0.2589876
32	0x3e851689	0.25993755
33	0x3e89bcc5	0.26901832
34	0x3dd4ae54	0.10384813
35	0x3db19820	0.08671594
36	0x3eb78839	0.35846117
37	0x3e2333da	0.15937749
38	0xbe11c6a4	-0.14235932
39	0x3e8cec05	0.2752382
40	0xbdc7f170	-0.097628474
41	0x3eab644f	0.33474967
42	0xbe98a29b	-0.29811558
43	0xbd8a3f1c	-0.067503184
44	0x3da000fc	0.07812688
45	0xbe99aa16	-0.30012578
46	0xbeb41ce2	-0.35178286
47	0x3eb71b4b	0.3576301
48	0x3b0f7b80	0.002189368
49	0xbe04815b	-0.1293997
50	0x3e542b1e	0.20719573
51	0x3e408e12	0.18804196
52	0xbe0c7766	-0.13717422
53	0xbebbe29b	-0.36696324
54	0xbe49f3cc	-0.19721907
55	0xbdf04e94	-0.117337376

regression4.4.bias f4 [8]
0	0x3c7546e0	0.014970511
1	0xbde1b484	-0.11020759
2	0x3e4f72d6	0.2025865
3	0x3c51e8e0	0.012811869
4	0x3e334b4a	0.17509189
5	0xbea02d60	-0.31284618
6	0x3eab9393	0.33511028
7	0x3bde5980	0.0067855716

regression4.6.weight f4 [7, 8]
0	0xbdad3398	-0.08457106
1	0xbea33c11	-0.31881765
2	0x3e13c5b2	0.14430884
3	0xbe343e1f	-0.17601822
4	0x3c879070	0.016548365
5	0xbe769e54	-0.24083835
6	0xbe25673e	-0.16152665
7	0xbd97bda8	-0.07409221
8	0xbe315f83	-0.17321591
9	0x3e986017	0.2976081
10	0x3eaad92d	0.33368817
11	0xbc408c00	-0.011752129
12	0xbea46e18	-0.32115245
13	0xbe0f5bf5	-0.13999923
14	0x3eb2efb3	0.349485
15	0x3d941dbc	0.07232234
16	0xbe7ace56	-0.24492773
17	0x3e8c5131	0.27405694
18	0x3e2da1da	0.16956273
19	0xbe987073	-0.29773292
20	0x3e8e8cad	0.27841702
21	0x3e0b678e	0.13613722
22	0xbde06bce	-0.10958062
23	0xbe0f29d4	-0.139808
24	0xbe8503f0	-0.25979567
25	0xbe5d4b6b	-0.21610801
26	0x3eb355a5	0.3502628
27	0xbe44fb71	-0.19236542
28	0x3e8550bf	0.26038167
29	0xbdc339a4	-0.095324785
30	0xbe6c1c1b	-0.23057596
31	0x3ead234d	0.33815995
32	0x3d7bffa8	0.06152311
33	0xbeaee247	-0.3415701
34	0x3e7751ca	0.24152294
35	0xbe9bc385	-0.30422607
36	0xbd9458c8	-0.07243496
37	0x3ea513c5	0.32241645
38	0x3e3c7836	0.18405232
39	0x3eb40edd	0.3516759
40	0x3eb2ccdd	0.34921923
41	0x3e40c06a	0.188234
42	0x3e976ce9	0.2957528
43	0xbe9e520e	-0.30921978
44	0xbcb7e4e0	-0.022448003
45	0x3d23cc88	0.039989978
46	0xbe835da6	-0.25657386
47	0x3d86b588	0.06577593
48	0x3e0f0220	0.13965654
49	0xbcd2f1f0	-0.02575013
50	0xbdab2ed0	-0.08358538
51	0x3ea5dc09	0.32394436
52	0xbeb0fe54	-0.34569037
53	0x3d5ca7d0	0.053870976
54	0xbea3e5e2	-0.32011324
55	0x3e8c7bdf	0.27438256

regression4.6.bias f4 [7]
0	0x3e0e8bba	0.13920489
1	0x3e4ca84e	0.19986078
2	0xbe093387	-0.13398562
3	0x3e9f3ad3	0.31099567
4	0x3c10b120	0.008831292
5	0xbe9496b0	-0.29021215
6	0xbe4230f4	-0.18963987

regression4.8.weight f4 [6, 7]
0	0xbe914236	-0.28370827
1	0x3e20d5e2	0.1570659
2	0x3e5b1bbe	0.21397302
3	0xbe22d6a5	-0.15902193
4	0xbe99e874	-0.3006016
5	0xbe49d483	-0.19709973
6	0xbda0d290	-0.078526616
7	0x3cc9fde0	0.02465719
8	0x3e674e0e	0.22588369
9	0xbe0c0de3	-0.13677172
10	0x3ea1b549	0.31583622
11	0xbe8c0b7d	-0.27352515
12	0xbe8df6f0	-0.2772746
13	0xbe08c800	-0.13357544
14	0x3ea8798f	0.32905242
15	0xbe3e4c86	-0.18583879
16	0xbe749c8a	-0.2388784
17	0xbe917d9f	-0.28416154
18	0xbe186d2b	-0.14885394
19	0xbe33c778	-0.1755656
20	0x3d0fd140	0.035111666
21	0xbebda032	-0.37036282
22	0xbdc0c884	-0.09413245
23	0xbe90aaf3	-0.28255424
24	0x3d820ae0	0.063497305
25	0xbd37fb58	-0.044917434
26	0xbeb8026a	-0.35939342
27	0xbeb06347	-0.34450743
28	0xbe9637d9	-0.29339483
29	0x3d9c14f0	0.07621181
30	0x3e1a28ee	0.15054676
31	0x3ebc07fb	0.3672484
32	0x3e2d7846	0.16940412
33	0xbeb2d82f	-0.3493056
34	0x3e28ac16	0.16471896
35	0xbeb9fc4a	-0.36325294
36	0xbea6df62	-0.32592303
37	0xbe6e7e99	-0.2329048
38	0x3e85c489	0.26126507
39	0x3df02f80	0.1172781
40	0x3ebee7e5	0.37286296
41	0x3ea2edf7	0.31822178

regression4.8.bias f4 [6]
0	0xbe992fee	-0.2991938
1	0xbe8feccc	-0.2811035
2	0xbddd8cd4	-0.108178765
3	0x3eb20919	0.34772566
4	0xbe6043fa	-0.21900931
5	0xbe99b67a	-0.3002203

regression4.10.weight f4 [1, 6]
0	0x3e9e46e0	0.30913448
1	0xbeb3b0ca	-0.35095817
2	0xbe9636b6	-0.29338616
3	0xbcd82880	-0.0263865
4	0x3df12a70	0.117756724
5	0xbe5277c8	-0.20553505
