nn_metamodel/ann_metamodel/runs/Jan.15 11:49:10/model_weights.pth (torch_old, 9794 bytes, 29 tensors)

fc.weight f4 [1, 5]
0.15883058 0.13693404 -0.40633282 0.39570487 -0.006676793
00000000: 7ca4 223e 7038 0c3e db0a d0be d499 ca3e
00000010: 00c9 dabb

regression3.0.weight f4 [8, 5]
0.23116577 -0.41885847 -0.19957496 0.4105786 -0.40269336 -0.28747988 -0.08092567 0.046771705
0.37813532 -0.40396774 0.26867574 -0.15146062 0.029152453 -0.26203865 -0.24407066 0.31056887
0.2360658 0.19853532 0.22292304 -0.106491715 0.08878273 -0.2883349 -0.38012886 0.13898402
0.044911653 -0.41672567 0.23971742 -0.030879706 0.19778436 -0.1202355 0.15337652 0.09458536
-0.19485733 0.28139257 -0.08940494 0.43466204 -0.15126923 0.2650404 0.31754416 0.072840154
00000000: b8b6 6c3e 9e74 d6be 615d 4cbe 5c37 d23e
00000010: d32d cebe 9030 93be 5cbc a5bd b093 3f3d
00000020: f49a c13e dcd4 cebe de8f 893e 7e18 1bbe
00000030: 20d1 ee3c ee29 86be a9ed 79be e202 9f3e
00000040: 3cbb 713e d84c 4b3e f045 643e 5418 dabd
00000050: b8d3 b53d a2a0 93be 40a0 c2be d451 0e3e
00000060: 48f5 373d 115d d5be 7c78 753e 70f7 fcbc
00000070: fc87 4a3e 083e f6bd bc0e 1d3e f8b5 c13d
00000080: ae88 47be b012 903e f019 b7bd 068c de3e
00000090: 52e6 1abe 60b3 873e 2695 a23e 382d 953d

regression3.0.bias f4 [8]
0.056880176 -0.08101258 -0.3581516 0.2536366 0.36770815 0.36272186 -0.44367447 -0.33666757
00000000: 30fb 683d ece9 a5bd a65f b7be a8dc 813e
00000010: 3e44 bc3e aeb6 b93e 4d29 e3be b15f acbe

regression3.2.weight f4 [16, 8]
0.21124926 0.13223413 0.23361263 0.31224987 -0.23421139 -0.28133625 -0.3224503 -0.25799894
-0.24266869 0.2781224 -0.15083915 -0.19433346 -0.27300072 0.25427845 0.2654396 -0.15368932
-0.15054265 0.31680444 -0.17683089 -0.03049767 0.32584903 0.15295395 -0.105373904 -0.21213962
-0.09171486 0.2415922 -0.279816 -0.28655887 0.3436723 -0.0010919273 -0.21022384 0.18417749
0.24699739 0.2541707 -0.09129056 -0.27092302 0.31617025 -0.17818254 0.29722896 -0.0030524135
-0.115611374 -0.26170737 0.11419347 -0.2472989 -0.3460875 -0.13756078 0.14164671 -0.077583075
0.17561468 0.11478132 0.19030127 -0.27972433 0.037884414 -0.22049886 -0.3311198 0.09448764
0.047152728 -0.0051464736 0.2943478 -0.29050204 -0.18746758 -0.30477035 0.22401676 0.33074668
-0.15955988 -0.23755518 -0.15567882 -0.15065984 0.34432384 -0.05006072 -0.17232536 -0.040650457
-0.06250206 0.11381936 -0.103903696 -0.14829667 0.16946027 -0.24738725 0.28621063 0.080443114
-0.092216134 -0.32214022 -0.3274051 -0.23447159 0.04303944 -0.29293332 0.315133 0.28855667
0.17042103 -0.26745903 0.322319 -0.26275617 0.25066695 0.27780047 -0.14085127 0.21376392
-0.058376938 -0.097608 0.20110747 0.20213917 0.036003232 -0.35103354 -0.18038787 -0.30907393
0.18342319 -0.21695435 0.19288906 -0.09545183 -0.34680653 -0.13787279 -0.052735776 -0.21121281
0.26670322 0.24423417 -0.040050298 -0.13611859 0.21243414 0.3264363 -0.25907558 0.33809587
0.015024185 -0.19574597 0.23056307 0.30945125 -0.12175141 0.25674728 -0.183969 0.24477378
00000000: ba51 583e 6268 073e 2638 6f3e 37df 9f3e
00000010: 1cd5 6fbe 4e0b 90be 3518 a5be 7018 84be
00000020: 247e 78be 0f66 8e3e 9475 1abe 5aff 46be
00000030: c0c6 8bbe c930 823e b3e7 873e bc60 1dbe
00000040: da27 1abe 3134 a23e 2813 35be 40d6 f9bc
00000050: afd5 a63e f69f 1c3e 46ce d7bd 213b 59be
00000060: 00d5 bbbd f263 773e 0b44 8fbe d8b7 92be
00000070: d1f5 af3e 001f 8fba eb44 57be 0699 3c3e
00000080: e2ec 7c3e a922 823e 8cf6 babd 6cb6 8abe
00000090: 11e1 a13e 7c75 36be 652e 983e 000b 48bb
000000a0: a8c5 ecbd 82fe 85be 44de e93d ec3b 7dbe
000000b0: 6132 b1be bcdc 0cbe d60b 113e e0e3 9ebd
000000c0: 56d4 333e 7812 eb3d 56de 423e 0738 8fbe
000000d0: b02c 1b3d 74ca 61be 8988 a9be bc82 c13d
000000e0: 3823 413d c0a3 a8bb c1b4 963e afbc 94be
000000f0: 80f7 3fbe dc0a 9cbe a664 653e a157 a93e
00000100: aa63 23be aa41 73be 456a 1fbe 9346 1abe
00000110: 374b b03e 780c 4dbd 0f76 30be 1881 26bd
00000120: 1401 80bd 201a e93d 76cb d4bd 15db 17be
00000130: fe86 2d3e 1553 7dbe 338a 923e 5cbf a43d
00000140: d0db bcbd 90ef a4be a4a1 a7be 5219 70be
00000150: 204a 303d 5bfb 95be 1d59 a13e b3bd 933e
00000160: da82 2e3e 64f0 88be ff06 a53e fa87 86be
00000170: 6b57 803e dd3b 8e3e 513b 10be eee4 5a3e
00000180: a81c 6fbd b4e6 c7bd 1eef 4d3e 92fd 4e3e
00000190: 2078 133d abba b3be 99b7 38be f03e 9ebe
000001a0: 4ad3 3b3e 4829 5ebe b684 453e 407c c3bd
000001b0: a090 b1be 862e 0dbe 7801 58bd 2c48 58be
000001c0: 538d 883e 8618 7a3e c80b 24bd ac62 0bbe
000001d0: 5688 593e a922 a73e 8ea5 84be e71a ad3e
000001e0: 0028 763c a271 48be ba18 6c3e 6570 9e3e
000001f0: ce58 f9bd 6174 833e 5f62 3cbe faa5 7a3e

regression3.2.bias f4 [16]
-0.14843896 0.22604945 -0.3184762 -0.092889965 0.3377796 0.2858657 -0.01810211 -0.02438882
0.1224117 -0.021487087 -0.29361126 -0.28658107 -0.013260156 -0.26468772 -0.32534358 0.33422443
00000000: 6200 18be 8279 673e 500f a3be 183d bebd
00000010: 73f1 ac3e fd5c 923e e04a 94bc 10cb c7bc
00000020: fcb2 fa3d b005 b0bc 3754 96be c1ba 92be
00000030: 2041 59bc 2685 87be 6f93 a6be 771f ab3e

regression3.4.weight f4 [8, 16]
-0.02374053 0.16532457 -0.06712219 -0.050726533 -0.1399166 -0.14642704 0.24337703 0.11941126
-0.16119957 0.115442425 0.11714885 0.03685847 -0.15478733 -0.05640605 -0.1470902 0.14188421
0.24394858 -0.077807754 -0.11834192 0.19895029 0.22173834 0.16870269 0.05941406 0.1096037
-0.06949231 0.027527004 -0.060860753 0.002704084 -0.07486427 -0.15677515 0.026402652 -0.23566201
0.16617444 -0.19423181 0.20680243 0.014632195 0.13125014 -0.18879703 0.15175873 -0.039852202
-0.025708884 -0.0077961385 -0.20189437 -0.028684795 -0.012272239 0.21290621 -0.12303218 -0.033719182
0.009042114 -0.23893136 -0.11131951 -0.12628615 0.07141963 0.15584743 -0.22015464 0.20601031
0.17396396 0.03225285 0.18708381 -0.24457446 -0.21920618 -0.22359762 0.03473127 0.017134547
-0.09095612 -0.069837004 0.028732806 -0.0055859685 0.06871423 -0.19562566 0.044606864 -0.2312339
0.08715448 0.14942127 0.08747631 0.064961135 -0.16905007 0.21948433 -0.18182164 0.16933712
-0.23013434 -0.1863885 0.043497592 -0.08170509 0.23213342 0.2254222 -0.22842988 -0.045164347
-0.07282704 -0.16762227 0.04838407 -0.04610315 0.03295335 -0.18114156 0.17179945 0.1790041
-0.003554225 -0.01603511 0.10627839 -0.19499472 -0.19208542 -0.0919452 0.015870303 0.24492437
0.2384477 0.13062024 -0.091053575 -0.23955753 0.1676726 -0.21843651 0.09461334 -0.09692854
-0.0373455 -0.103327215 0.07818407 0.105326205 0.15022379 0.06069976 0.0010243654 0.007908404
-0.108445644 -0.020221323 0.120016485 -0.1735529 0.22324497 0.22567809 0.18956545 -0.20843211
00000000: 807b c2bc d84a 293e 5c77 89bd a0c6 4fbd
00000010: 4c46 0fbe f8f0 15be d437 793e e48d f43d
00000020: 8011 25be 146d ec3d bceb ef3d e8f8 163d
00000030: 9280 1ebe 080a 67bd d09e 16be 184a 113e
00000040: a8cd 793e ac59 9fbd 405d f2bd a0b9 4b3e
00000050: 600f 633e 66c0 2c3e 285c 733d e877 e03d
00000060: fc51 8ebd 5080 e13c 2049 79bd 0037 313b
00000070: 7052 99bd aa89 20be 604a d83c 6251 71be
00000080: a229 2a3e b4e4 46be 04c4 533e e0bb 6f3c
00000090: 7066 063e 0254 41be a466 1b3e 103c 23bd
000000a0: 709b d2bc c076 ffbb 66bd 4ebe 60fc eabc
000000b0: 8011 49bc 1604 5a3e 4cf8 fbbd 201d 0abd
000000c0: 6025 143c 6caa 74be 7cfb e3bd 2851 01be
000000d0: 7444 923d 7896 1f3e 3870 61be 5ef4 523e
000000e0: 9c23 323e 901b 043d e692 3f3e ba71 7abe
000000f0: 9677 60be c6f6 64be 6042 0e3d c05d 8c3c
00000100: 3447 babd b406 8fbd 1061 eb3c 800a b7bb
00000110: 0cba 8c3d 1852 48be b0b5 363d 94c8 6cbe
00000120: 0c7e b23d e401 193e c826 b33d 580a 853d
00000130: 761b 2dbe 80c0 603e 742f 3abe b666 2d3e
00000140: 56a8 6bbe a0dc 3ebe 882a 323d 0055 a7bd
00000150: 62b4 6d3e 14d5 663e 86e9 69be 40fe 38bd
00000160: 5826 95bd 2ca5 2bbe 602e 463d a8d6 3cbd
00000170: 18fa 063d 2c7d 39be 32ec 2f3e da4c 373e
00000180: 00ee 68bb 105c 83bc 7ca8 d93d b2ac 47be
00000190: 0ab2 44be c44d bcbd 7002 823c 74cd 7a3e
000001a0: a22b 743e 50c1 053e 4c7a babd 924e 75be
000001b0: 5eb2 2b3e d2ad 5fbe a4c4 c13d 7882 c6bd
000001c0: 98f7 18bd 389d d3bd f81e a03d 44b5 d73d
000001d0: 44d4 193e 50a0 783d 0044 863a 4092 013c
000001e0: c018 debd 30a7 a5bc 34cb f53d dab7 31be
000001f0: 549a 643e 2818 673e 721d 423e 3a6f 55be

regression3.4.bias f4 [8]
-0.10825047 0.10570592 0.087556064 -0.1074709 0.111370265 -0.07262051 -0.13330218 -0.033176303
00000000: 6cb2 ddbd 587c d83d 9850 b33d b419 dcbd
00000010: 1816 e43d 10ba 94bd 5e80 08be e0e3 07bd

regression3.6.weight f4 [1, 8]
0.054264247 0.0318473 -0.28470844 0.30998775 0.19605944 0.34440485 0.21801999 -0.25363874
00000000: 3044 5e3d 5072 023d 4ec5 91be b7b6 9e3e
00000010: cec3 483e d555 b03e a240 5f3e f0dc 81be

regression2.0.weight f4 [6, 5]
-0.16232213 -0.039010584 -0.29488075 -0.38448486 0.09340298 -0.105979435 -0.32597855 -0.16418317
0.23716109 0.3124061 -0.18674149 -0.06825577 -0.15424103 -0.33848143 -0.10217833 -0.17970872
-0.74547446 -0.99637586 -0.5984235 -0.6496281 -0.19049844 -0.7933637 -1.0155739 -0.30185425
-0.7204909 -0.49389365 0.30071008 -0.6455697 0.7795676 0.91127366
00000000: c637 26be 90c9 1fbd 9cfa 96be 33db c4be
00000010: 104a bf3d bf0b d9bd a9e6 a6be a21f 28be
00000020: 5bda 723e b1f3 9f3e 2939 3fbe aec9 8bbd
00000030: 5cf1 1dbe 704d adbe df42 d1bd 9005 38be
00000040: 6ad7 3ebf 7d12 7fbf 4832 19bf 074e 26bf
00000050: 0612 43be e219 4bbf 53fe 81bf a48c 9abe
00000060: 1772 38bf a1df fcbe acf6 993e 0e44 25bf
00000070: be91 473f 3b49 693f

regression2.0.bias f4 [6]
0.19450408 5.858377 5.266916 -0.25756535 -0.82891136 2.440184
00000000: 142c 473e d377 bb40 938a a840 9bdf 83be
00000010: 8933 54bf fa2b 1c40

regression2.2.weight f4 [7, 6]
0.39790487 -0.6632548 -0.37037033 -0.2709335 -0.590126 -0.12965772 0.27260518 -0.34720764
-0.034041137 0.09767324 0.3971761 -0.21421185 -0.16098389 -1.1982745 -1.4385831 -0.26698527
0.0678592 -0.32251942 0.14235377 -2.1687295 -0.1708627 -0.22833155 0.03671977 -0.19025211
0.20808804 0.19414137 0.10662588 0.70963955 0.55811507 0.31106564 0.23812956 -0.24355307
-0.14193204 0.3158591 0.3213422 0.13689436 0.27800292 -0.041035175 -0.17260036 0.27698886
0.31510162 -0.12699777
00000000: 30ba cb3e 11cb 29bf 2ea1 bdbe ccb7 8abe
00000010: 7f12 17bf fec4 04be e892 8b3e 33c5 b1be
00000020: b86e 0bbd e808 c83d aa5a cb3e 5a5a 5bbe
00000030: f6d8 24be 0f61 99bf 7e23 b8bf 4bb2 88be
00000040: c4f9 8a3d 4421 a5be 30c5 113e 77cc 0ac0
00000050: a2f6 2ebe bfcf 69be 7867 163d 73d1 42be
00000060: 0815 553e ffcc 463e ab5e da3d f0aa 353f
00000070: a1e0 0e3f ff43 9f3e 3cd8 733e fa65 79be
00000080: a256 11be 49b8 a13e f786 a43e 092e 0c3e
00000090: 6656 8e3e 8014 28bd 26be 30be 7cd1 8d3e
000000a0: 0055 a13e b40b 02be

regression2.2.bias f4 [7]
-0.9988637 -0.094332725 -1.5807072 -1.9194317 -0.051250894 -0.06750115 -0.11676222
00000000: 88b5 7fbf 8431 c1bd 9d54 cabf f0af f5bf
00000010: 75ec 51bd 0b3e 8abd 0821 efbd

regression2.4.weight f4 [6, 7]
0.52124244 0.29433587 1.1151397 2.1321175 -5.778594 -1.4891081 -0.11575079 0.065850854
0.21030691 -0.3112898 0.3621172 -0.46113044 0.07026461 -0.23396188 -0.2299839 0.0166291
0.7480787 2.200477 -4.046338 -0.3293788 -0.034685373 0.8070544 0.35536972 0.6594303
1.8432623 -1.0750955 -0.51056874 -0.119778395 0.34455627 -0.2296827 0.663226 1.6798398
0.7892853 0.40195778 -0.19909683 -0.23129235 0.10979396 0.27514234 -0.031259388 -0.49700028
-0.7844036 0.04266286
00000000: 2570 053f 31b3 963e e6bc 8e3f 9d74 0840
00000010: 3eea b8c0 189b bebf c00e edbd d0dc 863d
00000020: b25a 573e 6061 9fbe 6d67 b93e 4a19 ecbe
00000030: e4e6 8f3d b493 6fbe e680 6bbe c039 883c
00000040: 1682 3f3f 9dd4 0c40 9a7b 81c0 57a4 a8be
00000050: 4012 0ebd 1e9b 4e3f 05f3 b53e 6dd0 283f
00000060: 05f0 eb3f bb9c 89bf a2b4 02bf 604e f5bd
00000070: ae69 b03e f131 6bbe 2ec9 293f fe04 d73f
00000080: 9a0e 4a3f 69cd cd3e 0ae0 4bbe e7d7 6cbe
00000090: a8db e03d 75df 8c3e d809 00bd d276 febe
000000a0: adce 48bf 40bf 2e3d

regression2.4.bias f4 [6]
-0.1766233 -0.002806935 -1.251261 8.1782875 11.504483 -0.79682994
00000000: bddc 34be 8ef4 37bb 5229 a0bf 44da 0241
00000010: 5d12 3841 0cfd 4bbf

regression2.6.weight f4 [1, 6]
-0.23113869 0.0013007778 -0.5239053 3.6269207 5.005957 0.49580973
00000000: 9faf 6cbe dc7e aa3a a81e 06bf 781f 6840
00000010: cd30 a040 c6da fd3e

regression1.0.weight f4 [55, 5]
0.021562904 0.29737312 -0.21499424 -0.17542836 -0.20022345 0.21429622 0.062931895 0.30900645
-0.25868297 0.25791723 -0.2749464 0.104745746 -0.08409539 0.1256969 0.4396065 -0.12759528
0.2439174 -0.03527549 -0.40317562 0.15724778 -0.24689583 -0.34790334 0.35674906 0.09659934
0.04068449 0.012613744 0.007828325 0.40434933 -0.34380177 0.2035181 0.334491 0.065556884
-0.43929586 -0.29213905 0.38438988 -0.37029058 0.3812881 0.023656934 -0.27060464 0.3871109
0.33677524 -0.10725835 0.11764872 -0.38788003 -0.0017180443 0.11199784 0.3503453 0.17237914
-0.12452081 0.27582377 0.4107145 -0.071986526 0.25820255 -0.059388787 -0.085581124 -0.44493407
0.086572886 0.05984038 -0.22690687 -0.19338217 -0.016121238 0.12794185 -0.012424111 0.2519027
-0.42756844 0.2625777 -0.06835753 -0.40565512 -0.04693973 0.091309726 0.11245948 0.39779204
0.24938202 0.042362154 0.23527485 0.043627888 -0.44077408 0.30811918 0.39880455 0.38886827
0.41576153 0.33821636 -0.27310997 0.39365554 -0.28370565 0.108365834 -0.1504834 -0.060067832
0.2627849 -0.30569977 -0.043879837 -0.10563636 -0.013161123 -0.21250841 0.04087907 -0.0072090626
-0.044486374 -0.25070554 0.2767048 -0.44094992 -0.412999 0.32463396 -0.37993532 0.12695742
0.32216263 0.43737435 0.2874151 -0.3259542 -0.19806768 -0.07997006 0.23411143 -0.21355583
-0.2550071 -0.44467962 0.38961858 -0.2700875 -0.39640528 -0.042912126 -0.0943957 -0.097778976
-0.29960424 0.26570863 -0.2792099 0.15781325 0.31076866 -0.10620046 -0.1812526 0.016808808
-0.06355634 -0.12977174 -0.09959334 0.075262725 -0.37866554 -0.26890266 -0.34118378 0.08653164
0.43183804 0.4287861 -0.30078068 -0.44376093 0.18303478 0.279422 -0.17908877 0.14743656
0.28726977 -0.38045126 -0.0378775 -0.13246453 -0.11978352 -0.19700763 -0.16062483 0.01859662
0.34392452 0.31975996 -0.3365881 0.10788083 -0.2522088 -0.17654088 0.35863477 0.21974134
-0.28694987 0.22322702 -0.22406384 0.040648907 -0.31471568 0.44105917 -0.37255475 0.4225095
-0.16518146 -0.41248512 0.05474013 0.10589695 0.42150456 -0.3860666 -0.4303845 -0.19001544
0.0077604055 -0.0072602034 0.03478843 -0.13984787 0.120434105 -0.33209947 0.35588127 -0.00799039
-0.0050804615 -0.2597645 0.07446706 -0.4297101 -0.32147187 -0.21136454 0.10049552 -0.2086879
0.31033945 -0.15333351 0.35366762 -0.0050107837 0.093322515 0.14250988 0.39801556 0.04599136
-0.13744861 0.2686367 0.3525108 0.3254466 0.17253429 -0.35886556 -0.3064188 -0.44072253
-0.4294424 -0.2424971 -0.263027 0.3263176 -0.024003536 0.35213542 -0.38009468 -0.24137926
0.02520287 -0.17398989 -0.07101646 0.081746876 -0.38232696 0.34052992 0.33798397 -0.37677652
0.1076048 -0.35934362 0.3788802 -0.04147643 0.15532047 -0.09287688 0.32888526 0.15767998
0.23672497 -0.022323817 -0.2645321 -0.13874692 -0.3174649 -0.14244181 -0.43362045 -0.093488365
0.005798787 -0.1644103 -0.35921544 0.22261399 0.04391077 0.007376462 -0.008688837 0.4452259
-0.014501452 0.30538255 0.42197198 -0.13000658 0.25169963 0.13330472 -0.0007121861 -0.10994813
00000000: b0a4 b03c 4a41 983e 7327 5cbe 7ea3 33be
00000010: 6007 4dbe 7870 5b3e 70e2 803d 1836 9e3e
00000020: 1872 84be ba0d 843e c6c5 8cbe f084 d63d
00000030: 343a acbd b0b6 003e 1a14 e13e 56a8 02be
00000040: 7cc5 793e 087d 10bd 096d cebe 9005 213e
00000050: 43d2 7cbe 6320 b2be d0a7 b63e e0d5 c53d
00000060: c8a4 263d e0a9 4e3c 6042 003c e006 cf3e
00000070: c906 b0be 0c67 503e 6842 ab3e b042 863d
00000080: 63eb e0be 4093 95be c0ce c43e ba96 bdbe
00000090: 3238 c33e 30cc c13c b18c 8abe 6633 c63e
000000a0: ce6d ac3e 44aa dbbd d0f1 f03d 3698 c6be
000000b0: 0030 e1ba 205f e53d 7660 b33e 2884 303e
000000c0: c404 ffbd c638 8d3e 2c49 d23e ac6d 93bd
000000d0: 2033 843e a841 73bd 2845 afbd 66ce e3be
000000e0: 204d b13d 301b 753d 465a 68be fa05 46be
000000f0: b010 84bc 3003 033e 808e 4bbc 64f9 803e
00000100: 40ea dabe 9670 863e 08ff 8bbd 07b2 cfbe
00000110: e043 40bd 9800 bb3d 2851 e63d 66ab cb3e
00000120: 005e 7f3e f083 2d3d e4eb 703e 28b3 323d
00000130: 24ad e1be ccc1 9d3e 1c30 cc3e be19 c73e
00000140: b2de d43e b22a ad3e 12d5 8bbe 388d c93e
00000150: de41 91be e8ee dd3d 5218 1abe b009 76bd
00000160: be8b 863e ae84 9cbe 58bb 33bd e057 d8bd
00000170: c0a1 57bc ce9b 59be d070 273d 003a ecbb
00000180: 5837 36bd 7a5c 80be 40ac 8d3e 30c4 e1be
00000190: 9b74 d3be 6c36 a63e e286 c2be 2001 023e
000001a0: 80f2 a43e 88ef df3e 1228 933e 78e3 a6be
000001b0: 41d2 4abe 58c7 a3bd e8ba 6f3e 61ae 5abe
000001c0: 4a90 82be 0cad e3be 167c c73e e948 8abe
000001d0: a2f5 cabe a0c4 2fbd 8852 c1bd 5840 c8bd
000001e0: ba65 99be f60a 883e 9af4 8ebe cc99 213e
000001f0: 121d 9f3e a07f d9bd 489a 39be a0b2 893c
00000200: d429 82bd e2e2 04be 98f7 cbbd 5823 9a3d
00000210: 73e0 c1be 9cad 89be a4af aebe 8037 b13d
00000220: e019 dd3e da89 db3e edff 99be a234 e3be
00000230: 786d 3b3e 6610 8f3e 0c63 37be 9cf9 163e
00000240: 0615 933e 82ca c2be 7025 1bbd c8a4 07be
00000250: 1051 f5bd 5ebc 49be d67a 24be f057 983c
00000260: e016 b03e 94b7 a33e 4755 acbe a0f0 dc3d
00000270: 8321 81be 22c7 34be fa9e b73e e003 613e
00000280: 18eb 92be a095 643e fe70 65be 787f 263d
00000290: 6a22 a1be 82d2 e13e 7fbf bebe 2a53 d83e
000002a0: 5425 29be 4031 d3be 3037 603d 80e0 d83d
000002b0: 72cf d73e 85aa c5be 5b5b dcbe 6893 42be
000002c0: 004b fe3b 00e7 edbb 507e 0e3d 4834 0fbe
000002d0: 28a6 f63d f108 aabe 1236 b63e 20ea 02bc
000002e0: 007a a6bb daff 84be 3082 983d f602 dcbe
000002f0: f697 a4be f26f 58be 98d0 cd3d 48b2 55be
00000300: d0e4 9e3e 7603 1dbe ec13 b53e 8031 a4bb
00000310: e01f bf3d 1cee 113e b2c8 cb3e 7061 3c3d
00000320: 54bf 0cbe c08a 893e 4c7c b43e f0a0 a63e
00000330: d4ac 303e 3abd b7be ede2 9cbe 62a6 e1be
00000340: e0df dbbe 2951 78be 7aab 86be 1a13 a73e
00000350: 10a3 c4bc 184b b43e c59b c2be 202c 77be
00000360: 4076 ce3c 682a 32be 1471 91bd e86a a73d
00000370: 5cc0 c3be f059 ae3e 3c0c ad3e dae8 c0be
00000380: e85f dc3d e3fb b7be 96fc c13e 30e3 29bd
00000390: 540c 1f3e 3c36 bebd a663 a83e dc76 213e
000003a0: 0868 723e 70e0 b6bc c070 87be ac13 0ebe
000003b0: c28a a2be 44dc 11be 8003 debe d476 bfbd
000003c0: c003 be3b 2c5b 28be 16eb b7be ecf4 633e
000003d0: c8db 333d 40b6 f13b a05b 0ebc a6f4 e33e
000003e0: 8097 6dbc 1a5b 9c3e b60c d83e 7220 05be
000003f0: c6de 803e 0881 083e 00b2 3aba 7c2c e1bd

regression1.0.bias f4 [55]
0.36655754 -0.32299685 0.23736668 0.0927186 0.14118093 0.17257768 0.02229771 -0.04016763
-0.27416694 -0.32212132 0.39463067 0.14323252 -0.13557315 -0.43292868 -0.18736058 0.16038084
0.3473907 -0.22511004 -0.19463986 0.16388452 -0.29831553 -0.27709937 0.19316757 -0.1571131
0.06648284 -0.28404593 -0.43648732 -0.43051472 -0.17910156 -0.37713286 0.4402976 0.09328091
-0.39424527 0.22827882 0.39787388 0.27295583 0.2600351 0.3211727 0.18129951 0.020749956
0.11087549 0.08081734 -0.38435197 -0.107803285 -0.019968867 0.30815077 0.079933286 0.16715616
0.3381046 -0.025073439 -0.43686983 0.28190875 -0.3920467 0.39399225 -0.32204926
00000000: 6ead bb3e d85f a5be 4010 733e 40e3 bd3d
00000010: bc91 103e 34b8 303e b0a9 b63c d086 24bd
00000020: 9c5f 8cbe 16ed a4be 080d ca3e 8cab 123e
00000030: b0d3 0abe d4a8 ddbe 74db 3fbe e03a 243e
00000040: 32dd b13e 3f83 66be ac4f 47be 58d1 273e
00000050: d0bc 98be f8df 8dbe b8cd 453e 42e2 20be
00000060: 2828 883d 786e 91be 447b dfbe 6d6c dcbe
00000070: 6666 37be 8f17 c1be b06e e13e 100a bf3d
00000080: 84da c9be ecc1 693e 20b6 cb3e dec0 8b3e
00000090: 5223 853e c070 a43e 94a6 393e d0fb a93c
000000a0: b012 e33d 9083 a53d c8c9 c4be f8c7 dcbd
000000b0: c095 a3bc f0c5 9d3e 10b4 a33d fc2a 2b3e
000000c0: 0c1c ad3e d066 cdbc 67ad dfbe 5856 903e
000000d0: 58ba c8be 5ab9 c93e a4e3 a4be

regression1.2.weight f4 [1, 55]
-0.13298304 0.042834625 0.07821746 -0.06741954 -0.089296475 0.09898193 0.10573408 -0.13019902
0.10517231 -0.03849794 -0.057772808 0.08872308 -0.13321486 0.03576921 0.011507317 -0.030694768
-0.08707714 -0.095089816 -0.09461315 -0.056090742 0.09955031 -0.084238686 -0.021725468 0.10199474
0.04316169 0.004234582 -0.024110444 -0.073866054 -0.038296662 0.037819594 0.031758994 -0.024636827
0.08829461 0.109622136 -0.03545668 -0.0952493 -0.019332476 -0.08218646 -0.10340212 -0.102938704
0.09062289 0.0887603 0.13299917 0.09461899 0.03196518 0.096717626 -0.12966333 0.104471326
-0.09780261 -0.10086532 0.048286065 -0.0380262 -0.016950302 0.13170846 -0.028110363
00000000: b52c 08be 5c73 2f3d 7a30 a03d 4113 8abd
00000010: 12e1 b6bd 0ab7 ca3d 1c8b d83d e452 05be
00000020: 9464 d73d 04b0 1dbd 2ea3 6cbd 72b4 b53d
00000030: 7a69 08be bc82 123d 3089 3c3c 9873 fbbc
00000040: 8055 b2bd 73be c2bd 8ac4 c1bd 68bf 65bd
00000050: 08e1 cb3d 5585 acbd 9cf9 b1bc 9ee2 d03d
00000060: 50ca 303d 40c2 8a3b 4483 c5bc 1647 97bd
00000070: f6dc 1cbd b8e8 1a3d b815 023d 2cd3 c9bc
00000080: ced3 b43d 9281 e03d 063b 11bd 1112 c3bd
00000090: 245f 9ebc 6051 a8bd 7ec4 d3bd 87d1 d2bd
000000a0: 7e98 b93d f6c7 b53d ef30 083e 9ac7 c13d
000000b0: eced 023d e413 c63d 77c6 04be 10f5 d53d
000000c0: bc4c c8bd 7a92 cebd 9cc7 453d 5cc1 1bbd
000000d0: 5cdb 8abc 95de 063e b447 e6bc

regression4.0.weight f4 [6, 5]
0.16348827 0.40067226 -0.30643827 0.3075623 0.3183068 0.12287474 0.102603674 0.424137
0.18857795 -0.1684418 0.32566625 -0.11551556 0.39608115 -0.3527351 -0.07987082 0.09244096
-0.35511363 -0.4162351 0.42315364 0.0025904775 -0.15310779 0.2451573 0.22249424 -0.16230673
-0.43419677 -0.23335277 -0.13883546 0.017713338 -0.13039938 0.23970354
00000000: 7869 273e ea24 cd3e 7ae5 9cbe ce78 9d3e
00000010: 1cf9 a23e c0a5 fb3d e021 d23d 7c28 d93e
00000020: 941a 413e 027c 2cbe babd a63e 6c93 ecbd
00000030: 26cb ca3e b299 b4be 5093 a3bd b051 bd3d
00000040: 74d1 b5be c41c d5be 98a7 d83e 00c5 293b
00000050: 4ac8 1cbe 840a 7b3e 88d5 633e bc33 26be
00000060: 0a4f debe 07f4 6ebe e22a 0ebe 901b 913c
00000070: 6a87 05be d874 753e

regression4.0.bias f4 [6]
0.0151592195 0.2071715 -0.37016463 0.39650786 0.008028775 -0.10697487
00000000: 605e 783c c424 543e 3886 bdbe 1403 cb3e
00000010: 208b 033c a415 dbbd

regression4.2.weight f4 [7, 6]
-0.3681389 0.16663349 -0.20324834 0.019108415 -0.2780962 -0.18651493 -0.08555433 -0.20001252
0.34364825 0.38530993 -0.013570219 -0.37083492 -0.16165718 0.40355057 0.08351067 -0.2828182
0.3164537 0.19579422 -0.34379238 0.32148832 0.15719771 -0.12653282 -0.1614364 -0.29998618
-0.24954005 0.40444863 -0.22212447 0.30066288 -0.1100716 -0.2662462 0.39047348 0.07104075
-0.3944112 0.27888668 -0.35129002 -0.083640695 0.3722945 0.21252531 0.40608037 0.40324366
0.21735394 0.34150594
00000000: b47c bcbe f8a1 2a3e 5520 50be 4089 9c3c
00000010: a062 8ebe c5fd 3ebe 1c37 afbd 15d0 4cbe
00000020: aaf2 af3e 5847 c53e a055 5ebc 13de bdbe
00000030: 7689 25be 2e9e ce3e a407 ab3d 8ccd 90be
00000040: 3806 a23e 487e 483e 8e05 b0be 1e9a a43e
00000050: 70f8 203e d291 01be 954f 25be ca97 99be
00000060: 6d87 7fbe e413 cf3e 9974 63be 7cf0 993e
00000070: 386d e1bd 6c51 88be 24ec c73e d07d 913d
00000080: 44f0 c9be 3cca 8e3e 49dc b3be d04b abbd
00000090: 629d be3e 3ca0 593e c4e9 cf3e f475 ce3e
000000a0: 0892 5e3e ded9 ae3e

regression4.2.bias f4 [7]
-0.35705626 -0.025920719 0.046176463 -0.296266 0.07595152 0.1612615 -0.029733688
00000000: 14d0 b6be b057 d4bc 8823 3d3d 2db0 97be
00000010: 788c 9b3d bc21 253e 1094 f3bc

regression4.4.weight f4 [8, 7]
-0.08935651 0.34631106 -0.36955857 0.057590485 -0.34221545 0.2933273 0.14881626 0.21366015
-0.14323667 0.33246836 0.009441048 -0.31024984 -0.20273355 -0.28370827 0.1570659 0.21397302
-0.15902193 -0.3006016 -0.19709973 -0.078526616 0.02465719 0.22588369 -0.13677172 0.31583622
-0.27352515 -0.2772746 -0.13357544 0.32905242 -0.18583879 -0.2388784 -0.28416154 -0.14885394
-0.1755656 0.035111666 -0.37036282 -0.09413245 -0.28255424 0.063497305 -0.044917434 -0.35939342
-0.34450743 -0.29339483 0.07621181 0.15054676 0.3672484 0.16940412 -0.3493056 0.16471896
-0.36325294 -0.32592303 -0.2329048 0.26126507 0.1172781 0.37286296 0.31822178 -0.2991938
00000000: 8c00 b7bd af4f b13e c836 bdbe 00e4 6b3d
00000010: dd36 afbe ff2e 963e 4a63 183e bac9 5a3e
00000020: a2ac 12be 4b39 aa3e a0ae 1a3c 11d9 9ebe
00000030: 6299 4fbe 3642 91be e2d5 203e be1b 5b3e
00000040: a5d6 22be 74e8 99be 83d4 49be 90d2 a0bd
00000050: e0fd c93c 0e4e 673e e30d 0cbe 49b5 a13e
00000060: 7d0b 8cbe f0f6 8dbe 00c8 08be 8f79 a83e
00000070: 864c 3ebe 8a9c 74be 9f7d 91be 2b6d 18be
00000080: 78c7 33be 40d1 0f3d 32a0 bdbe 84c8 c0bd
00000090: f3aa 90be e00a 823d 58fb 37bd 6a02 b8be
000000a0: 4763 b0be d937 96be f014 9c3d ee28 1a3e
000000b0: fb07 bc3e 4678 2d3e 2fd8 b2be 16ac 283e
000000c0: 4afc b9be 62df a6be 997e 6ebe 89c4 853e
000000d0: 802f f03d e5e7 be3e f7ed a23e ee2f 99be

regression4.4.bias f4 [8]
-0.2811035 -0.108178765 0.34772566 -0.21900931 -0.3002203 0.28620288 -0.3249241 -0.2716228
00000000: ccec 8fbe d48c ddbd 1909 b23e fa43 60be
00000010: 7ab6 99be 2f89 923e 745c a6be 2512 8bbe

regression4.6.weight f4 [7, 8]
-0.022851378 0.10198033 -0.17799857 0.12880394 0.18597308 0.092897415 -0.17353012 -0.26504546
-0.07795438 -0.27996612 -0.33824936 -0.2768117 0.2392346 0.16041335 -0.21364468 0.21055624
-0.2140995 0.075873345 0.021190643 -0.3198717 -0.0030145943 -0.34512722 0.1803883 0.036196947
-0.24628115 -0.07889509 -0.21665616 -0.010457814 -0.3047398 0.32215658 0.33122495 -0.12572856
-0.2869575 0.2546257 0.23359409 -0.064468354 -0.24440229 -0.080173135 -0.094332874 0.05516115
-0.1219369 -0.118154645 0.2875338 0.2537909 -0.057602316 -0.33280027 -0.0007843077 0.1927388
0.13432786 0.15293887 -0.28330263 0.021819562 -0.04761061 0.11659682 0.21590564 -0.11440618
00000000: d032 bbbc 10db d03d 4245 36be 2ee5 033e
00000010: ba6f 3e3e 0041 be3d e1b1 31be 0ab4 87be
00000020: 8ca6 9fbd b857 8fbe 052f adbe 43ba 8dbe
00000030: eaf9 743e 6643 243e acc5 5abe 0e9c 573e
00000040: e63c 5bbe 7c63 9b3d 0098 ad3c 39c6 a3be
00000050: 8090 45bb 84b4 b0be b6b7 383e 4043 143d
00000060: 2031 7cbe c093 a1bd 1ddb 5dbe 4057 2bbc
00000070: db06 9cbe b5f1 a43e 5196 a93e fdbe 00be
00000080: 18ec 92be 4d5e 823e 4a33 6f3e fc07 84bd
00000090: 9844 7abe d031 a4bd 9831 c1bd a8f0 613d
000000a0: 0eba f9bd 10fb f1bd a137 933e e1f0 813e
000000b0: 68f0 6bbd cc64 aabe 009a 4dba 525d 453e
000000c0: 3e8d 093e 029c 1c3e 0b0d 91be f0be b23c
000000d0: 5803 43bd 50ca ee3d 5e16 5d3e ca4d eabd

regression4.6.bias f4 [7]
-0.21226253 0.2627959 -0.24828245 -0.14504576 -0.16176891 0.29333594 -0.27225775
00000000: 595b 59be 2f8d 863e c13d 7ebe e086 14be
00000010: c0a6 25be 2130 963e 5e65 8bbe

regression4.8.weight f4 [6, 7]
0.3760096 0.121592104 0.17587116 -0.2587429 -0.14408274 -0.34080213 -0.18881124 -0.31383154
-0.19976087 -0.294048 0.11309755 0.043631226 0.37370822 0.005762011 -0.27669787 -0.23892607
-0.37105536 0.17664018 -0.083679914 -0.31020206 0.290059 0.12666717 -0.15739611 -0.35722798
-0.24585167 -0.01630643 0.09300277 0.09650537 -0.35557196 0.3442498 -0.3161164 -0.13912365
0.037754178 0.11968255 0.27873537 0.17470846 0.26480386 0.12660483 0.33947822 -0.048736036
0.23535284 0.0452435
00000000: 5584 c03e 4805 f93d 9217 343e f379 84be
00000010: 6d8a 13be 9e7d aebe bc57 41be 87ae a0be
00000020: 1d8e 4cbe 768d 96be b09f e73d a8b6 323d
00000030: af56 bf3e 40cf bc3b 58ab 8dbe 09a9 74be
00000040: f8fa bdbe 2ae1 343e 6060 abbd ced2 9ebe
00000050: 9d82 943e 0ab5 013e 722c 21be 96e6 b6be
00000060: 8ac0 7bbe 1095 85bc 3c78 be3d 9ca4 c53d
00000070: 870d b6be 8341 b03e 02da a1be 6e76 0ebe
00000080: 20a4 1a3d 201c f53d 67b6 8e3e c6e6 323e
00000090: 5f94 873e b2a4 013e 17d0 ad3e 709f 47bd
000000a0: 5600 713e 4051 393d

regression4.8.bias f4 [6]
-0.20950933 0.3761138 -0.19907002 0.23980406 0.30273244 -0.056263387
00000000: 9d89 56be fd91 c03e 03d9 4bbe 328f 753e
00000010: bfff 9a3e 7074 66bd

regression4.10.weight f4 [1, 6]
-0.23546721 -0.10177198 -0.123653054 0.23467052 -0.29369903 -0.07790345
00000000: 511e 71be d46d d0bd d03d fdbd 784d 703e
00000010: b85f 96be d88b 9fbd
