nn_metamodel/ann_metamodel/runs/Jan.18 20:12:44/model_weights.pth (torch_old, 10017 bytes, 29 tensors)

fc.weight f4 [1, 3]
0	0x3e51f878	0.2050494
1	0x3e350618	0.17678106
2	0xbf064a71	-0.5245734

regression3.0.weight f4 [12, 3]
0	0xc051e4eb	-3.279597
1	0xbeff56d1	-0.49870923
2	0xbe242d44	-0.16032892
3	0xc1177d48	-9.468086
4	0xbcc36d9b	-0.023855975
5	0x3c951f4d	0.018203402
6	0xbf051685	-0.5198749
7	0xbebe0565	-0.3711349
8	0xbdd5f6c4	-0.104474574
9	0xc03cc410	-2.9494667
10	0xbf2da73e	-0.67833316
11	0xbe89314c	-0.26795423
12	0xbfd929e3	-1.6965908
13	0xbf7fe958	-0.9996543
14	0xbeef44b2	-0.46732098
15	0xc17806d6	-15.501669
16	0xbaa650a0	-0.0012688823
17	0x3d5cc666	0.053900145
18	0xc0290948	-2.6411915
19	0xbf0e36f8	-0.55552626
20	0xbe25c29c	-0.16187519
21	0xbe0cc79c	-0.1374802
22	0x3deabcd8	0.114618
23	0xbebe9613	-0.37223873
24	0xbefb42d4	-0.49074423
25	0x3e37bbe0	0.17942762
26	0x3d6d7d20	0.057980657
27	0xc09e8d91	-4.954781
28	0xbf8c9d68	-1.0985537
29	0xbf3e5821	-0.74353224
30	0xc021caab	-2.5279949
31	0xbf86b9c8	-1.0525446
32	0xbf2c4850	-0.6729784
33	0xc04b8085	-3.1797192
34	0xbf830266	-1.0235107
35	0xbec94795	-0.39312425

regression3.0.bias f4 [12]
0	0x4015ad90	2.3387184
1	0x415c9d77	13.788444
2	0xbe47f980	-0.1952877
3	0x402085fc	2.5081778
4	0x40172987	2.3619096
5	0x415a75bc	13.653744
6	0x40016348	2.0216846
7	0xbdd63198	-0.10458678
8	0xbeecbbfd	-0.46237174
9	0x408e2f28	4.4432564
10	0x40430731	3.047314
11	0x4046b6d0	3.104908

regression3.2.weight f4 [21, 12]
0	0xbe92a1cb	-0.28639063
1	0xbe5e889a	-0.21731797
2	0x3e309fba	0.17248431
3	0x3ddd1eb4	0.10796872
4	0x3e435260	0.19074392
5	0x3e8288f0	0.254951
6	0xbe43d288	-0.1912328
7	0xbe6b391e	-0.22971007
8	0xbe86cc95	-0.2632796
9	0xbe57b602	-0.21065524
10	0xbe4ae4bb	-0.19813816
11	0x3e68893c	0.22708601
12	0xbfa873b5	-1.3160311
13	0xbe7bedf5	-0.24602492
14	0xbe6440fd	-0.22290416
15	0xbf5b8088	-0.85743
16	0xbe9e4788	-0.3091395
17	0xc0910841	-4.5322576
18	0xbf2b0fe5	-0.6682113
19	0x3e84705c	0.25866973
20	0xbe13d8d4	-0.14438182
21	0x3ee472ec	0.44618928
22	0x3e09a4f7	0.13441835
23	0x3d73be80	0.059507847
24	0xbc602585	-0.01368082
25	0x40546d34	3.3191652
26	0xbd995d3e	-0.07488488
27	0x3e78412a	0.24243608
28	0xbf05565a	-0.5208489
29	0xc0001f6c	-2.0019178
30	0x3d1b8172	0.037965246
31	0xba69b800	-0.0008915663
32	0xbe2fc43e	-0.17164704
33	0x3e878c43	0.264742
34	0x3e4d5ae5	0.20054205
35	0x3e1a52ae	0.15070602
36	0xbd98a79c	-0.07453844
37	0xbe628446	-0.22120771
38	0x3e842c7e	0.25815195
39	0xbe14fa22	-0.14548543
40	0x3e7882cc	0.24268645
41	0xbb235580	-0.0024922788
42	0xbdc152d8	-0.09439629
43	0xbe5acfc2	-0.21368316
44	0x3dbef3e0	0.09323859
45	0xbe4ec3c8	-0.20191872
46	0xbe90ae3a	-0.28257924
47	0xbde606ee	-0.112317905
48	0xbef84424	-0.48489487
49	0xbf29f4f0	-0.6638937
50	0x3e12d484	0.14338881
51	0xbf01bf4e	-0.5068253
52	0xbee3ecd8	-0.44516635
53	0xbf54347f	-0.828926
54	0xbf11d266	-0.5696167
55	0xbe385b82	-0.18003657
56	0xbe8a6c63	-0.27035818
57	0xbf05fd2b	-0.5233943
58	0xbf0fe267	-0.5620484
59	0xbf1ad0ee	-0.6047505
60	0x3d8acb33	0.067770384
61	0xbf9b9d6e	-1.2157419
62	0xbe1cbd80	-0.15306664
63	0xbeec9fe6	-0.46215743
64	0xbe29e440	-0.16590977
65	0xc0828bbe	-4.0795584
66	0xbed91fc3	-0.42407045
67	0xbe469e3c	-0.19396299
68	0xbe022972	-0.12711123
69	0xc0e82380	-7.2543335
70	0xbe97e0fc	-0.29663837
71	0xbf48b138	-0.78395414
72	0xc02f967c	-2.7435598
73	0xbd07f340	-0.033190966
74	0xbd5107ac	-0.051032707
75	0xc020a835	-2.5102665
76	0xbdadbf08	-0.08483702
77	0xbdf7fac0	-0.12108374
78	0xc01db822	-2.4643636
79	0xbe4ed6b0	-0.20199084
80	0x3e6f4c6c	0.23368996
81	0xc0226522	-2.5374227
82	0xc02b6a18	-2.6783504
83	0xc037693e	-2.8657985
84	0xbf5e2d14	-0.86787534
85	0xbf4ac031	-0.7919951
86	0x3d0ff098	0.035141557
87	0xbf56f7a8	-0.83971643
88	0xbeafbdc9	-0.34324482
89	0xbebad992	-0.36494118
90	0xbeec3ce2	-0.461402
91	0xbe5f9eda	-0.21837941
92	0x3e86be86	0.26317233
93	0xbf50a980	-0.81508636
94	0xbecab0f5	-0.39588133
95	0xbebf5924	-0.37372696
96	0xbe837255	-0.25673166
97	0xbe9912ba	-0.298971
98	0xbd433be8	-0.047664553
99	0xbe88e9f2	-0.26740986
100	0xbe57634f	-0.21033977
101	0xbe83e5ac	-0.25761163
102	0xbe960900	-0.2930374
103	0xbe92bf8e	-0.2866177
104	0xbe16d22a	-0.14728609
105	0xbf094512	-0.5362102
106	0xbed5db15	-0.4176871
107	0xbf7a1e40	-0.9770241
108	0x3e31bea2	0.17357877
109	0xbf535920	-0.8255787
110	0xbe90fb2e	-0.28316635
111	0xbde1545c	-0.110024184
112	0xbeb5c19b	-0.35499272
113	0xc022b620	-2.542366
114	0xbd40a849	-0.04703549
115	0x3e4c33d0	0.1994164
116	0xbd05f168	-0.032700926
117	0xbed26b57	-0.4109752
118	0x3cc73af0	0.024320096
119	0x3d1231ff	0.03569221
120	0xbe82bcb4	-0.25534594
121	0xbf264f53	-0.6496479
122	0x3c48fc40	0.012267172
123	0xbe877242	-0.2645436
124	0xbe2961d7	-0.16541229
125	0xc0153ec0	-2.331955
126	0xbed2de5a	-0.41185266
127	0x3e56aa1c	0.20963329
128	0xbe19d0ab	-0.15021007
129	0xbebd1ac8	-0.36934495
130	0xbecdae8f	-0.4017224
131	0xbe507533	-0.20357208
132	0xc03f28c8	-2.986864
133	0xc041e742	-3.0297399
134	0x3e8d351e	0.27579588
135	0xc03426a4	-2.8148584
136	0xc0111ed7	-2.2675073
137	0xc030e030	-2.7636833
138	0xc02e67e5	-2.7250912
139	0xbc8fb8c0	-0.01754415
140	0xbe757c75	-0.23973258
141	0xc03cfdb0	-2.9529839
142	0xc0126096	-2.2871451
143	0xc018a971	-2.385342
144	0xbfdb6288	-1.7139444
145	0xbf9673cf	-1.1754092
146	0xbce091a0	-0.02741319
147	0xbfa0f28e	-1.2574022
148	0xbfc34dae	-1.5258081
149	0xbfc0e14e	-1.5068758
150	0xbfce1007	-1.6098641
151	0xbe2d2324	-0.16907936
152	0x3e8fe2d8	0.28102756
153	0xbfa7bbc9	-1.3104182
154	0xbfd13552	-1.6344397
155	0xbfa851f5	-1.3150011
156	0x3df5befe	0.119993195
157	0xbf66619b	-0.89992684
158	0xbe3705ca	-0.17873302
159	0xbde8167a	-0.11332412
160	0xbefd487a	-0.49469358
161	0xbfea922b	-1.8325857
162	0xbc34284a	-0.010995934
163	0xbdb8007a	-0.08984466
164	0xbe0bedd7	-0.13664947
165	0xbd91cfec	-0.07119736
166	0x3d92e3ac	0.07172331
167	0xbd98481f	-0.07435631
168	0x3d8c8104	0.06860545
169	0xc01554d9	-2.3333037
170	0xbda45658	-0.08024281
171	0xc01b6485	-2.4280102
172	0xbd8fecd6	-0.07027595
173	0x3b4ca180	0.0031224191
174	0xbdb10a80	-0.08644581
175	0xbe395f7e	-0.18102834
176	0x3cf9c030	0.03048715
177	0xbe8b5330	-0.27211905
178	0xc0112694	-2.2679796
179	0xc02bc8fa	-2.6841416
180	0x3e71901c	0.2359013
181	0xbf02b32c	-0.51054645
182	0x3e1b3122	0.15155461
183	0xbe7864f1	-0.24257256
184	0xbdf6d2fd	-0.120519616
185	0xbf8e9005	-1.1137701
186	0xbe8f920b	-0.2804111
187	0xbc137e00	-0.009002209
188	0xbe6eb8fc	-0.23312753
189	0xbf424a51	-0.7589465
190	0xbe8356a1	-0.2565203
191	0xbde75d46	-0.11297087
192	0xbf3e1c10	-0.7426157
193	0xbf23b554	-0.6394856
194	0x3c2b1080	0.010440946
195	0xbf605e9f	-0.8764438
196	0xbf3aa5b1	-0.72909075
197	0xbf3f122e	-0.74637115
198	0xbf04a109	-0.5180822
199	0x3e3846ae	0.17995712
200	0xbe82282a	-0.25421268
201	0xbeb9afc3	-0.36266908
202	0xbecca20f	-0.3996739
203	0xbf1034f0	-0.56330776
204	0x3e5d35dc	0.21602577
205	0xbe909814	-0.28241026
206	0xbe81989e	-0.2531175
207	0xbe843141	-0.25818828
208	0x3d244450	0.04010421
209	0x3ca214c0	0.019785285
210	0xbdd71870	-0.10502708
211	0xbda52704	-0.08064082
212	0x3d07e570	0.033177793
213	0xbbd35b80	-0.0064501166
214	0x3da27f4c	0.07934436
215	0xbe674f76	-0.22588906
216	0xbec80b44	-0.39071095
217	0xbff1e839	-1.8898994
218	0x3dce1af0	0.10063732
219	0xbe238bbf	-0.15971278
220	0xbebacbbc	-0.36483562
221	0xc062ca6f	-3.5436056
222	0xbf09ae3e	-0.537815
223	0x3e81c2b6	0.25343865
224	0xbe56fd04	-0.20994955
225	0xbf7e2ffa	-0.99291956
226	0xbef12944	-0.47101796
227	0xbec8c864	-0.39215386
228	0xbf11fc60	-0.5702572
229	0xbfef072f	-1.8674067
230	0x3e893d24	0.2680446
231	0xbe7662e8	-0.24061167
232	0xbf4c0e8d	-0.797097
233	0xc28046e9	-64.1385
234	0xbee95dc2	-0.45579344
235	0xbe4632e5	-0.19355352
236	0x3d64d700	0.055869102
237	0xbfb151a4	-1.385304
238	0x3d07f23e	0.033190005
239	0xbe1b7974	-0.1518305
240	0xbecde9a8	-0.40217328
241	0xbec9a72f	-0.39385363
242	0xbb867b80	-0.004104078
243	0xbf1e7b05	-0.6190646
244	0xbef4a61f	-0.4778299
245	0xbf536187	-0.8257069
246	0xbf52859e	-0.82235134
247	0xbdd96f38	-0.106169164
248	0x3c961f40	0.018325448
249	0xbea2ae0e	-0.31773418
250	0xbea6827c	-0.32521427
251	0xbee6420e	-0.4497227

regression3.2.bias f4 [21]
0	0xbdd75370	-0.10513961
1	0xbf6718d9	-0.9027229
2	0x412f9d37	10.975883
3	0xbe812420	-0.25222874
4	0xbefb8b78	-0.49129844
5	0xbd14b838	-0.036308497
6	0xc0295d74	-2.646329
7	0xbf3848df	-0.7198619
8	0xbbb2afbf	-0.0054530795
9	0xbbe5f1fc	-0.007017372
10	0xbc868c6d	-0.016424382
11	0xbff89ebd	-1.9423443
12	0xbfb93b2a	-1.447118
13	0x3ea74761	0.32671645
14	0xc02571f3	-2.58508
15	0xbbcdebe8	-0.0062842257
16	0xbeec86f6	-0.46196717
17	0xbe4d3616	-0.20040163
18	0x409a4690	4.8211136
19	0xc127303a	-10.449274
20	0xbec368c4	-0.38165867

regression3.4.weight f4 [9, 21]
0	0xbe3a4d07	-0.18193446
1	0x3ea7469b	0.32671055
2	0x407c01c3	3.9376075
3	0x3d9c84d2	0.07642521
4	0x3f01b9db	0.5067422
5	0x3de3f0e0	0.11129928
6	0xc02aa1d4	-2.6661272
7	0x3ef7e84c	0.48419416
8	0x3d88387f	0.06651401
9	0x3e7cf4ff	0.24702834
10	0x3ec8f423	0.39248762
11	0x40257518	2.5852718
12	0xbfa059dd	-1.2527424
13	0x3f025aba	0.5091969
14	0xc00fae8d	-2.2450287
15	0x3e51b56e	0.20479366
16	0x3ee35413	0.4440008
17	0x3df210ea	0.11819632
18	0x400a2e73	2.159085
19	0x3ed09ced	0.40744725
20	0x3ee9cfc5	0.45666328
21	0xbe401cae	-0.1876094
22	0x3d3aade4	0.04557599
23	0xbedae12b	-0.42749915
24	0xbe1438d7	-0.14474808
25	0xbec70dc4	-0.3887769
26	0xbeea7610	-0.457932
27	0x3ac66e80	0.0015139133
28	0xbf05a4d1	-0.52204615
29	0xbf1f3b45	-0.62199813
30	0xbed0ff91	-0.40819982
31	0xbf4bada6	-0.7956184
32	0xbe240ff6	-0.16021714
33	0x3e524735	0.20534976
34	0xbf2bd816	-0.67126596
35	0xbe45c74e	-0.1931431
36	0xbf1979a6	-0.59951246
37	0xbf1fdf14	-0.62449765
38	0x3e4ce30b	0.20008485
39	0xbf31d15c	-0.6946008
40	0xbf4d952d	-0.8030575
41	0xbee8dbc4	-0.45480168
42	0xbd6fb904	-0.058526054
43	0xbe0e7879	-0.13913144
44	0xc02bb2b1	-2.6827815
45	0xbe2c4b71	-0.16825654
46	0x3f48af2f	0.7839231
47	0xbf2462aa	-0.6421305
48	0xc0207d5d	-2.5076516
49	0x3f4f999d	0.8109377
50	0xbf6c2ebe	-0.9225882
51	0xc00577f4	-2.0854464
52	0xc02f9930	-2.7437248
53	0x4034a358	2.8224697
54	0xbf9d7cb2	-1.2303679
55	0xc034b711	-2.8236735
56	0xc0155d39	-2.3338149
57	0xbeb50c26	-0.3536083
58	0x3f1b2a87	0.60611767
59	0xbd8defc2	-0.06930496
60	0xbf554ee8	-0.83323526
61	0xbf3b5ad1	-0.7318545
62	0x3f151530	0.58235455
63	0x3d55d89c	0.052208528
64	0x3e59650d	0.21229954
65	0xbf370d9f	-0.7150516
66	0xbdb03ab8	-0.0860495
67	0xbf4c7a6e	-0.7987431
68	0xbf3bda33	-0.7337982
69	0xbe122278	-0.14270961
70	0xbf107481	-0.5642777
71	0xbf45dfa6	-0.77294385
72	0xbf0642f7	-0.5244593
73	0xbf5173df	-0.8181743
74	0xbdbb0b32	-0.09132995
75	0xbdf9f47c	-0.12204835
76	0xbf14b75d	-0.5809229
77	0xbdd044f6	-0.10169403
78	0xbefa8880	-0.48932266
79	0xbeec88ae	-0.46198028
80	0x3e16c2d1	0.14722754
81	0xbf0acf9e	-0.5422305
82	0xbf1f8c04	-0.6232302
83	0xbf072361	-0.5278836
84	0x3e025729	0.12728561
85	0x3cdec158	0.027191803
86	0xbee0ebf2	-0.43930012
87	0xbe1bd32e	-0.15217277
88	0xbf3ff019	-0.74975735
89	0xbf119c7f	-0.5687942
90	0x3e182a49	0.1485988
91	0xbf1f525c	-0.62235045
92	0xbf315446	-0.69269216
93	0xbee7ab46	-0.4524786
94	0xbedd33a5	-0.43203464
95	0xbd8b0654	-0.06788316
96	0xbe5a0469	-0.21290745
97	0xbf26a54e	-0.65095985
98	0x3e3a0443	0.18165688
99	0xbf142378	-0.5786662
100	0xbf218f67	-0.6310944
101	0xbdbfb178	-0.09360021
102	0xbf2931eb	-0.66091794
103	0xbf2564c9	-0.6460691
104	0xbedc7783	-0.4305993
105	0x3dd40076	0.103516504
106	0x3e6d7738	0.2319001
107	0xbff68b37	-1.9261235
108	0x3e1baaff	0.15201949
109	0x3f08a1f8	0.53372145
110	0xbf6a7197	-0.91579574
111	0xc01ecbb2	-2.4811826
112	0x3ed77664	0.42082512
113	0xbf45baa4	-0.77237916
114	0xbfd24a68	-1.6428957
115	0xbfdfc58b	-1.748216
116	0x40281dc5	2.626817
117	0xbfc9ba6b	-1.5760015
118	0xbff68887	-1.9260415
119	0xc0241d44	-2.5642862
120	0xbef18dfb	-0.47178635
121	0x3ef24d78	0.4732473
122	0x3e32a7b1	0.17446782
123	0xc00853a4	-2.130105
124	0x3f64ef59	0.89427716
125	0x3f4e43e0	0.8057232
126	0xbe24bee8	-0.1608845
127	0x3ed6f0d6	0.41980618
128	0x3db91b84	0.09038451
129	0x3c5c2200	0.013435841
130	0x3f080997	0.5313963
131	0xbe9c0bc3	-0.30477723
132	0xc02f0fd7	-2.7353418
133	0x3ee1e945	0.44123283
134	0xbddcb490	-0.10776627
135	0xbed97bbe	-0.4247722
136	0xbf446956	-0.7672323
137	0x4029585d	2.6460183
138	0xbf9d8d9a	-1.2308838
139	0xbfcb30cb	-1.5874265
140	0xc0131e5b	-2.2987278
141	0xbea2db95	-0.31808153
142	0x3f290bb3	0.66033477
143	0xbdd963eb	-0.10614761
144	0xbf73102d	-0.9494656
145	0x3e74cf2a	0.23907152
146	0x3f367299	0.7126861
147	0x3dc92542	0.098215595
148	0x3df9706c	0.12179646
149	0xc059338a	-3.3937707
150	0xbde81565	-0.11332206
151	0x3f2c0acc	0.67203975
152	0xbf1bf6a6	-0.6092323
153	0xc01d1bec	-2.4548292
154	0x3f4ac35d	0.7920435
155	0xbf29f29f	-0.66385835
156	0xbf13e87a	-0.57776606
157	0xbe9c7715	-0.30559602
158	0x4031840c	2.7736845
159	0xbfa628c3	-1.298119
160	0xc06785a1	-3.617531
161	0xc022b94d	-2.5425599
162	0xbf36709a	-0.71265566
163	0x3f34824d	0.70511323
164	0x3cfb8e90	0.030707628
165	0xbf27def9	-0.65574604
166	0xbf48b5b5	-0.7840226
167	0x3f39f561	0.72640043
168	0xbe096144	-0.1341601
169	0x3d515974	0.0511107
170	0xbf243ee2	-0.6415845
171	0x3d7b3924	0.06133379
172	0xbec5a790	-0.38604403
173	0xbf29ade3	-0.66280955
174	0x3df3c07e	0.11901949
175	0xbf1e259e	-0.6177615
176	0xbf4c1a75	-0.7972787
177	0xbf061928	-0.52382135
178	0xbf3894ea	-0.72102225
179	0xbe2dd56c	-0.16975945
180	0x3e3240e9	0.17407574
181	0xbf0dac96	-0.5534147
182	0x3ca2a0a8	0.019851997
183	0xbf182a4c	-0.5943954
184	0xbf18c346	-0.59672964
185	0x3e4a099d	0.1973023
186	0xbf44ae08	-0.7682805
187	0xbf005147	-0.5012402
188	0xbedfea6c	-0.43733537

regression3.4.bias f4 [9]
0	0x41d88aee	27.067837
1	0xbf509d9b	-0.81490487
2	0x40d4c51b	6.6490607
3	0xbed37316	-0.4129874
4	0xbf47fe1d	-0.7812212
5	0x410e0d1b	8.8782
6	0x41b56c8b	22.678
7	0x40beb48e	5.9595404
8	0xbed2c50a	-0.41165954

regression3.6.weight f4 [1, 9]
0	0x4083cc4b	4.118688
1	0x3f05465c	0.52060485
2	0xc0176f91	-2.3661845
3	0x3e9f7548	0.31144166
4	0x3f1969bf	0.5992698
5	0xc04dc950	-3.2154121
6	0x3f903bc4	1.1268239
7	0xbda76371	-0.08173264
8	0x3f01fb21	0.5077382

regression2.0.weight f4 [6, 3]
0	0x3f07bd2a	0.53023016
1	0xbdbe5448	-0.09293419
2	0x3eaaab4a	0.33333808
3	0xbd9d0578	-0.07667059
4	0xbde245d8	-0.11048478
5	0xbf130c5d	-0.5744074
6	0x3de4e520	0.111765146
7	0x3d9e3728	0.07725364
8	0xbe95fba4	-0.2929355
9	0xbe7fa5a6	-0.24965534
10	0xbcaa7ee0	-0.020812452
11	0x3e2922e8	0.16517222
12	0xbc836520	-0.016039431
13	0x3ea68144	0.32520497
14	0xbf0d4f1e	-0.5519885
15	0x3ead8fa0	0.3389864
16	0xbdb4bbfc	-0.08824918
17	0xbf06111b	-0.5236985

regression2.0.bias f4 [6]
0	0xbd783690	-0.06059891
1	0x3df16b40	0.117880344
2	0x3e14ab44	0.14518458
3	0x3f0377d6	0.5135473
4	0x3ea4d6bc	0.3219508
5	0x3d6001e0	0.05468929

regression2.2.weight f4 [7, 6]
0	0x3e5bee24	0.21477562
1	0x3d232140	0.03982663
2	0xbece036c	-0.40236986
3	0x3e900306	0.28127307
4	0x3eba65b0	0.36405706
5	0x3eb5c0cc	0.35498655
6	0x3ec252a0	0.37953663
7	0x3e9e1434	0.3087479
8	0xbe7f4c37	-0.24931417
9	0x3eb7fd9a	0.3593567
10	0xbe8499e6	-0.25898665
11	0x3dca98b0	0.09892404
12	0xbe0cab3a	-0.13737193
13	0xbd6099c8	-0.054834157
14	0x3e75a560	0.23988867
15	0xbe8ee18a	-0.27906448
16	0xbd241270	-0.040056646
17	0xbdc57e58	-0.09643239
18	0xbc44d820	-0.012014419
19	0xbe46a609	-0.19399275
20	0x3d18da08	0.037317306
21	0xbbd7a500	-0.006580949
22	0xbd265700	-0.040610313
23	0xbe6a5ac1	-0.22886182
24	0x3e81543c	0.25259578
25	0xbece1876	-0.40253037
26	0xbec10816	-0.37701482
27	0x3e97bb0c	0.29634893
28	0xbeb193f4	-0.34683192
29	0x3ded5ab8	0.11589569
30	0x3e969358	0.2940929
31	0x3ecc6ca2	0.3992663
32	0x3e8655be	0.2623729
33	0xbe985903	-0.2975541
34	0xbe392651	-0.18081023
35	0xbd958240	-0.07300234
36	0x3e5ad7b8	0.21371353
37	0xbe47a0b0	-0.19494891
38	0xbe6e6021	-0.23278858
39	0xbecfd6ba	-0.4059351
40	0x3eb61a94	0.35567153
41	0xbe7c78ed	-0.24655505

regression2.2.bias f4 [7]
0	0xbeb9469d	-0.36186686
1	0xbd207418	-0.039173216
2	0xbdb07a78	-0.08617109
3	0xbdb6cdbc	-0.089259595
4	0xbe8c0832	-0.27350003
5	0x3e78610c	0.2425577
6	0xbe827ff9	-0.2548826

regression2.4.weight f4 [6, 7]
0	0x3e0893de	0.13337657
1	0x3e8679bb	0.26264748
2	0xbdb7d1e0	-0.08975577
3	0xbe1cdce5	-0.1531864
4	0x3c68c060	0.014206022
5	0xbd5c0428	-0.0537149
6	0xbde09e68	-0.109677136
7	0xbdac623c	-0.08417174
8	0x3d824538	0.06360859
9	0xbea3db13	-0.32003078
10	0xbe68b7f4	-0.22726423
11	0xbe93a2fe	-0.2883529
12	0x3d95c688	0.073132575
13	0x3ebadd51	0.36496976
14	0x3eb98b3b	0.36239037
15	0xbe82274c	-0.25420606
16	0xbec00617	-0.37504646
17	0x3e1e67be	0.15469262
18	0x3e71d286	0.23615465
19	0xbe1afd7e	-0.15135762
20	0x3dff31c4	0.12460664
21	0x3e789d3a	0.24278727
22	0xbea4a0e4	-0.32154
23	0xbd031f58	-0.032012314
24	0xbde54798	-0.11195296
25	0xbdcf5494	-0.10123554
26	0xbe2a7f74	-0.16650182
27	0xbe0b02c6	-0.13575277
28	0x3c80c0f0	0.015717
29	0x3e94d29b	0.2906693
30	0x3e8a5dbf	0.27024648
31	0xbe91a5e8	-0.2844689
32	0x3dbaba78	0.09117597
33	0xbe5a4565	-0.21315534
34	0xbe18c901	-0.14920427
35	0x3e9b3025	0.3031017
36	0x3e3e2c2a	0.18571535
37	0xbe78565b	-0.24251692
38	0x3e41306a	0.18866125
39	0xbe41e9d1	-0.1893685
40	0x3d0cb768	0.034354597
41	0xbe882ef7	-0.2659833

regression2.4.bias f4 [6]
0	0x3ebedacb	0.372763
1	0xbea13626	-0.31486624
2	0x3eb6d3ef	0.35708568
3	0xbe0ef44e	-0.13960382
4	0xbeb27d7a	-0.34861356
5	0x3d3d7f30	0.046263874

regression2.6.weight f4 [1, 6]
0	0x3dc5fb10	0.09667027
1	0x3ec501ca	0.38477927
2	0xbeb47192	-0.35242897
3	0xbec9284a	-0.3928855
4	0xbe319f63	-0.17345957
5	0x3be82300	0.0070842505

regression1.0.weight f4 [55, 3]
0	0x3d37f550	0.044911683
1	0xbe38e038	-0.18054283
2	0x3e1f3618	0.15547979
3	0xbedb839f	-0.42873856
4	0x3eeb3bd0	0.4594407
5	0xbc2902c0	-0.010315597
6	0xbbd6eb80	-0.0065588355
7	0xbeabb396	-0.3353545
8	0x3dc4e340	0.09613657
9	0xbf0e0450	-0.5547533
10	0xbed47d4a	-0.41501838
11	0xbe8bb5ad	-0.27287045
12	0x3e04da54	0.1297391
13	0xbe89f0c1	-0.26941493
14	0x3ecd218a	0.4006465
15	0xbe4ab41e	-0.19795272
16	0x3ee9c53c	0.4565829
17	0xbbd3f900	-0.006468892
18	0x3df6bda0	0.12047887
19	0x3e3c651c	0.18397945
20	0x3f038ac0	0.5138359
21	0x3d7332d0	0.05937463
22	0xbe35b43e	-0.17744538
23	0x3eb190e0	0.34680843
24	0x3ee90180	0.45508957
25	0x3ed71dde	0.42014974
26	0x3e64162c	0.22274083
27	0xbeed34cc	-0.46329343
28	0xbeca8a1d	-0.39558497
29	0xbf11a80a	-0.5689703
30	0xbf0dedab	-0.5544078
31	0xbea049b8	-0.31306243
32	0xbeaddba7	-0.33956644
33	0x3ed7b142	0.42127424
34	0xbcfddb60	-0.030988395
35	0x3ee8c1f8	0.45460486
36	0xbefb3d0b	-0.4907001
37	0xbe9f8c90	-0.31161928
38	0x3d054550	0.032536805
39	0xbe6602c8	-0.22461998
40	0xbdbbc3b0	-0.09168184
41	0x3dd822a0	0.10553479
42	0xbefcb6c6	-0.49358195
43	0x3ee11628	0.43962216
44	0x3edf6758	0.43633533
45	0xbef90b92	-0.4864164
46	0x3e0e4050	0.13891721
47	0xbeed85b1	-0.4639106
48	0x3efa6f8c	0.4891323
49	0xbd5b52e0	-0.053545833
50	0x3e4d548c	0.20051783
51	0xbdf58ffc	-0.119903535
52	0x3ed963bc	0.42458904
53	0x3e507314	0.20356399
54	0x3e9c78fe	0.3056106
55	0xbcec17c0	-0.028819919
56	0xbeaeda54	-0.34150946
57	0xbe376ba0	-0.1791215
58	0xbed1d742	-0.4098454
59	0xbe3c4e14	-0.1838916
60	0xbf0f4f29	-0.55980164
61	0xbdf72de0	-0.12069297
62	0x3bf54f00	0.007486224
63	0xbe5958cc	-0.2122528
64	0xbeed7001	-0.46374515
65	0x3e93253a	0.2873934
66	0x3d683240	0.056688547
67	0x3c1c0640	0.0095229745
68	0xbc37c880	-0.0112172365
69	0x3f13250e	0.57478416
70	0xbc995d60	-0.018721282
71	0x3ec9dac6	0.39424723
72	0x3f0b75a0	0.54476357
73	0xbe2bddaa	-0.16783777
74	0x3ea65ee8	0.32494283
75	0x3e3039d8	0.17209566
76	0xba710800	-0.00091946125
77	0xbe11595c	-0.14194244
78	0x3eedbde4	0.46433938
79	0x3ef1ee64	0.4725219
80	0xbed93350	-0.4242196
81	0x3e3a74cc	0.18208617
82	0x3d221480	0.03957033
83	0xbc2b8400	-0.010468483
84	0xbe86184a	-0.26190406
85	0xbe74a48e	-0.23890898
86	0xbd535210	-0.051591933
87	0x3e915870	0.28387785
88	0xbeeb618a	-0.45972854
89	0xbf05d7e0	-0.52282524
90	0x3ea37f1e	0.3193292
91	0xbe67362a	-0.22579256
92	0xbd81a340	-0.063299656
93	0xbeb39d1f	-0.3508081
94	0x3df418f8	0.11918825
95	0x3e88deb2	0.26732403
96	0xbdefebec	-0.117149204
97	0x3ef24a60	0.4732237
98	0xbed57f57	-0.41698715
99	0x3e9ce594	0.30643904
100	0x3df524d8	0.11969918
101	0x3e3aa35c	0.18226379
102	0x3e6424dc	0.22279686
103	0x3cebd100	0.028786182
104	0xbd546720	-0.05185616
105	0xbeb538ac	-0.353948
106	0xbed4eb30	-0.41585684
107	0x3f026c5e	0.50946605
108	0x3e3d59ac	0.18491238
109	0xbe33398a	-0.17502418
110	0xbf0f14a1	-0.5589085
111	0xbe77afc8	-0.24188149
112	0x3e54051c	0.20705074
113	0x3ee59f1c	0.44847953
114	0xbe94cb98	-0.2906158
115	0xbe80a7a4	-0.251279
116	0x3e58a6dc	0.21157402
117	0xbec52eef	-0.3851237
118	0xbeb728e1	-0.35773376
119	0x3e7f5d04	0.24937826
120	0xbe4fb33c	-0.20283216
121	0x3dafc720	0.08582902
122	0xbebbc054	-0.36670172
123	0xbf1041b7	-0.5635027
124	0xbf0e4864	-0.5557921
125	0xbe6cc4b4	-0.23121911
126	0xbef947de	-0.48687643
127	0x3f118416	0.5684217
128	0x3df6a170	0.120425105
129	0xbf024bc2	-0.5089685
130	0x3e96e3ca	0.29470664
131	0x3f037ec4	0.51365304
132	0x3eb46bbc	0.35238445
133	0x3eabe160	0.33570385
134	0x3ed44aac	0.4146322
135	0x3e6fac8c	0.23405665
136	0x3cdb72a0	0.026788056
137	0x3e129334	0.14313966
138	0x3dd5ad70	0.10433471
139	0xbefe0d6f	-0.49619624
140	0xbe0e837c	-0.13917345
141	0xbcd33000	-0.025779724
142	0x3ecbaf2e	0.3978209
143	0x3dd35718	0.10319346
144	0x3e5cfa10	0.21579766
145	0x3edf7bc4	0.43649113
146	0xbd049610	-0.032369673
147	0xbf106214	-0.56399655
148	0x3eba56b0	0.36394262
149	0xbf0191be	-0.5061301
150	0x3f02365a	0.50864184
151	0xbed4defe	-0.4157638
152	0xbf11c429	-0.5693994
153	0x3e3bcf04	0.18340689
154	0x3eab78f4	0.33490717
155	0xbe93ccf9	-0.2886732
156	0xbec3c2ae	-0.38234466
157	0x3ed8fe54	0.42381537
158	0x3ee7cbc0	0.45272636
159	0xbf0eb6f0	-0.5574789
160	0x3ee69078	0.45032096
161	0xbe28cb62	-0.16483834
162	0xbe7d4e24	-0.2473684
163	0x3ec280e0	0.3798895
164	0xbf120536	-0.570392

regression1.0.bias f4 [55]
0	0x3e1cd490	0.15315461
1	0x3d49d0c0	0.049271345
2	0xbe0694d6	-0.13142714
3	0xbebee528	-0.37284207
4	0xbed07600	-0.40715027
5	0xbecf6a7d	-0.40510932
6	0xbe75ee22	-0.24016622
7	0x3eda3d4c	0.4262489
8	0xbeb8ac2a	-0.3606885
9	0xbdbe82cc	-0.09302291
10	0x3edf9928	0.43671536
11	0x3e3d3e20	0.1848073
12	0x3c948840	0.018131375
13	0xbdd36cc0	-0.10323477
14	0xbea1eede	-0.31627554
15	0xbe27e976	-0.16397652
16	0x3e25d1fc	0.16193384
17	0x3e0b3f5c	0.13598388
18	0xbdd80a68	-0.1054886
19	0x3ec1906c	0.37805498
20	0x3ef051c8	0.46937394
21	0xbe1b75c4	-0.15181643
22	0xbed0cf82	-0.40783316
23	0xbda986d8	-0.082776725
24	0xbeb42c6c	-0.3519014
25	0xbee2af02	-0.44274145
26	0xbee1aaee	-0.44075722
27	0x3ec6ab14	0.38802397
28	0x3ec295c6	0.38004893
29	0x3f11c8ae	0.5694684
30	0x3ecf6dc4	0.40513432
31	0x3e0c26cc	0.13686675
32	0x3ed4078e	0.41412014
33	0xbf0e209e	-0.5551852
34	0x3ee50710	0.4473195
35	0xbed66876	-0.41876572
36	0xbedd1f4e	-0.43187946
37	0x3e53b5e8	0.2067486
38	0xbe26b9e2	-0.16281846
39	0xbd94a328	-0.07257682
40	0x3f105e80	0.56394196
41	0xbdf68004	-0.12036136
42	0x3e8d1604	0.2755586
43	0x3e5820c0	0.21106243
44	0x3f046b86	0.5172657
45	0xbeca8d68	-0.3956101
46	0x3ecb4b9c	0.39706123
47	0x3ed265b8	0.4109323
48	0x3e227010	0.15863061
49	0x3e07a3cc	0.13246077
50	0x3f0c2ccc	0.54755855
51	0x3e794bc8	0.24345315
52	0xbe5ead2a	-0.21745744
53	0x3ed7430a	0.42043334
54	0xbe18b586	-0.14912996

regression1.2.weight f4 [1, 55]
0	0x3df49406	0.11942296
1	0xbdd9cfef	-0.10635363
2	0xbcc54788	-0.02408196
3	0x3ce453d0	0.027871996
4	0xbddb47ed	-0.10707078
5	0xbe0082f8	-0.1254996
6	0x3e02a5cf	0.12758563
7	0x3a4cc000	0.00078105927
8	0xbd3d162e	-0.04616373
9	0x3d97622c	0.07391772
10	0x3d89639e	0.067084536
11	0xbd48727e	-0.048937313
12	0xbe060ea6	-0.13091525
13	0xbd90181f	-0.07035851
14	0xbd2b75e2	-0.04186047
15	0x3baf01a0	0.00534077
16	0xbd210ac0	-0.039316893
17	0x3d94040c	0.072273344
18	0x3b95c5a0	0.004570678
19	0x3d7fdad4	0.06246455
20	0xbde4932b	-0.111608826
21	0x3df4d77a	0.119551614
22	0x3b1ea5c0	0.0024207681
23	0xbd041cea	-0.032254137
24	0xbdf9055f	-0.121592276
25	0x3d616eb8	0.05503723
26	0xbd897bd4	-0.067130715
27	0x3bcecf00	0.0063112974
28	0xbdbc1cf9	-0.091852136
29	0xbd7c5452	-0.06160385
30	0xbce77c9c	-0.02825766
31	0xbd874b7e	-0.06606196
32	0x3de87468	0.11350328
33	0x3e025169	0.12726368
34	0xbb92de80	-0.0044820905
35	0xbdfad83a	-0.12248273
36	0xbd5ab342	-0.05339361
37	0x3e087cbf	0.13328837
38	0x3ce1f508	0.02758266
39	0xbdbf4eab	-0.093411766
40	0x3dd60f38	0.104521215
41	0x3d847106	0.0646687
42	0xbde88d5d	-0.11355088
43	0x3dd9770a	0.10618408
44	0x3d54aacc	0.051920697
45	0xbd2b2e84	-0.041792408
46	0xbd5a66ca	-0.053320684
47	0xbdcaeb98	-0.09908217
48	0xbda8cc01	-0.08242036
49	0x3e08ca7f	0.13358496
50	0xbd96408a	-0.073365286
51	0x3dcb60c6	0.099305674
52	0xbd14e974	-0.03635545
53	0xbdb418f4	-0.08793822
54	0x3e04107d	0.12896915

regression4.0.weight f4 [6, 3]
0	0xbf0ecac7	-0.55778164
1	0x3ec9ef7e	0.3944053
2	0xbefe5c73	-0.49679908
3	0xbdf23fd4	-0.118285805
4	0x3f06c8f6	0.5265039
5	0x3e99e27e	0.30055612
6	0x3f13044c	0.5742843
7	0x3f11fd64	0.5702727
8	0x3e9d618c	0.30738485
9	0x3ef746d8	0.48296237
10	0xbf0144a7	-0.5049538
11	0xbd162620	-0.036657453
12	0x3d85bdc8	0.065303385
13	0xbed684fd	-0.41898337
14	0x3ddbfaa0	0.10741162
15	0x3e698814	0.22805816
16	0xbd2c3c60	-0.042049766
17	0xbe0bc52c	-0.13649434

regression4.0.bias f4 [6]
0	0x3f076c78	0.52899885
1	0xbf1083bb	-0.56451005
2	0x3db42a18	0.08797091
3	0xbf05d278	-0.52274275
4	0x3ee568c0	0.4480648
5	0x3e68c6bc	0.22732061

regression4.2.weight f4 [7, 6]
0	0x3e6c516c	0.23077935
1	0xbe1e6d28	-0.15471327
2	0x3eb7dcda	0.35910684
3	0x3c271360	0.01019749
4	0xbeab934c	-0.33510816
5	0xbe603b94	-0.21897727
6	0xbe9ce5b4	-0.30644
7	0x3e2db8e4	0.16965061
8	0x3e6caa04	0.23111731
9	0xbe2fe2ba	-0.17176333
10	0xbea63d5a	-0.32468683
11	0xbe5a005f	-0.21289204
12	0xbdadb548	-0.08481842
13	0x3cda2d10	0.026632816
14	0x3e79d67c	0.24398226
15	0xbe1746a0	-0.14773035
16	0x3eaeaa2e	0.34114212
17	0xbe974409	-0.29544094
18	0xbe9956dc	-0.2994908
19	0xbe13bd9a	-0.14427796
20	0x3eb5f940	0.35541725
21	0xbe4d8bdd	-0.20072885
22	0xbe841af5	-0.25801817
23	0xbe9d25df	-0.30692956
24	0xbe24a3af	-0.16078065
25	0xbe422f08	-0.18963253
26	0x3d1b5728	0.037924916
27	0xbeccd1ba	-0.4000376
28	0xbdd03ad0	-0.101674676
29	0xbe9c4252	-0.30519348
30	0x3d8c7640	0.06858492
31	0xbd46b918	-0.048516363
32	0xbec6c0bf	-0.3881893
33	0xbebe8547	-0.37211058
34	0xbea24110	-0.31690264
35	0x3da8966c	0.08231816
36	0x3e268300	0.1626091
37	0x3ecb18ce	0.39667362
38	0x3e3b5e6c	0.18297738
39	0xbec12c92	-0.37729317
40	0x3e362fd4	0.17791682
41	0xbec8e327	-0.39235803

regression4.2.bias f4 [7]
0	0xbeb43e35	-0.3520371
1	0xbe80cd40	-0.25156593
2	0x3e907c52	0.2821985
3	0x3e01b70c	0.12667483
4	0x3ece33ae	0.40273803
5	0x3eaffbe8	0.34371877
6	0xbea5760c	-0.32316625

regression4.4.weight f4 [8, 7]
0	0xbe8feccc	-0.2811035
1	0xbddd8cd4	-0.108178765
2	0x3eb20919	0.34772566
3	0xbe6043fa	-0.21900931
4	0xbe99b67a	-0.3002203
5	0x3e92892f	0.28620288
6	0xbea65c74	-0.3249241
7	0xbe8b1225	-0.2716228
8	0xbcc81fb0	-0.024429172
9	0x3ddf46b0	0.109021544
10	0xbe42dafc	-0.19028848
11	0x3e0d007e	0.13769719
12	0x3e4b95c6	0.19881353
13	0x3dcb63d8	0.09931153
14	0xbe3df6ba	-0.1855115
15	0xbe9112aa	-0.28334552
16	0xbdaaac74	-0.08333674
17	0xbe993d60	-0.29929638
18	0xbeb92421	-0.36160377
19	0xbe97835e	-0.29592413
20	0x3e82f1ff	0.25575253
21	0x3e2f9ad6	0.17148909
22	0xbe69e095	-0.22839577
23	0x3e667f0e	0.22509405
24	0xbe6a600a	-0.22888198
25	0x3da61e10	0.08111203
26	0x3cb99450	0.022653729
27	0xbeaf1504	-0.3419572
28	0xbb533480	-0.0032227337
29	0xbebce7de	-0.3689565
30	0x3e4578b2	0.19284323
31	0x3d1e7fd8	0.03869614
32	0xbe86cd5f	-0.2632856
33	0xbdacbbb8	-0.08434242
34	0xbe6d2c88	-0.23161519
35	0xbc372bc0	-0.011179864
36	0xbea6ccb5	-0.32578054
37	0x3eb0552f	0.3443999
38	0x3eb54bdb	0.35409436
39	0xbe09a2a4	-0.13440949
40	0xbe9d1104	-0.30677044
41	0x3e8b5ea1	0.27220634
42	0x3e7fb746	0.24972257
43	0xbd8d25b4	-0.06891957
44	0xbe85c61a	-0.26127702
45	0xbdaf8808	-0.08570868
46	0xbdce8864	-0.10084608
47	0x3d718a48	0.058969766
48	0xbe057c0d	-0.13035603
49	0xbe015818	-0.12631261
50	0x3e9d61c5	0.30738655
51	0x3e8ae9a7	0.27131388
52	0xbd7c3ac0	-0.061579466
53	0xbeb62898	-0.35577846
54	0xba5bcc00	-0.00083845854
55	0x3e52fdd6	0.20604643

regression4.4.bias f4 [8]
0	0x3e130c8a	0.14360252
1	0x3e276c2a	0.16349855
2	0xbe9b10e5	-0.30286327
3	0x3cbf1650	0.02332607
4	0xbd507a48	-0.050897866
5	0x3dff470c	0.12464723
6	0x3e6c5a36	0.23081288
7	0xbdfa7b3c	-0.12230536

regression4.6.weight f4 [7, 8]
0	0xbe595b59	-0.21226253
1	0x3e868d2f	0.2627959
2	0xbe7e3dc1	-0.24828245
3	0xbe1486e0	-0.14504576
4	0xbe25a6c0	-0.16176891
5	0x3e963021	0.29333594
6	0xbe8b655e	-0.27225775
7	0x3eb41545	0.35172477
8	0x3de8f000	0.11373901
9	0x3e2875f2	0.16451243
10	0xbe77d730	-0.24203181
11	0xbe0a0300	-0.13477707
12	0xbea3389a	-0.3187912
13	0xbe34db05	-0.17661674
14	0xbe964dd4	-0.29356253
15	0xbe3f5804	-0.18685919
16	0xbe8cd43c	-0.27505672
17	0x3dd8aa08	0.10579306
18	0x3d272bd0	0.040813267
19	0x3eb2fb1b	0.34957203
20	0x3bb09d80	0.005389869
21	0xbe8484fe	-0.25882715
22	0xbe64dbd7	-0.22349487
23	0xbeb1b5d9	-0.3470905
24	0x3e293286	0.1652318
25	0xbda04ed8	-0.07827538
26	0xbe9490d5	-0.29016748
27	0x3e8aeb27	0.27132532
28	0x3df2a8f0	0.118486285
29	0xbe16c39c	-0.14723057
30	0xbeab1685	-0.3341562
31	0xbe6b7e17	-0.22997318
32	0xbc79e8e0	-0.015253276
33	0x3db22b04	0.08699611
34	0x3db8e0cc	0.090272516
35	0xbeaa4b7b	-0.33260712
36	0x3ea4df4f	0.3220162
37	0xbe9765f7	-0.2956998
38	0xbe0542f6	-0.13013825
39	0x3d10a750	0.03531581
40	0x3de54780	0.11195278
41	0x3e857ecd	0.26073304
42	0x3e2758d6	0.16342482
43	0x3e7da56a	0.24770132
44	0x3df28a5c	0.11842796
45	0x3ea29649	0.31755283
46	0xbd3abae8	-0.045588404
47	0x3e616fa2	0.22015241
48	0x3d2d5938	0.042321414
49	0xbe48ae77	-0.19597803
50	0x3eb4220b	0.35182223
51	0xbe3eae9c	-0.18621296
52	0x3e65b322	0.22431615
53	0x3e90fd01	0.28318027
54	0xbd579218	-0.05262956
55	0xbe50d08e	-0.20392057

regression4.6.bias f4 [7]
0	0xbdb4813c	-0.08813712
1	0xbddb5042	-0.10708667
2	0x3e501bb2	0.20323065
3	0xbe823a44	-0.25435078
4	0xbd8a2bcc	-0.06746635
5	0xba745a00	-0.00093212724
6	0xbd81ae04	-0.06332019

regression4.8.weight f4 [6, 7]
0	0xbda98808	-0.08277899
1	0xbe275f05	-0.16344841
2	0x3eb9a697	0.3625991
3	0x3e503482	0.2033253
4	0x3b317900	0.0027080178
5	0xbebc3da5	-0.3676578
6	0xbdf50b68	-0.11965066
7	0xbe4c97d6	-0.19979796
8	0xbdb5c690	-0.088757634
9	0x3e4481d6	0.19190153
10	0x3e5c6426	0.21522579
11	0x3dc6e440	0.09711504
12	0x3d660de8	0.056165606
13	0x3dfdb7c4	0.12388566
14	0xbdac40b0	-0.08410776
15	0x3e4f4042	0.20239356
16	0xbe84d0e9	-0.25940636
17	0xbea52361	-0.32253554
18	0x3e03caf2	0.12870386
19	0x3e97bf11	0.2963796
20	0xbeb09d8b	-0.34495196
21	0xbd8d09fc	-0.0688667
22	0xbafb9500	-0.0019194186
23	0x3eab5905	0.33466354
24	0x3eb524a1	0.35379508
25	0x3d4ebe50	0.050474465
26	0x3e8a576b	0.2701982
27	0x3e2cbf4a	0.16869846
28	0x3ebf8cf9	0.3741224
29	0xbe525acb	-0.20542447
30	0x3da0f984	0.07860091
31	0xbe28550d	-0.16438694
32	0x3e89451d	0.26810542
33	0x3dc9b538	0.09849018
34	0x3e4948ae	0.19656631
35	0x3e2ff86a	0.17184606
36	0x3e28c6fe	0.1648216
37	0x3c9b9c40	0.018995404
38	0x3b05ea00	0.0020433664
39	0xbec17db7	-0.37791225
40	0xbe9c9ba1	-0.30587485
41	0xbe94ed34	-0.29087222

regression4.8.bias f4 [6]
0	0x3d224f00	0.03962612
1	0xbe8125f8	-0.2522428
2	0xbebc446b	-0.3677095
3	0x3e91f267	0.2850525
4	0x3dfed9bc	0.12443873
5	0x3d817528	0.06321174

regression4.10.weight f4 [1, 6]
0	0x3ce40fd0	0.027839571
1	0xbdac0c40	-0.08400774
2	0xbe27cb74	-0.16386205
3	0xbd4233a0	-0.047412515
4	0xbe777915	-0.24167283
5	0xbe85368a	-0.26018173
