nn_metamodel/ann_metamodel/runs/Jan.18 20:59:17/model_weights.pth (torch_old, 9337 bytes, 29 tensors)

fc.weight f4 [1, 3]
0	0x3e51f878	0.2050494
1	0x3e350618	0.17678106
2	0xbf064a71	-0.5245734

regression1.0.weight f4 [55, 3]
0	0xbc0d39c0	-0.008619726
1	0x3f135f64	0.5756743
2	0x3e98cc4e	0.29843372
3	0xbf0a6e32	-0.54074395
4	0xbe83eab9	-0.25765017
5	0x3f07b1aa	0.5300547
6	0xbf051685	-0.5198749
7	0xbebe0565	-0.3711349
8	0xbdd5f6c4	-0.104474574
9	0x3d775320	0.06038201
10	0x3ef9f17c	0.4881705
11	0xbf058257	-0.5215201
12	0x3eb1977e	0.34685892
13	0xbe483a46	-0.1955348
14	0x3d1a27d0	0.037635624
15	0xbead3466	-0.3382904
16	0xbea153fc	-0.31509387
17	0x3ecd485c	0.40094268
18	0x3e9c0976	0.30475968
19	0x3e833ace	0.25630802
20	0x3e935986	0.28779238
21	0xbe0cc79c	-0.1374802
22	0x3deabcd8	0.114618
23	0xbebe9613	-0.37223873
24	0xbefb42d4	-0.49074423
25	0x3e37bbe0	0.17942762
26	0x3d6d7d20	0.057980657
27	0xbf09b9bf	-0.5379905
28	0x3e9e735c	0.30947387
29	0xbd234a10	-0.039865553
30	0x3e82bbbc	0.25533855
31	0xbe1ef2de	-0.15522334
32	0x3e4ac2ac	0.19800824
33	0x3dfa1460	0.122109175
34	0xbe80cc70	-0.25155973
35	0x3eb9ff5a	0.3632763
36	0xbdec6200	-0.115421295
37	0x3f0fa748	0.56114626
38	0xbe47f980	-0.1952877
39	0x3eaf3058	0.3421657
40	0x3ed1e4ac	0.40994775
41	0x3dc09610	0.09403622
42	0x3d966388	0.07343203
43	0xbdd63198	-0.10458678
44	0xbeecbbfd	-0.46237174
45	0x3ea7a6aa	0.32744342
46	0x3ef30d14	0.47470915
47	0x3eefc158	0.46827197
48	0xbf12a1cb	-0.57278126
49	0xbede889a	-0.43463594
50	0x3eb09fba	0.34496862
51	0x3e5d1eb4	0.21593744
52	0x3ec35260	0.38148785
53	0x3f0288f0	0.509902
54	0xbec3d288	-0.3824656
55	0xbeeb391e	-0.45942014
56	0xbf06cc95	-0.5265592
57	0xbed7b602	-0.42131048
58	0xbecae4bb	-0.39627632
59	0x3ee8893c	0.45417202
60	0xbe7c3b20	-0.2463193
61	0xbea27b13	-0.31734523
62	0xbee440fd	-0.44580832
63	0x3ed499ae	0.41523498
64	0x3eddee9c	0.43346107
65	0xbe807f9d	-0.2509736
66	0xbe7bbc32	-0.2458351
67	0x3f04705c	0.51733947
68	0xbe93d8d4	-0.28876364
69	0xbd4bfdb0	-0.049802482
70	0x3f08384e	0.53210914
71	0x3e7fc46c	0.24977273
72	0xbe303464	-0.17207485
73	0xbeb15e4c	-0.34642255
74	0xbe195d3e	-0.14976975
75	0x3ec9fe52	0.39451844
76	0xbee9f3ba	-0.4569376
77	0xbeef96f8	-0.46794868
78	0x3f0fabc2	0.56121457
79	0xbae9b800	-0.0017831326
80	0xbeafc43e	-0.34329408
81	0x3e99fd4c	0.30076063
82	0x3ece833e	0.40334505
83	0x3ed4829e	0.41505903
84	0xbe18a79c	-0.14907688
85	0xbee28446	-0.44241542
86	0x3f042c7e	0.5163039
87	0xbe94fa22	-0.29097086
88	0x3ef882cc	0.4853729
89	0xbba35580	-0.0049845576
90	0xbe4152d8	-0.18879259
91	0xbedacfc2	-0.42736632
92	0x3e3ef3e0	0.18647718
93	0xbecec3c8	-0.40383744
94	0xbf10ae3a	-0.5651585
95	0xbe6606ee	-0.22463581
96	0x3e6cdc08	0.2313081
97	0xbe01bbb6	-0.12669262
98	0x3e92d484	0.28677762
99	0x3e3fef84	0.18743712
100	0x3e9f1c06	0.31076068
101	0xbee9e01b	-0.4567879
102	0x3d7d6620	0.061864972
103	0xbeb85b82	-0.36007315
104	0xbf0a6c63	-0.54071635
105	0x3e1e0034	0.15429765
106	0x3d9db238	0.07700008
107	0xbc09b180	-0.008404136
108	0x3ef61a1c	0.48066795
109	0xbef2e2f6	-0.47438782
110	0xbe9cbd80	-0.30613327
111	0xbefed0f2	-0.49768788
112	0x3ebb4c78	0.3658178
113	0x3f0a4474	0.540107
114	0xbe856825	-0.26056018
115	0xbec69e3c	-0.38792598
116	0xbe822972	-0.25422245
117	0xbe7bee60	-0.24602652
118	0x3f0ff17a	0.5622784
119	0xbda76bec	-0.08174881
120	0xbe901477	-0.28140613
121	0xbd87f340	-0.06638193
122	0xbdd107ac	-0.102065414
123	0x3e3e53b8	0.18586624
124	0xbe2dbf08	-0.16967404
125	0xbe77fac0	-0.24216747
126	0x3e8daf3a	0.2767275
127	0xbeced6b0	-0.4039817
128	0x3eef4c6c	0.46737993
129	0x3e068408	0.13136303
130	0xbe1a33d2	-0.1505883
131	0xbf06ab64	-0.5260527
132	0xbf08ded7	-0.53465027
133	0xbec40a3a	-0.38289052
134	0x3d8ff098	0.070283115
135	0xbef4eb5b	-0.47835812
136	0x3f03bd7c	0.51461005
137	0x3ef14294	0.47121108
138	0x3e8e7cdc	0.27829635
139	0xbedf9eda	-0.43675882
140	0x3f06be86	0.52634466
141	0xbedbb040	-0.42907906
142	0x3ed194ac	0.4093374
143	0x3ee84450	0.45364618
144	0xbe6b8786	-0.23000917
145	0x3eb2b9f6	0.34907502
146	0xbdc33be8	-0.095329106
147	0xbe2337fa	-0.15939322
148	0x3ea824fa	0.3284071
149	0x3ea901ce	0.3300919
150	0x3d70d0f0	0.05879301
151	0xbf12bf8e	-0.5732354
152	0xbe96d22a	-0.29457217
153	0xbf01350b	-0.5047156
154	0x3e995bd6	0.29952878
155	0xbeb564d7	-0.35428497
156	0x3ea145ea	0.31498653
157	0xbe1f9cf4	-0.15587217
158	0xbf10fb2e	-0.5663327
159	0xbe668c80	-0.22514534
160	0xbdb05e34	-0.08611718
161	0xbeb097ec	-0.34490907
162	0x3edefd14	0.43552458
163	0x3ecc33d0	0.3988328
164	0xbd85f168	-0.06540185

regression1.0.bias f4 [55]
0	0xbe639d90	-0.22228074
1	0x3eb19d56	0.3469035
2	0x3f08772a	0.5330683
3	0xbed89c74	-0.42306864
4	0x3f0d56f6	0.55210817
5	0x3cc8fc40	0.024534345
6	0xbea3a968	-0.31965184
7	0x3ec0c5a6	0.37650794
8	0x3f015d6c	0.50533175
9	0xbe4b9744	-0.19881922
10	0x3ed6aa1c	0.41926658
11	0xbe99d0ab	-0.30042014
12	0x3ecca74c	0.39971387
13	0xbe7837a8	-0.24239981
14	0x3ebcff8e	0.36913723
15	0xbf052346	-0.5200695
16	0xbe1b5448	-0.1516887
17	0x3f0d351e	0.55159175
18	0x3eef0298	0.46681666
19	0xbcf22920	-0.029560626
20	0xbd232160	-0.03982675
21	0x3e4cb1ec	0.19989747
22	0xbd0fb8c0	-0.0350883
23	0xbef57c75	-0.47946516
24	0xbeef9bb9	-0.46798494
25	0xbcb16340	-0.021653771
26	0xbedd4dad	-0.43223324
27	0xbf080238	-0.53128386
28	0x3f0bb8a6	0.54578626
29	0xbd6091a0	-0.05482638
30	0x3ec37b62	0.3818007
31	0xbe1ebb7c	-0.15501207
32	0xbdefeb40	-0.11714792
33	0xbea57073	-0.32312354
34	0xbead2324	-0.33815873
35	0x3f0fe2d8	0.5620551
36	0x3e8d3186	0.27576846
37	0xbebe9ac2	-0.37227446
38	0x3e88802c	0.26660287
39	0x3e8a84b4	0.2705437
40	0x3dae53e8	0.085120976
41	0xbeb705ca	-0.35746604
42	0xbe0563fa	-0.1302642
43	0xbeadebe2	-0.33969027
44	0x3ea7c40a	0.32766753
45	0x3f10395a	0.5633751
46	0xbe38007a	-0.17968932
47	0xbe8bedd7	-0.27329895
48	0x3eeb3dd0	0.45945597
49	0x3f0317da	0.5120827
50	0x3ec779f0	0.38960218
51	0x3e0c8104	0.1372109
52	0x3e8198ce	0.25311893
53	0xbe245658	-0.16048563
54	0x3d823178	0.06357092

regression1.2.weight f4 [1, 55]
0	0xbd067466	-0.03282585
1	0x3abf2a80	0.001458481
2	0xbd256438	-0.04037878
3	0xbdad2cdc	-0.08455822
4	0x3c695120	0.014240533
5	0xbe02283e	-0.12710664
6	0x3db78ecc	0.08962783
7	0xbdd68cda	-0.10476084
8	0x3de46f92	0.11154093
9	0x3c014d80	0.007892013
10	0x3d90fae8	0.070791066
11	0xbdd08c02	-0.10182954
12	0x3da7a252	0.08185257
13	0xbcb0159c	-0.02149468
14	0xbc632fa8	-0.013866343
15	0xbb89c980	-0.004204929
16	0xbddf03ac	-0.10889372
17	0xbc7d7be0	-0.015471429
18	0xbbd8e580	-0.0066191554
19	0x3deb2d9a	0.11483307
20	0xbd87e707	-0.06635862
21	0xbc94fc6c	-0.01818677
22	0x3b9fcee0	0.0048769563
23	0xbe03f67e	-0.12886998
24	0xbd75edd8	-0.06004128
25	0xbd8b7f2f	-0.06811368
26	0x3d1dc814	0.038520887
27	0x3dac2686	0.08405785
28	0xbdf32f4f	-0.11874258
29	0x3de38f94	0.1111137
30	0x3dc02984	0.093829185
31	0x3c8e81d8	0.017395899
32	0x3dcea78a	0.10090549
33	0xbe07145f	-0.13191365
34	0xbdf2231b	-0.11823102
35	0xbdf6fcea	-0.12059958
36	0x3c997538	0.018732652
37	0x3c176a70	0.009241685
38	0xbd48f120	-0.04905808
39	0xbd1a4900	-0.037667274
40	0x3c7de880	0.015497327
41	0xbb457340	-0.0030128509
42	0x3d17ce00	0.03706169
43	0xbdd81702	-0.105512634
44	0x3cc517b0	0.024059147
45	0xbdff6c4d	-0.124718286
46	0x3d408b10	0.04700762
47	0x3da50d56	0.08059184
48	0x3d414118	0.04718122
49	0x3d0f8368	0.03503743
50	0xbdbabbf6	-0.09117882
51	0x3df271c2	0.11838104
52	0xbdc8d782	-0.0980673
53	0x3dbb0d22	0.09133364
54	0xbdfe355e	-0.12412523

regression2.0.weight f4 [6, 3]
0	0x3dcdba80	0.10045338
1	0xbe4137e8	-0.18868983
2	0x3f093d24	0.5360892
3	0x3f054568	0.5205903
4	0xbf070c9d	-0.5275362
5	0xbdd59c98	-0.104302585
6	0xbe2c392c	-0.16818684
7	0xbec632e5	-0.38710704
8	0x3de4d700	0.111738205
9	0xbdda0d4c	-0.106470674
10	0x3d9bdba0	0.076102495
11	0xbed62f27	-0.4183285
12	0x3ecb2352	0.39675385
13	0x3ed3a826	0.41339225
14	0xbc067b80	-0.008208156
15	0xbd17ae50	-0.03703147
16	0x3e7b5478	0.24543941
17	0xbee6907a	-0.45032102

regression2.0.bias f4 [6]
0	0xbee31fd6	-0.44360226
1	0xbe596f38	-0.21233833
2	0x3d161f40	0.036650896
3	0x3f10cd08	0.5656285
4	0x3f0cf8cc	0.55067134
5	0x3e9a7276	0.30165452

regression2.2.weight f4 [7, 6]
0	0xbe184228	-0.14868987
1	0xbec84ad2	-0.39119583
2	0x3e8c3098	0.27380824
3	0xbeb6a215	-0.35670534
4	0x3e1e3604	0.15450293
5	0xbe22151c	-0.15828365
6	0xbd79cb58	-0.06098494
7	0xbe2cc840	-0.16873264
8	0x3e02bcfc	0.12767404
9	0x3e301ff8	0.17199695
10	0x3e7b33b4	0.24531442
11	0x3dcb00a0	0.099122286
12	0x3adb4100	0.0016727746
13	0x3c5396c0	0.01291436
14	0xbe355758	-0.177091
15	0xbd074150	-0.03302127
16	0x3e48b094	0.19598609
17	0xbe911b36	-0.28341073
18	0x3ebaa748	0.3645575
19	0x3ebcb012	0.3685308
20	0x3e9e7e88	0.3095591
21	0xbeae44be	-0.3403682
22	0xbe3503cb	-0.17677228
23	0x3e30c284	0.17261702
24	0x3e1268f0	0.14297843
25	0xbe33b613	-0.17549925
26	0x3e3a3b50	0.18186688
27	0xbdf2deb0	-0.118588805
28	0xbe5ee7ea	-0.21768156
29	0xbd5de860	-0.05417669
30	0x3d805354	0.062658936
31	0x3d16a070	0.0367741
32	0xbea85251	-0.32875302
33	0x3eb74450	0.35794306
34	0x3e67d2c8	0.22639
35	0x3ecb9d4c	0.39768445
36	0x3e80e518	0.25174785
37	0xbe95f3f4	-0.29287684
38	0x3e626e9c	0.22112507
39	0xbe17bc48	-0.14817917
40	0xbd11dd80	-0.03561163
41	0xbe89d305	-0.26918808

regression2.2.bias f4 [7]
0	0xbeb3b451	-0.35098508
1	0x3dae9f58	0.08526486
2	0x3ea5c262	0.32374865
3	0xbe8aa626	-0.27079886
4	0x3ecad992	0.39619118
5	0x3e889b92	0.2668119
6	0x3b399d80	0.0028322637

regression2.4.weight f4 [6, 7]
0	0x3e0b3bbe	0.13597009
1	0xbd182bf0	-0.037151277
2	0x3eaa940d	0.3331608
3	0xbeacfd44	-0.33786976
4	0xbe8e1508	-0.2775042
5	0x3eb61b31	0.3556762
6	0xbdfad868	-0.122483075
7	0xbeab47ff	-0.33453366
8	0x3aeb9100	0.001797229
9	0xbd29e6d0	-0.041479886
10	0x3eb16fef	0.3465571
11	0xbe26de32	-0.16295698
12	0xbeb396c2	-0.35075957
13	0x3e814055	0.25244394
14	0xbdcf9b20	-0.101370096
15	0xbe46a213	-0.19397764
16	0x3e74ed1e	0.23918578
17	0xbe95362a	-0.29142886
18	0x3ea29df9	0.3176115
19	0x3e1847d6	0.14871153
20	0x3e2854ca	0.16438594
21	0x3eba9337	0.3644044
22	0xbe6c02eb	-0.23047988
23	0x3e946a07	0.28987142
24	0xbe45a2f6	-0.19300446
25	0x3dd25b14	0.10271278
26	0x3ebc9d65	0.36838832
27	0xbd6dc8b0	-0.05805272
28	0x3e5a384a	0.21310535
29	0x3e9c3e65	0.30516353
30	0x3c1e04a0	0.009644657
31	0xbdf5d764	-0.12003973
32	0x3e813863	0.25238332
33	0xbea49554	-0.32145178
34	0xbd0116e8	-0.031515986
35	0x3db9323c	0.090427846
36	0x3ebc44f5	0.3677136
37	0xbe4b14d3	-0.19832163
38	0xbe189e7e	-0.1490421
39	0xbeafc25e	-0.34327978
40	0xbe6c54ea	-0.23079267
41	0xbe7d1cd6	-0.24718031

regression2.4.bias f4 [6]
0	0x3d80aa9c	0.06282541
1	0xbe98e170	-0.29859495
2	0x3e06f4fe	0.13179395
3	0xbec0fdc6	-0.37693614
4	0xbe21fc10	-0.1581881
5	0xbe5877a6	-0.21139392

regression2.6.weight f4 [1, 6]
0	0x3d166778	0.03671977
1	0xbe42d173	-0.19025211
2	0x3e551508	0.20808804
3	0x3e84bb2a	0.25924045
4	0x3e8d0624	0.27543747
5	0x3ddf6ab0	0.10909021

regression3.0.weight f4 [12, 3]
0	0x3e44df80	0.19225883
1	0x3eac6c9a	0.33676606
2	0x3d9356b8	0.07194275
3	0x3eda6808	0.42657495
4	0xbece2312	-0.40261132
5	0xbeca29ec	-0.3948511
6	0x3dab96e8	0.083783925
7	0x3ec94bae	0.39315552
8	0xbd6db380	-0.058032513
9	0xbe79f3b6	-0.24409375
10	0x3ec88fb4	0.39172137
11	0x3ee42870	0.445621
12	0xbe37e994	-0.17960197
13	0xbf103470	-0.56330013
14	0xbe089bc0	-0.13340664
15	0x3ef613ac	0.48061883
16	0x3d6ce0b0	0.057831466
17	0xbda5f870	-0.08104026
18	0xbe7d9618	-0.24764287
19	0xbe2916fa	-0.16512671
20	0xbdf81b08	-0.12114531
21	0x3ee632b0	0.44960546
22	0x3e8c39dc	0.27387893
23	0x3eef7cbc	0.46774852
24	0x3d174e70	0.03694004
25	0x3ecdedea	0.40220577
26	0xbe350e46	-0.17681226
27	0x3dce0188	0.10058886
28	0x3ea47ac2	0.32124907
29	0xbef37522	-0.47550303
30	0x3f0d9aca	0.55314314
31	0xbeac5fe4	-0.3366691
32	0x3ddbd058	0.10733098
33	0xbeb6fadc	-0.35738266
34	0xbeb3de68	-0.3513062
35	0x3cd01680	0.025401354

regression3.0.bias f4 [12]
0	0xbe914e05	-0.28379837
1	0x3f129b82	0.57268536
2	0xbeac7236	-0.33680886
3	0x3eec56a4	0.46159852
4	0xbd590470	-0.052982748
5	0x3ea18158	0.31543994
6	0x3f0af750	0.5428362
7	0xbed9f027	-0.42566034
8	0x3cd8ed20	0.026480258
9	0x3dd5e6b0	0.10444391
10	0x3d119ab0	0.035547912
11	0xbe3b5b0c	-0.1829645

regression3.2.weight f4 [14, 12]
0	0xbe483614	-0.19551879
1	0xbe33a21a	-0.17542306
2	0xbe57d096	-0.21075663
3	0xbde48980	-0.111590385
4	0x3e84329c	0.25819862
5	0x3d5986d8	0.053107113
6	0xbe1bb654	-0.15206271
7	0x3e9065a4	0.28202546
8	0x3dabbcf8	0.08385652
9	0x3e572fd6	0.21014342
10	0xbcc39500	-0.02387476
11	0x3da1f8c4	0.079087764
12	0xbe0fca48	-0.14042008
13	0x3d057720	0.03258431
14	0x3d14e6a8	0.036352783
15	0x3e17e6da	0.14834157
16	0x3e050b96	0.12992701
17	0x3def30bc	0.11679217
18	0x3d5ffe88	0.0546861
19	0xbe198244	-0.14991099
20	0x3dc1afcc	0.09457359
21	0x3e90acf4	0.28256953
22	0x3e482786	0.19546327
23	0x3e81b3b2	0.2533241
24	0x3e93039a	0.28713685
25	0xbd97ae3c	-0.074062794
26	0x3e545c0c	0.20738238
27	0x3c640ba0	0.013918787
28	0x3e448f78	0.19195354
29	0xbe0e1bde	-0.13877818
30	0xbde7e998	-0.11323851
31	0xbe045875	-0.12924369
32	0x3e0da5c2	0.13832763
33	0x3d2663a0	0.040622354
34	0x3e4c3ffa	0.1994628
35	0xbe2afc94	-0.16697913
36	0x3e2a7b02	0.16648486
37	0xbe35bc90	-0.17747712
38	0x3d8a78bc	0.067613095
39	0xbd5e5834	-0.054283336
40	0x3da62b28	0.081137
41	0x3e91499e	0.28376478
42	0xbda8ad9e	-0.0823624
43	0x3e213a0c	0.157448
44	0xbcba88a0	-0.022770226
45	0xbe853f53	-0.26024875
46	0x3dcfe0d0	0.101503015
47	0xbe23320a	-0.15937057
48	0xbe65f5d8	-0.22457063
49	0x3e6bcea8	0.23028052
50	0x3d7f6788	0.062354594
51	0x3cd722d0	0.026261717
52	0x3c056680	0.008142114
53	0x3ba59500	0.0050531626
54	0x3e85a2a0	0.26100636
55	0xbe633fce	-0.22192308
56	0x3e0685f4	0.13137037
57	0x3e5d1850	0.21591306
58	0x3d2d5460	0.042316794
59	0xbe912f55	-0.28356424
60	0xbe4119cb	-0.18857495
61	0x3e7e13d8	0.24812257
62	0xbe74c210	-0.23902154
63	0x3e7c06fc	0.2461204
64	0x3c7a3120	0.015270501
65	0xbe32dde2	-0.17467454
66	0x3e7fe048	0.249879
67	0x3e5e9ad4	0.2173875
68	0xbd8dcb0e	-0.06923495
69	0x3d9b8770	0.07594192
70	0xbe803137	-0.25037548
71	0xba915b00	-0.0011089742
72	0x3d940f08	0.072294295
73	0x3e679310	0.22614694
74	0x3de3e1a8	0.11127025
75	0xbda49d24	-0.08037785
76	0x3e365108	0.17804348
77	0x3e87bd2a	0.26511508
78	0xbd3e5448	-0.046467096
79	0x3e2aab4a	0.16666904
80	0xbd1d0578	-0.038335294
81	0xbd6245d8	-0.05524239
82	0xbe930c5d	-0.2872037
83	0x3d64e520	0.055882573
84	0x3d1e3728	0.03862682
85	0xbe15fba4	-0.14646775
86	0xbdffa5a6	-0.12482767
87	0xbc2a7ee0	-0.010406226
88	0x3da922e8	0.08258611
89	0xbc036520	-0.008019716
90	0x3e268144	0.16260248
91	0xbe8d4f1e	-0.27599424
92	0x3e2d8fa0	0.1694932
93	0xbd34bbfc	-0.04412459
94	0xbe86111b	-0.26184925
95	0xbcf83690	-0.030299455
96	0x3d716b40	0.058940172
97	0x3d94ab44	0.07259229
98	0x3e8377d6	0.25677365
99	0x3e24d6bc	0.1609754
100	0x3ce001e0	0.027344644
101	0x3e1b839e	0.15186927
102	0x3ce6b350	0.028161675
103	0xbe91ac67	-0.28451845
104	0x3e4ba9d8	0.19889009
105	0x3e83cd80	0.25742722
106	0x3e8084d4	0.2510134
107	0x3e89682c	0.2683729
108	0x3e5f8eb0	0.21831775
109	0xbe3485d2	-0.17629173
110	0x3e8219dc	0.25410354
111	0xbe3b86bf	-0.1831312
112	0x3d8f41dc	0.069949836
113	0xbdc6ef90	-0.09713662
114	0xbd1ed114	-0.03877361
115	0x3e2db2ae	0.16962692
116	0xbe4a1072	-0.19732836
117	0xbce80860	-0.028324306
118	0xbd8ba624	-0.06818798
119	0xbc0b30a0	-0.00849548
120	0xbe0c773c	-0.1371736
121	0x3cd82a40	0.026387334
122	0xbb987bc0	-0.004653424
123	0xbceb3d70	-0.02871582
124	0xbe25b6b2	-0.16182974
125	0x3e36e61e	0.1786122
126	0xbe91bb47	-0.28463194
127	0xbe887e72	-0.2665897
128	0x3e56945c	0.20955032
129	0xbe7b2214	-0.24524719
130	0x3da7d5bc	0.081950635
131	0x3e54f22e	0.20795509
132	0x3e908cc2	0.2823239
133	0x3e3dfa70	0.18552566
134	0xbe5773c2	-0.21040252
135	0xbe02ebab	-0.12785213
136	0xbd536ff4	-0.05162044
137	0x3e1abec0	0.15111828
138	0xbe0d2878	-0.13784969
139	0xbe288e92	-0.16460636
140	0xbe92f6d6	-0.28703946
141	0x3e80c450	0.25149775
142	0xbe328661	-0.17434074
143	0xbe830282	-0.2558785
144	0xbce2ea60	-0.02769965
145	0xbd799400	-0.06093216
146	0xbd8142fe	-0.06311606
147	0xbe460900	-0.1933937
148	0x3e2fa16a	0.17151418
149	0xbe388e02	-0.18022922
150	0x3dd0a030	0.10186803
151	0x3e4d6a2c	0.20060033
152	0xbd8c650c	-0.06855211
153	0xbdef9cac	-0.11699805
154	0x3c31c460	0.010850042
155	0xbd280a4c	-0.041025445
156	0xbdab8e30	-0.083767295
157	0xbd83a906	-0.06428723
158	0x3d46fdc8	0.04858187
159	0xbe7a4b37	-0.24442755
160	0xbe31bde2	-0.17357591
161	0xbe6184ce	-0.22023317
162	0x3d64c930	0.05585593
163	0x3e8eb85a	0.27875024
164	0x3e8db624	0.27678025
165	0xbe46d012	-0.1941531
166	0xbe92a91c	-0.28644645
167	0x3df1f7d0	0.118148446

regression3.2.bias f4 [14]
0	0x3e38b1e4	0.1803661
1	0xbdecc060	-0.1156013
2	0x3dc2e870	0.0951699
3	0x3e3de1d8	0.18543184
4	0xbe7b7963	-0.24558024
5	0xbcc84b00	-0.024449825
6	0xbdaf1d80	-0.085505486
7	0xbd9e59e8	-0.07731992
8	0xbe02384b	-0.12716787
9	0xbdd457b2	-0.10368289
10	0x3c44acc0	0.012004077
11	0x3e635494	0.22200233
12	0x3e535b9e	0.20640418
13	0xbe5e7b29	-0.2172667

regression3.4.weight f4 [8, 14]
0	0x3d840974	0.064471155
1	0xbe1a5748	-0.15072358
2	0xbdd81224	-0.10550335
3	0x3e5b7816	0.21432528
4	0x3e0678e6	0.13132057
5	0xbe2f99dc	-0.17148536
6	0x3e089af8	0.13340366
7	0xbe091e11	-0.13390376
8	0x3cc700d0	0.02429238
9	0xbe4097ad	-0.1880786
10	0x3e86f463	0.26358327
11	0xbe63fccd	-0.22264405
12	0x3e814761	0.2524977
13	0xbdca2afc	-0.0987148
14	0xbe7c6c56	-0.24650702
15	0x3d05fe98	0.032713503
16	0x3d819bd8	0.06328553
17	0x3e80f8a9	0.25189713
18	0xbe6c4194	-0.23071891
19	0xbe83b03b	-0.2572039
20	0xbde89004	-0.11355594
21	0x3b97f840	0.004637748
22	0xbb8e2c80	-0.004338801
23	0x3caa4ff0	0.02079007
24	0xbdab296a	-0.083575085
25	0x3d9366ac	0.071973175
26	0xbe4b3b09	-0.19846739
27	0x3e59c8b8	0.21267974
28	0xbb9c7900	-0.0047751665
29	0xbb46fa80	-0.0030361712
30	0xbe1ef6f8	-0.15523899
31	0x3d364858	0.044502586
32	0xbe837b68	-0.2568009
33	0xbe44ba1b	-0.19211619
34	0xbe015895	-0.12631448
35	0x3d75fee8	0.06005755
36	0xbdff6a84	-0.12471488
37	0x3e3dea18	0.18546331
38	0xbdbbaac4	-0.0916343
39	0x3e586dee	0.21135685
40	0xbb444000	-0.0029945374
41	0x3d647000	0.055770874
42	0x3dae6b7c	0.08516595
43	0x3e739186	0.23785982
44	0x3ce12870	0.027485102
45	0xbda839ac	-0.08214125
46	0x3e2464e4	0.16054112
47	0x3e57b8b2	0.2106655
48	0x3e4728ca	0.19449154
49	0x3dd32acc	0.10310897
50	0xbe5b9c3d	-0.21446319
51	0xbe3b83e0	-0.18312025
52	0xbe86da04	-0.26338208
53	0xbe836670	-0.2566409
54	0xbe1465d7	-0.14491974
55	0xbe20f614	-0.15718871
56	0x3e47b13e	0.19501206
57	0xbc6b06a0	-0.014344841
58	0x3e577de2	0.21044114
59	0xbe689a03	-0.22715001
60	0xbe13b6b8	-0.1442517
61	0x3c76c500	0.015061617
62	0xbdd4f2dc	-0.10397884
63	0xbd2dd608	-0.042440444
64	0x3d481a30	0.0488531
65	0xbe69f7b9	-0.22848405
66	0x3e5063c2	0.20350555
67	0x3e4ed4e8	0.20198405
68	0xbe669230	-0.22516704
69	0x3d83b2f4	0.06430617
70	0xbe5be721	-0.21474887
71	0x3e67dbc2	0.22642425
72	0xbccb0de8	-0.024786904
73	0x3dbe1950	0.09282172
74	0xbd6358c0	-0.05550456
75	0x3e494380	0.19654655
76	0x3dc0fc9c	0.094231814
77	0x3e10dd92	0.14147022
78	0xbc5a9460	-0.013341039
79	0xbe21e1dc	-0.15808815
80	0xbda9d076	-0.08291714
81	0xbe42465e	-0.18972155
82	0xbdae5628	-0.08512527
83	0xbe84adb5	-0.25913778
84	0xbd64d7f0	-0.055869997
85	0x3b631c80	0.0034654438
86	0xbdc9395e	-0.09825395
87	0xbe5bd30d	-0.21467228
88	0x3e083aee	0.1330373
89	0x3cd6f8d0	0.02624169
90	0x3b907340	0.00440827
91	0xbbaa2680	-0.005192578
92	0x3e883ac5	0.26607338
93	0xbc0dfd00	-0.008666277
94	0x3e3ae18a	0.18250099
95	0x3e811d47	0.2521765
96	0xbd9f1dec	-0.07769379
97	0x3e1a0784	0.1504193
98	0x3da3274c	0.0796648
99	0xb9df2400	-0.00042560697
100	0xbd86912c	-0.06570658
101	0x3e5c1b2a	0.21494737
102	0x3e5ffc18	0.2187351
103	0xbe4916aa	-0.19637552
104	0x3dac9ffc	0.08428952
105	0x3c960e90	0.01831749
106	0xbb9ecb00	-0.004845977
107	0xbdf84ba4	-0.12123802
108	0xbde27ec6	-0.11059336
109	0xbcc3a518	-0.023882434
110	0x3e069052	0.13140991
111	0xbe59eba4	-0.21281296

regression3.4.bias f4 [8]
0	0xbe77d45e	-0.24202105
1	0x3e175e4e	0.14782068
2	0xbdd60f72	-0.10452165
3	0xbcf00ad8	-0.029302046
4	0xbe264a3f	-0.1623926
5	0x3d61fd88	0.055173427
6	0x3dfd6f0c	0.12374696
7	0xbd5e1fcc	-0.054229543

regression3.6.weight f4 [1, 8]
0	0x3e945f3f	0.28978917
1	0xbe82bd6c	-0.25535142
2	0x3e402896	0.18765482
3	0x3d961e90	0.07330048
4	0x3de49588	0.11161333
5	0x3e0bb586	0.13643464
6	0x3c906850	0.017627865
7	0xbd0211d8	-0.0317553

regression4.0.weight f4 [6, 3]
0	0xbf837ce8	-1.0272493
1	0x3e8c05ba	0.2734812
2	0x3ed1d056	0.4097926
3	0xbe33398a	-0.17502418
4	0xbf0f14a1	-0.5589085
5	0xbe77afc8	-0.24188149
6	0xbebec419	-0.37258986
7	0x3e846799	0.2586029
8	0xbd5349e8	-0.051584154
9	0xbf6e797f	-0.9315414
10	0xbe01774a	-0.12643161
11	0xbe38d320	-0.18049288
12	0xbf826b84	-1.0189061
13	0xbd8e15c3	-0.069377445
14	0x3c1c959a	0.009557152
15	0x3dafc720	0.08582902
16	0xbebbc054	-0.36670172
17	0xbf1041b7	-0.5635027

regression4.0.bias f4 [6]
0	0x3f8e384b	1.1110929
1	0xbe6cc4b4	-0.23121911
2	0x3f920bcc	1.140985
3	0x40138beb	2.305415
4	0x3fecd964	1.8503842
5	0xbf024bc2	-0.5089685

regression4.2.weight f4 [7, 6]
0	0x3f1df11c	0.6169603
1	0x3eb9f656	0.36320752
2	0x3f05f5b6	0.5232805
3	0x3fc2c6df	1.5216941
4	0x3fa9555a	1.3229172
5	0x3e2979a0	0.16550303
6	0x3c9b2c50	0.018942028
7	0x3dcf49d0	0.101215005
8	0x3d9717c4	0.0737758
9	0xbeb3a46a	-0.35086375
10	0xbdc98b70	-0.09841049
11	0xbc955500	-0.018229008
12	0x3f30ff65	0.691397
13	0x3d9570ac	0.07296881
14	0x3edaab36	0.4270875
15	0x3fcb3e56	1.5878398
16	0x3f8071f1	1.0034772
17	0xbecc3046	-0.3988058
18	0x3f224fc4	0.6340296
19	0xbeb73d1a	-0.35788804
20	0x3f150c26	0.5822166
21	0x3f708263	0.93948954
22	0x3f1023a1	0.56304365
23	0x3e04cd00	0.12968826
24	0x3f24cd54	0.64375806
25	0xbe510591	-0.2041228
26	0x3a70d277	0.0009186635
27	0x3fcb0cc8	1.5863276
28	0x3face35f	1.3506888
29	0xbec9d435	-0.39419714
30	0x3e52046f	0.20509504
31	0xbdeeb620	-0.11655831
32	0xbe8ea195	-0.27857652
33	0x3e30d593	0.17268972
34	0xbf02bc88	-0.51068926
35	0x3dddcaa0	0.10829663
36	0x3d0eb480	0.034840107
37	0xbdbe53ac	-0.09293303
38	0xbe86fbb6	-0.26363915
39	0xbe936776	-0.28789872
40	0xbe92aa4e	-0.28645557
41	0xbe2de620	-0.16982317

regression4.2.bias f4 [7]
0	0x3ffc5b20	1.9715309
1	0xbe82954c	-0.2550453
2	0x3fcca978	1.5989218
3	0x3ffb1ed1	1.961878
4	0x3fe6e321	1.8038064
5	0xbdb57d84	-0.08861831
6	0xbd957ffc	-0.07299802

regression4.4.weight f4 [8, 7]
0	0xbe6331bb	-0.2218694
1	0xbddbd92c	-0.107347816
2	0x3dba2e6a	0.09090884
3	0x3d97f474	0.074196726
4	0xbdabee8c	-0.083951086
5	0x3e6e388a	0.23263755
6	0x3e9d5377	0.3072774
7	0xbdcb8b80	-0.09938717
8	0xbe88b2d8	-0.26698947
9	0xbd5df670	-0.0541901
10	0xbe6be70b	-0.23037355
11	0xbe946636	-0.2898423
12	0xbe93bbf4	-0.28854334
13	0x3e820f15	0.25402132
14	0x3f966043	1.1748127
15	0x3ebee03d	0.37280455
16	0x3f96b63a	1.1774361
17	0x3f6ddadc	0.9291208
18	0x3fa321d1	1.2744695
19	0xbe840020	-0.25781345
20	0x3e95ef0b	0.29283938
21	0xbe8c5cef	-0.27414653
22	0xbe90c22e	-0.28273147
23	0x3e0a98da	0.1353487
24	0xbdda4bb4	-0.106589705
25	0xbd429cb0	-0.04751271
26	0x3ebd0609	0.36918667
27	0xbda15f48	-0.078795016
28	0x3f8b4be2	1.0882533
29	0x3e0d7d2e	0.13817284
30	0x3fa01c35	1.2508608
31	0x3f0f9169	0.56081253
32	0x3f9facac	1.247457
33	0x3eb8afbf	0.36071584
34	0x3dd4ae54	0.10384813
35	0x3f71a6ee	0.9439534
36	0x3eb78839	0.35846117
37	0x3f7f2abc	0.9967458
38	0x3f21c807	0.6319584
39	0x3f9abbb9	1.2088538
40	0xbd46b006	-0.048507713
41	0x3eab644f	0.33474967
42	0xbea6a776	-0.32549638
43	0xbd8a3f1c	-0.067503184
44	0x3d586495	0.052830297
45	0xbea79b6d	-0.32735768
46	0xbec20601	-0.37895206
47	0x3eaa4aba	0.33260137
48	0x3b0f7b80	0.002189368
49	0xbe04815b	-0.1293997
50	0x3e542b1e	0.20719573
51	0x3e408e12	0.18804196
52	0xbe0c7766	-0.13717422
53	0xbebbe29b	-0.36696324
54	0xbe49f3cc	-0.19721907
55	0xbdf04e94	-0.117337376

regression4.4.bias f4 [8]
0	0x3994cd66	0.00028381794
1	0xbde1b484	-0.11020759
2	0x3fe6107a	1.7973778
3	0x3c51e8e0	0.012811869
4	0x3fe18604	1.7619023
5	0x3f9f8ae8	1.2464266
6	0x3e9d6e51	0.30748227
7	0x3bde5980	0.0067855716

regression4.6.weight f4 [7, 8]
0	0xbd93db96	-0.07219617
1	0xbea33c11	-0.31881765
2	0x3d4dac46	0.05021312
3	0xbe343e1f	-0.17601822
4	0xbda42ec0	-0.08016729
5	0xbea103da	-0.3144825
6	0xbe0f90f8	-0.14020145
7	0xbd97bda8	-0.07409221
8	0xbe24b2cb	-0.16083829
9	0x3e986017	0.2976081
10	0x3fa4c71a	1.2873261
11	0xbc408c00	-0.011752129
12	0x3f24c4e1	0.64362913
13	0x3f3fa039	0.74853855
14	0x3ebe0aeb	0.37117705
15	0x3d941dbc	0.07232234
16	0xbe6e22be	-0.2325544
17	0x3e8c5131	0.27405694
18	0x3f8f4f28	1.1196032
19	0xbe987073	-0.29773292
20	0x3f9ebf7c	1.2402186
21	0x3f82cac1	1.0218126
22	0xbda9c735	-0.08289949
23	0xbe0f29d4	-0.139808
24	0xbe8b4143	-0.27198228
25	0xbe5d4b6b	-0.21610801
26	0x3f9e58d4	1.2370858
27	0xbe44fb71	-0.19236542
28	0x3f947fd6	1.1601512
29	0x3f47c9dc	0.7804239
30	0xbe8079ac	-0.25092828
31	0x3ead234d	0.33815995
32	0x3d975ab2	0.07390346
33	0xbeaee247	-0.3415701
34	0x3f983459	1.1890975
35	0xbe9bc385	-0.30422607
36	0x3f62e740	0.8863411
37	0x3f9a3458	1.2047224
38	0x3e533270	0.20624709
39	0x3eb40edd	0.3516759
40	0x3eb2ccdd	0.34921923
41	0x3e40c06a	0.188234
42	0x3e38c7ba	0.1804494
43	0xbe9e520e	-0.30921978
44	0xbe0e97a1	-0.1392503
45	0xbdaece35	-0.085354246
46	0xbe835da6	-0.25657386
47	0x3d86b588	0.06577593
48	0x3e0f0220	0.13965654
49	0xbcd2f1f0	-0.02575013
50	0xbdab2ed0	-0.08358538
51	0x3ea5dc09	0.32394436
52	0xbeb0fe54	-0.34569037
53	0x3d5ca7d0	0.053870976
54	0xbea3e5e2	-0.32011324
55	0x3e8c7bdf	0.27438256

regression4.6.bias f4 [7]
0	0x3d76553d	0.060139883
1	0x3fdfbcda	1.7479508
2	0x3fb3765b	1.4020494
3	0x3fe0a44f	1.7550143
4	0x3fc45725	1.5339094
5	0xbec49f95	-0.38403
6	0xbe4230f4	-0.18963987

regression4.8.weight f4 [6, 7]
0	0xbe914236	-0.28370827
1	0x3e20d5e2	0.1570659
2	0x3e5b1bbe	0.21397302
3	0xbe22d6a5	-0.15902193
4	0xbe99e874	-0.3006016
5	0xbe49d483	-0.19709973
6	0xbda0d290	-0.078526616
7	0x3cc9fde0	0.02465719
8	0x3e4ef4c4	0.20210558
9	0xbe246a8b	-0.16056268
10	0x3e958e71	0.29210237
11	0xbe983aa7	-0.29732248
12	0xbe8df6f0	-0.2772746
13	0xbe08c800	-0.13357544
14	0x3ea8798f	0.32905242
15	0xbe3e4c86	-0.18583879
16	0xbe749c8a	-0.2388784
17	0xbe917d9f	-0.28416154
18	0xbe186d2b	-0.14885394
19	0xbe33c778	-0.1755656
20	0x3d0fd140	0.035111666
21	0xbea2194e	-0.3165993
22	0x3f4e462e	0.80575836
23	0x3f21668d	0.63047105
24	0x3f7490db	0.9553353
25	0x3f5c5a90	0.8607569
26	0xbe8c24ec	-0.2737192
27	0xbeb06347	-0.34450743
28	0xbe4722d2	-0.19446877
29	0x3f7fccc3	0.99921817
30	0x3f89e2d5	1.0772349
31	0x3fa3d32d	1.2798821
32	0x3f8c42ff	1.0957946
33	0xbe8a3322	-0.26992136
34	0x3e28ac16	0.16471896
35	0xbeb9fc4a	-0.36325294
36	0xbea6df62	-0.32592303
37	0xbe6e7e99	-0.2329048
38	0x3e85c489	0.26126507
39	0x3df02f80	0.1172781
40	0x3ebee7e5	0.37286296
41	0x3ea2edf7	0.31822178

regression4.8.bias f4 [6]
0	0xbe992fee	-0.2991938
1	0xbe9a2ad5	-0.30110803
2	0xbddd8cd4	-0.108178765
3	0x3fde65ca	1.7374814
4	0x3f8fce4a	1.123483
5	0xbe99b67a	-0.3002203

regression4.10.weight f4 [1, 6]
0	0x3e9e46e0	0.30913448
1	0xbea9f389	-0.33193615
2	0xbe9636b6	-0.29338616
3	0x3f62180b	0.88317937
4	0x3f854687	1.0412148
5	0xbe5277c8	-0.20553505
