nn_metamodel/ann_metamodel/runs/Jan.15 11:45:45/model_weights.pth (torch_old, 9794 bytes, 29 tensors)

fc.weight f4 [1, 5]
0	0x3e22a47c	0.15883058
1	0x3e0c3870	0.13693404
2	0xbed00adb	-0.40633282
3	0x3eca99d4	0.39570487
4	0xbbdac900	-0.006676793

regression3.0.weight f4 [8, 5]
0	0x3e6cb6b8	0.23116577
1	0xbed6749e	-0.41885847
2	0xbe4c5d61	-0.19957496
3	0x3ed2375c	0.4105786
4	0xbece2dd3	-0.40269336
5	0xbe933090	-0.28747988
6	0xbda5bc5c	-0.08092567
7	0x3d3f93b0	0.046771705
8	0x3ec19af4	0.37813532
9	0xbeced4dc	-0.40396774
10	0xbea9eb7b	-0.3318747
11	0xbf4083ce	-0.7520112
12	0xbf124723	-0.57139796
13	0xbf5cd2a3	-0.86258906
14	0xbf5838fb	-0.84461945
15	0xbe1cf38c	-0.15327281
16	0x3ddd2f61	0.108000524
17	0xbe1f0411	-0.15528895
18	0xbca48879	-0.020084606
19	0x3d60930f	0.054827746
20	0x3db5d3b8	0.08878273
21	0xbe93a0a2	-0.2883349
22	0xbec2a040	-0.38012886
23	0x3e0e51d4	0.13898402
24	0x3d37f548	0.044911653
25	0xbf083fb0	-0.5322218
26	0x3e863824	0.26214707
27	0xbdffa51e	-0.124826655
28	0x3e060a1f	0.13089798
29	0x3dbebb56	0.09313075
30	0xbdffecf7	-0.12496369
31	0x3e37441a	0.17897072
32	0xbeaedc01	-0.34152225
33	0x3e811a5d	0.25215426
34	0x3e6c495e	0.23074862
35	0xbdd175c8	-0.10227543
36	0xbdd116b6	-0.1020941
37	0xbdc0a020	-0.094055414
38	0xbc841c45	-0.016126761
39	0x3e57448f	0.21022247

regression3.0.bias f4 [8]
0	0x3d68fb30	0.056880176
1	0xbda5e9ec	-0.08101258
2	0xbf756d5a	-0.9586998
3	0x3f9aa318	1.2081022
4	0x3ebc443e	0.36770815
5	0x3f337bef	0.7011098
6	0x3f2c6c26	0.6735252
7	0x40784d84	3.8797312

regression3.2.weight f4 [16, 8]
0	0x3e5851ba	0.21124926
1	0x3e076862	0.13223413
2	0xbebbdf46	-0.36693782
3	0xbe939c22	-0.28830057
4	0xbe6fd51c	-0.23421139
5	0xbf61c347	-0.88188595
6	0xbf6c49c9	-0.9230009
7	0xbf5bc9e9	-0.85854965
8	0xbe787e24	-0.24266869
9	0x3e8e660f	0.2781224
10	0xbe1a7594	-0.15083915
11	0xbf1fb7ab	-0.6238963
12	0xbe8bc6c0	-0.27300072
13	0xbd8d35b8	-0.06895012
14	0xbe2bfe7c	-0.16796297
15	0xbf1b5197	-0.6067137
16	0xbe1a27da	-0.15054265
17	0x3ea23431	0.31680444
18	0xbe351328	-0.17683089
19	0xbcf9d640	-0.03049767
20	0x3ea6d5af	0.32584903
21	0x3e1c9ff6	0.15295395
22	0xbdd7ce46	-0.105373904
23	0xbe593b21	-0.21213962
24	0xbdbbd500	-0.09171486
25	0x3e7763f2	0.2415922
26	0xbe8f440b	-0.279816
27	0xbf70084c	-0.9376266
28	0x3eaff5d1	0.3436723
29	0xba8f1f00	-0.0010919273
30	0xbf5c7d99	-0.86129147
31	0xbeef0c45	-0.46689048
32	0x3e7cece2	0.24699739
33	0x3e8222a9	0.2541707
34	0xbdbaf68c	-0.09129056
35	0xbf2eb8fa	-0.68251
36	0x3ea1e111	0.31617025
37	0xbf1f7927	-0.6229424
38	0xbdec7f81	-0.11547757
39	0xbece9b7e	-0.40353006
40	0xbdecc5a8	-0.115611374
41	0xbe85fe82	-0.26170737
42	0x3de9de44	0.11419347
43	0xbe7d3bec	-0.2472989
44	0xbeb13261	-0.3460875
45	0xbe0cdcbc	-0.13756078
46	0x3e110bd6	0.14164671
47	0xbf24cada	-0.64372027
48	0x3e33d456	0.17561468
49	0x3deb1278	0.11478132
50	0x3e42de56	0.19030127
51	0xbfa4adbf	-1.2865523
52	0x3d1b2cb0	0.037884414
53	0xbe61ca74	-0.22049886
54	0xbfab41e0	-1.3379478
55	0xbf698f35	-0.9123414
56	0x3d412338	0.047152728
57	0xbba8a3c0	-0.0051464736
58	0x3f651800	0.89489746
59	0xbe9bb6ff	-0.30413052
60	0xbe3ff780	-0.18746758
61	0xbee25241	-0.4420338
62	0x3e2498fd	0.16073985
63	0xbdcc693c	-0.09981009
64	0xbe2363aa	-0.15955988
65	0xbe7341aa	-0.23755518
66	0xbe1f6a45	-0.15567882
67	0xbe1a4693	-0.15065984
68	0x3eb04b37	0.34432384
69	0xbd4d0c78	-0.05006072
70	0xbe30760f	-0.17232536
71	0xc00534e3	-2.081353
72	0xbd800114	-0.06250206
73	0x3de91a20	0.11381936
74	0xbdd4cb76	-0.103903696
75	0xbe9393e9	-0.28823784
76	0x3e2d86fe	0.16946027
77	0xbeb9827a	-0.36232358
78	0x3e1d9bb1	0.15391423
79	0xbd89d40c	-0.06729898
80	0xbdbcdbd0	-0.092216134
81	0xbea4ef90	-0.32214022
82	0x3e8bd9a6	0.2731449
83	0xbe2ca49c	-0.16859668
84	0x3d304a20	0.04303944
85	0xbecca904	-0.399727
86	0x3ea32781	0.31866077
87	0x3cec77d3	0.02886573
88	0x3e2e82da	0.17042103
89	0xbe88f064	-0.26745903
90	0x3ea506ff	0.322319
91	0xbf5192bb	-0.8186452
92	0x3e80576b	0.25066695
93	0xbe8e6199	-0.27808836
94	0xbf325d93	-0.6967403
95	0xbeaf2b00	-0.34212494
96	0xbd6f1ca8	-0.058376938
97	0xbdc7e6b4	-0.097608
98	0x3e4def1e	0.20110747
99	0x3e4efd92	0.20213917
100	0x3d137820	0.036003232
101	0xbeb3baab	-0.35103354
102	0xbe38b799	-0.18038787
103	0xbe9e3ef0	-0.30907393
104	0x3e3bd34a	0.18342319
105	0xbe5e2948	-0.21695435
106	0x3e4584b6	0.19288906
107	0xbdc37c40	-0.09545183
108	0xbeb190a0	-0.34680653
109	0xbe0d2e86	-0.13787279
110	0xbd580178	-0.052735776
111	0xbe58482c	-0.21121281
112	0x3e888d53	0.26670322
113	0x3e7a1886	0.24423417
114	0x3f0f7cee	0.5605
115	0xbe1324f4	-0.14369565
116	0x3e598856	0.21243414
117	0x3e87c5a8	0.26517987
118	0xbeacfc82	-0.33786398
119	0xbe2bf134	-0.1679123
120	0x3c762800	0.015024185
121	0xbe4871a2	-0.19574597
122	0x3f54c3de	0.8311137
123	0x3eefb49a	0.46817476
124	0xbdf958ce	-0.12175141
125	0x3e89216a	0.26783305
126	0xbdee26ca	-0.11628492
127	0x3e236b32	0.1595886

regression3.2.bias f4 [16]
0	0xbf3fbdc6	-0.74898946
1	0xbe7131d1	-0.2355416
2	0xbea30f50	-0.3184762
3	0xbf3e73ec	-0.7439563
4	0xbd5c518b	-0.053788703
5	0xbf014a89	-0.50504357
6	0xbf8330d4	-1.0249276
7	0xbd0dd385	-0.03462555
8	0xbff589ee	-1.9182718
9	0xbe9d7ab5	-0.3075768
10	0xbd12db59	-0.035853717
11	0xbf57ac1f	-0.8424701
12	0xbc594120	-0.013260156
13	0xbe878526	-0.26468772
14	0xbc0d2759	-0.008615338
15	0xbaa5e34e	-0.0012656243

regression3.4.weight f4 [8, 16]
0	0x3f13a9cf	0.5768098
1	0x3f34bbf7	0.7059931
2	0xbd89775c	-0.06712219
3	0x3f19afc6	0.60033834
4	0xbf160efc	-0.58616614
5	0xbee91407	-0.45523092
6	0x3fa00680	1.2501984
7	0xbfc6dc10	-1.5535908
8	0x3ff01271	1.8755628
9	0x3d26e895	0.04074915
10	0xbfae70c7	-1.3628167
11	0x3f17be4f	0.5927476
12	0xbe1e8092	-0.15478733
13	0xbd670a08	-0.05640605
14	0xbf70f73d	-0.94127256
15	0xc0c3d86e	-6.1201696
16	0x3e79cda8	0.24394858
17	0xbd9f59ac	-0.077807754
18	0xbdf25d40	-0.11834192
19	0x3e4bb9a0	0.19895029
20	0x3e630f60	0.22173834
21	0x3e2cc066	0.16870269
22	0x3d735c28	0.05941406
23	0x3de077e8	0.1096037
24	0xbd8e51fc	-0.06949231
25	0x3ce18050	0.027527004
26	0xbd794920	-0.060860753
27	0x3b313700	0.002704084
28	0xbd995270	-0.07486427
29	0xbe2089aa	-0.15677515
30	0x3cd84a60	0.026402652
31	0xc02e11e5	-2.7198422
32	0xbede6684	-0.43437588
33	0xbe46e4b4	-0.19423181
34	0x3e53c404	0.20680243
35	0x3c6fbbe0	0.014632195
36	0x3e066670	0.13125014
37	0xbe415402	-0.18879703
38	0x3e1b66a4	0.15175873
39	0xbd233c10	-0.039852202
40	0xbcd29b70	-0.025708884
41	0xbbff76c0	-0.0077961385
42	0xbe4ebd66	-0.20189437
43	0xbceafc60	-0.028684795
44	0xbc491180	-0.012272239
45	0x3e5a0416	0.21290621
46	0xbf393cb1	-0.7235823
47	0xbf225f7e	-0.6342696
48	0x3f1c0e45	0.60959274
49	0x3e9b009e	0.30273908
50	0xbde3fb7c	-0.11131951
51	0x3f0657fc	0.52478004
52	0xbebf90f5	-0.3741528
53	0xbe0ba5e6	-0.13637504
54	0x3f496348	0.78667116
55	0xbd818fb9	-0.06326241
56	0x400d9c56	2.212667
57	0x3ce6f1b7	0.02819143
58	0xbdf4e6a3	-0.11958053
59	0x3e9f649c	0.31131446
60	0xbe607796	-0.21920618
61	0xbe64f6c6	-0.22359762
62	0xbe5b6714	-0.2142604
63	0xbee386aa	-0.44438678
64	0x3f0274c8	0.50959444
65	0x3ef0d2b7	0.47035763
66	0x3ceb6110	0.028732806
67	0x3f253e2b	0.64547986
68	0xbec11c19	-0.3771675
69	0xbefe4a8c	-0.4966625
70	0x3f869542	1.05143
71	0xbfc39aa3	-1.5281566
72	0x4008016c	2.1250868
73	0x3dfd2479	0.12360472
74	0xbf953de2	-1.165951
75	0x3f1ef00b	0.62085027
76	0xbe2d1b76	-0.16905007
77	0x3e60c080	0.21948433
78	0xbf8ba2a8	-1.0909014
79	0xc0d9aebb	-6.8025794
80	0x3ebda72e	0.3704161
81	0x3eb5fbae	0.3554358
82	0x3d322a88	0.043497592
83	0x3f11c1a8	0.5693612
84	0xbe5a7f27	-0.21337567
85	0xbd87bc61	-0.06627727
86	0x3f4744f8	0.7783961
87	0x3d85b4ab	0.065286
88	0x3ffba556	1.9659832
89	0xbe2ae179	-0.16687573
90	0x3ddc195a	0.10747023
91	0x3f028153	0.50978583
92	0x3d06fa18	0.03295335
93	0xbe397d2c	-0.18114156
94	0x3e3fb736	0.18722233
95	0x3ecdccc3	0.40195283
96	0xbb68ee00	-0.003554225
97	0x3f0553d6	0.5208105
98	0x3dd9a87c	0.10627839
99	0x3ee981ea	0.4560693
100	0xbf237410	-0.6384897
101	0xbef277ea	-0.47357112
102	0x3f82e72d	1.0226799
103	0xbeef7119	-0.46765974
104	0x401111fe	2.2667232
105	0x3d86635e	0.065619215
106	0xbf3e8410	-0.7442026
107	0x3ea1f62f	0.31633136
108	0x3e2bb25e	0.1676726
109	0xbe5fadd2	-0.21843651
110	0xbe66884b	-0.22512929
111	0xbfa6db3e	-1.3035657
112	0xbd18f798	-0.0373455
113	0xbdd39d38	-0.103327215
114	0x3da01ef8	0.07818407
115	0x3dd7b544	0.105326205
116	0x3e19d444	0.15022379
117	0x3d78a050	0.06069976
118	0x3a864400	0.0010243654
119	0xbf0c4878	-0.5479808
120	0xbdde18c0	-0.108445644
121	0xbf137bf9	-0.5761104
122	0xbedf2aaa	-0.43587238
123	0xbf3abcb5	-0.72944194
124	0x3e649a54	0.22324497
125	0x3e671828	0.22567809
126	0xbebb8ebe	-0.3663234
127	0xbf43aa8e	-0.7643212

regression3.4.bias f4 [8]
0	0xbfcff9c7	-1.6248101
1	0xc0168743	-2.3520057
2	0xbf035394	-0.51299405
3	0x41152a59	9.322839
4	0xbffe508f	-1.9868335
5	0x4128122f	10.504439
6	0xbf30ba94	-0.69034696
7	0xbf16ccfe	-0.58906543

regression3.6.weight f4 [1, 8]
0	0x3d113b01	0.03545666
1	0xc01be29e	-2.4357066
2	0x3ea1b5a2	0.31583887
3	0x4083a49b	4.1138434
4	0xbdee874b	-0.11646899
5	0x40930c37	4.595241
6	0xbce3fba2	-0.027829949
7	0x3e9ac082	0.30224997

regression2.0.weight f4 [6, 5]
0	0xbe2637c6	-0.16232213
1	0xbd1fc990	-0.039010584
2	0xbe96fa9c	-0.29488075
3	0xbec4db33	-0.38448486
4	0x3dbf4a10	0.09340298
5	0x3eb59488	0.35464883
6	0xbe97e1e4	-0.29664528
7	0x3ede35fc	0.43400562
8	0x3e95a570	0.2922778
9	0x3b4b5500	0.0031026006
10	0x3e24be3c	0.16088194
11	0xbd340d50	-0.04395801
12	0x3ec9d4be	0.39420122
13	0xbeccaf08	-0.39977288
14	0xbea81d27	-0.3283474
15	0x3ed77892	0.42084175
16	0xbe1466f0	-0.14492393
17	0xbecaa9a6	-0.39582556
18	0x3b0b5d00	0.002126515
19	0xbd4907c8	-0.049079686
20	0x3ed1f254	0.41005194
21	0xbe4570da	-0.1928133
22	0xbed47e12	-0.41502434
23	0x3e98eea4	0.29869568
24	0xbdf5a484	-0.119942695
25	0xbe6b069f	-0.22951744
26	0x3e90e67c	0.28300846
27	0xbeb08cad	-0.34482327
28	0x3ec06940	0.375803
29	0x3e342e4c	0.17595786

regression2.0.bias f4 [6]
0	0x3e472c14	0.19450408
1	0x3edcc234	0.43116915
2	0xbe8ba050	-0.27270746
3	0x3eaf9b24	0.3429805
4	0xbe69d8c4	-0.22836596
5	0x3df8e578	0.12153143

regression2.2.weight f4 [7, 6]
0	0x3ecbba30	0.39790487
1	0xbd806b04	-0.062704116
2	0x3e6bb458	0.23018014
3	0x3ea8c336	0.32961434
4	0x3c2aadc0	0.010417402
5	0xbe04c4fe	-0.12965772
6	0x3e8b92e8	0.27260518
7	0xbeb1c533	-0.34720764
8	0xbd0b6eb8	-0.034041137
9	0x3dc808e8	0.09767324
10	0x3ecb5aaa	0.3971761
11	0xbe5b5a5a	-0.21421185
12	0xbe24d8f6	-0.16098389
13	0xbebdd779	-0.37078455
14	0xbe7f4476	-0.2492846
15	0xbe88b24b	-0.26698527
16	0x3d8af9c4	0.0678592
17	0xbea52144	-0.32251942
18	0x3e11c530	0.14235377
19	0xbed07456	-0.40713757
20	0xbe2ef6a2	-0.1708627
21	0xbe69cfbf	-0.22833155
22	0x3d166778	0.03671977
23	0xbe42d173	-0.19025211
24	0x3e551508	0.20808804
25	0x3e84bb2a	0.25924045
26	0x3e8d0624	0.27543747
27	0x3ddf6ab0	0.10909021
28	0xbd2dcd28	-0.04243198
29	0x3e0b35d4	0.13594753
30	0x3e73d83c	0.23812956
31	0x3d505e58	0.050871223
32	0x3e9a6fc6	0.301634
33	0xbe91c2c8	-0.2846892
34	0xbe8ef38d	-0.2792019
35	0x3d72aa08	0.059244186
36	0x3e8e5666	0.27800292
37	0xbd281480	-0.041035175
38	0xbe30be26	-0.17260036
39	0x3e8dd17c	0.27698886
40	0x3ea15500	0.31510162
41	0xbe020bb4	-0.12699777

regression2.2.bias f4 [7]
0	0xbecbefbb	-0.39831337
1	0xbdc13184	-0.094332725
2	0x3eae00ac	0.33984888
3	0x3d277f70	0.04089302
4	0xbd6ab7b8	-0.057304114
5	0xbe335007	-0.17510997
6	0xbdef2108	-0.11676222

regression2.4.weight f4 [6, 7]
0	0xbda26c58	-0.07930821
1	0x3e96b331	0.29433587
2	0x3e379956	0.17929587
3	0x3e9cc7fd	0.3062133
4	0x3cc61b40	0.024182916
5	0x3e86cffb	0.26330552
6	0xbded0ec0	-0.11575079
7	0x3d86dcd0	0.065850854
8	0x3e575ab2	0.21030691
9	0xbe9f6160	-0.3112898
10	0x3eb9676d	0.3621172
11	0xbe61b0f9	-0.22040166
12	0x3d8fe6e4	0.07026461
13	0xbe6f93b4	-0.23396188
14	0xbe6b80e6	-0.2299839
15	0x3c8839c0	0.0166291
16	0xbe3e3fa4	-0.18578964
17	0x3ebff449	0.37491062
18	0xbe61c8f6	-0.22049317
19	0x3e9ab845	0.30218711
20	0xbd0e1240	-0.034685373
21	0x3e5375c2	0.2065039
22	0x3eb5f305	0.35536972
23	0xbe8eac8a	-0.27866012
24	0x3c8e0300	0.017335415
25	0x3d8c07f8	0.068374574
26	0x3cbea400	0.02327156
27	0xbdf54e60	-0.119778395
28	0xbe8311ac	-0.2559942
29	0xbe6b31f1	-0.2296827
30	0xbe8d48b0	-0.2759452
31	0xbe159cd7	-0.14610611
32	0x3ead1661	0.33806136
33	0x3d8e6798	0.06953353
34	0xbe4be00a	-0.19909683
35	0x3ebd0f63	0.36925802
36	0x3de0dba8	0.10979396
37	0x3e8cdf75	0.27514234
38	0xbd0009d8	-0.031259388
39	0x3dd41220	0.103550196
40	0xbe3c43f9	-0.18385305
41	0x3d2ebf40	0.04266286

regression2.4.bias f4 [6]
0	0x3d42f508	0.04759696
1	0x3e46e2d6	0.19422469
2	0x3e2e3276	0.17011437
3	0x3e1c963e	0.15291688
4	0x3d92a380	0.071600914
5	0xbe48fd82	-0.19627956

regression2.6.weight f4 [1, 6]
0	0x3e08f50c	0.13374728
1	0x3ecc9a2c	0.39961374
2	0x3e8d87d0	0.2764268
3	0x3eb76d1e	0.35825437
4	0x3ecfe8ca	0.4060729
5	0xbdd68240	-0.10474062

regression1.0.weight f4 [55, 5]
0	0x3cb0a4b0	0.021562904
1	0x3e98414a	0.29737312
2	0xbe5c2773	-0.21499424
3	0xbe33a37e	-0.17542836
4	0xbe4d0760	-0.20022345
5	0x3e5b7078	0.21429622
6	0x3d80e270	0.062931895
7	0x3e9e3618	0.30900645
8	0xbe847218	-0.25868297
9	0x3e840dba	0.25791723
10	0xbe8cc5c6	-0.2749464
11	0x3dd684f0	0.104745746
12	0xbdac3a34	-0.08409539
13	0x3e00b6b0	0.1256969
14	0x3ee1141a	0.4396065
15	0xbe02a856	-0.12759528
16	0x3e79c57c	0.2439174
17	0xbd107d08	-0.03527549
18	0xbece6d09	-0.40317562
19	0x3e210590	0.15724778
20	0xbe7cd243	-0.24689583
21	0xbeb22063	-0.34790334
22	0x3eb6a7d0	0.35674906
23	0x3dc5d5e0	0.09659934
24	0x3d26a4c8	0.04068449
25	0x3c4ea9e0	0.012613744
26	0x3c004260	0.007828325
27	0x3ecf06e0	0.40434933
28	0xbeb006c9	-0.34380177
29	0x3e50670c	0.2035181
30	0x3eab4268	0.334491
31	0x3d8642b0	0.065556884
32	0xbee0eb63	-0.43929586
33	0xbe959340	-0.29213905
34	0x3ec4cec0	0.38438988
35	0xbebd96ba	-0.37029058
36	0x3ec33832	0.3812881
37	0x3cc1cc30	0.023656934
38	0xbe8a8cb1	-0.27060464
39	0x3ec63366	0.3871109
40	0x3eac6dce	0.33677524
41	0xbddbaa44	-0.10725835
42	0x3df0f1d0	0.11764872
43	0xbec69836	-0.38788003
44	0xbae13000	-0.0017180443
45	0x3de55f20	0.11199784
46	0x3eb36076	0.3503453
47	0x3e308428	0.17237914
48	0xbdff04c4	-0.12452081
49	0x3e8d38c6	0.27582377
50	0x3ed2492c	0.4107145
51	0xbd936dac	-0.071986526
52	0x3e843320	0.25820255
53	0xbd7341a8	-0.059388787
54	0xbdaf4528	-0.085581124
55	0xbee3ce66	-0.44493407
56	0x3db14d20	0.086572886
57	0x3d751b30	0.05984038
58	0xbe685a46	-0.22690687
59	0xbe4605fa	-0.19338217
60	0xbc8410b0	-0.016121238
61	0x3e030330	0.12794185
62	0xbc4b8e80	-0.012424111
63	0x3e80f964	0.2519027
64	0xbedaea40	-0.42756844
65	0x3e867096	0.2625777
66	0xbd8bff08	-0.06835753
67	0xbecfb207	-0.40565512
68	0xbd4043e0	-0.04693973
69	0x3dbb0098	0.091309726
70	0x3de65128	0.11245948
71	0x3ecbab66	0.39779204
72	0x3e7f5e00	0.24938202
73	0x3d2d83f0	0.042362154
74	0x3e70ebe4	0.23527485
75	0x3d32b328	0.043627888
76	0xbee1ad24	-0.44077408
77	0x3e9dc1cc	0.30811918
78	0x3ecc301c	0.39880455
79	0x3ec719be	0.38886827
80	0x3ed4deb2	0.41576153
81	0x3ead2ab2	0.33821636
82	0xbe8bd512	-0.27310997
83	0x3ec98d38	0.39365554
84	0xbe9141de	-0.28370565
85	0x3dddeee8	0.108365834
86	0xbe1a1852	-0.1504834
87	0xbd7609b0	-0.060067832
88	0x3e868bbe	0.2627849
89	0xbe9c84ae	-0.30569977
90	0xbd33bb58	-0.043879837
91	0xbdd857e0	-0.10563636
92	0xbc57a1c0	-0.013161123
93	0xbe599bce	-0.21250841
94	0x3d2770d0	0.04087907
95	0xbbec3a00	-0.0072090626
96	0xbd363758	-0.044486374
97	0xbe805c7a	-0.25070554
98	0x3e8dac40	0.2767048
99	0xbee1c430	-0.44094992
100	0xbed3749b	-0.412999
101	0x3ea6366c	0.32463396
102	0xbec286e2	-0.37993532
103	0x3e020120	0.12695742
104	0x3ea4f280	0.32216263
105	0x3edfef88	0.43737435
106	0x3e932812	0.2874151
107	0xbea6e378	-0.3259542
108	0xbe4ad241	-0.19806768
109	0xbda3c758	-0.07997006
110	0x3e6fbae8	0.23411143
111	0xbe5aae61	-0.21355583
112	0xbe82904a	-0.2550071
113	0xbee3ad0c	-0.44467962
114	0x3ec77c16	0.38961858
115	0xbe8a48e9	-0.2700875
116	0xbecaf5a2	-0.39640528
117	0xbd2fc4a0	-0.042912126
118	0xbdc15288	-0.0943957
119	0xbdc84058	-0.097778976
120	0xbe9965ba	-0.29960424
121	0x3e880af6	0.26570863
122	0xbe8ef49a	-0.2792099
123	0x3e2199cc	0.15781325
124	0x3e9f1d12	0.31076866
125	0xbdd97fa0	-0.10620046
126	0xbe399a48	-0.1812526
127	0x3c89b2a0	0.016808808
128	0xbd8229d4	-0.06355634
129	0xbe04e2e2	-0.12977174
130	0xbdcbf798	-0.09959334
131	0x3d9a2358	0.075262725
132	0xbec1e073	-0.37866554
133	0xbe89ad9c	-0.26890266
134	0xbeaeafa4	-0.34118378
135	0x3db13780	0.08653164
136	0x3edd19e0	0.43183804
137	0x3edb89da	0.4287861
138	0xbe99ffed	-0.30078068
139	0xbee334a2	-0.44376093
140	0x3e3b6d78	0.18303478
141	0x3e8f1066	0.279422
142	0xbe37630c	-0.17908877
143	0x3e16f99c	0.14743656
144	0x3e931506	0.28726977
145	0xbec2ca82	-0.38045126
146	0xbd1b2570	-0.0378775
147	0xbe07a4c8	-0.13246453
148	0xbdf55110	-0.11978352
149	0xbe49bc5e	-0.19700763
150	0xbe247ad6	-0.16062483
151	0x3c9857f0	0.01859662
152	0x3eb016e0	0.34392452
153	0x3ea3b794	0.31975996
154	0xbeac5547	-0.3365881
155	0x3ddcf0a0	0.10788083
156	0xbe812183	-0.2522088
157	0xbe34c722	-0.17654088
158	0x3eb79efa	0.35863477
159	0x3e6103e0	0.21974134
160	0xbe92eb18	-0.28694987
161	0x3e6495a0	0.22322702
162	0xbe6570fe	-0.22406384
163	0x3d267f78	0.040648907
164	0xbea1226a	-0.31471568
165	0x3ee1d282	0.44105917
166	0xbebebf7f	-0.37255475
167	0x3ed8532a	0.4225095
168	0xbe292554	-0.16518146
169	0xbed33140	-0.41248512
170	0x3d603730	0.05474013
171	0x3dd8e080	0.10589695
172	0x3ed7cf72	0.42150456
173	0xbec5aa85	-0.3860666
174	0xbedc5b5b	-0.4303845
175	0xbe429368	-0.19001544
176	0x3bfe4b00	0.0077604055
177	0xbbede700	-0.0072602034
178	0x3d0e7e50	0.03478843
179	0xbe0f3448	-0.13984787
180	0x3df6a628	0.120434105
181	0xbeaa08f1	-0.33209947
182	0x3eb63612	0.35588127
183	0xbc02ea20	-0.00799039
184	0xbba67a00	-0.0050804615
185	0xbe84ffda	-0.2597645
186	0x3d988230	0.07446706
187	0xbedc02f6	-0.4297101
188	0xbea497f6	-0.32147187
189	0xbe586ff2	-0.21136454
190	0x3dcdd098	0.10049552
191	0xbe55b248	-0.2086879
192	0x3e9ee4d0	0.31033945
193	0xbe1d0376	-0.15333351
194	0x3eb513ec	0.35366762
195	0xbba43180	-0.0050107837
196	0x3dbf1fe0	0.093322515
197	0x3e11ee1c	0.14250988
198	0x3ecbc8b2	0.39801556
199	0x3d3c6170	0.04599136
200	0xbe0cbf54	-0.13744861
201	0x3e898ac0	0.2686367
202	0x3eb47c4c	0.3525108
203	0x3ea6a0f0	0.3254466
204	0x3e30acd4	0.17253429
205	0xbeb7bd3a	-0.35886556
206	0xbe9ce2ed	-0.3064188
207	0xbee1a662	-0.44072253
208	0xbedbdfe0	-0.4294424
209	0xbe785129	-0.2424971
210	0xbe86ab7a	-0.263027
211	0x3ea7131a	0.3263176
212	0xbcc4a310	-0.024003536
213	0x3eb44b18	0.35213542
214	0xbec29bc5	-0.38009468
215	0xbe772c20	-0.24137926
216	0x3cce7640	0.02520287
217	0xbe322a68	-0.17398989
218	0xbd917114	-0.07101646
219	0x3da76ae8	0.081746876
220	0xbec3c05c	-0.38232696
221	0x3eae59f0	0.34052992
222	0x3ead0c3c	0.33798397
223	0xbec0e8da	-0.37677652
224	0x3ddc5fe8	0.1076048
225	0xbeb7fbe3	-0.35934362
226	0x3ec1fc96	0.3788802
227	0xbd29e330	-0.04147643
228	0x3e1f0c54	0.15532047
229	0xbdbe363c	-0.09287688
230	0x3ea863a6	0.32888526
231	0x3e2176dc	0.15767998
232	0x3e726808	0.23672497
233	0xbcb6e070	-0.022323817
234	0xbe8770c0	-0.2645321
235	0xbe0e13ac	-0.13874692
236	0xbea28ac2	-0.3174649
237	0xbe11dc44	-0.14244181
238	0xbede0380	-0.43362045
239	0xbdbf76d4	-0.093488365
240	0x3bbe03c0	0.005798787
241	0xbe285b2c	-0.1644103
242	0xbeb7eb16	-0.35921544
243	0x3e63f4ec	0.22261399
244	0x3d33dbc8	0.04391077
245	0x3bf1b640	0.007376462
246	0xbc0e5ba0	-0.008688837
247	0x3ee3f4a6	0.4452259
248	0xbc6d9780	-0.014501452
249	0x3e9c5b1a	0.30538255
250	0x3ed80cb6	0.42197198
251	0xbe052072	-0.13000658
252	0x3e80dec6	0.25169963
253	0x3e088108	0.13330472
254	0xba3ab200	-0.0007121861
255	0xbde12c7c	-0.10994813

regression1.0.bias f4 [55]
0	0x3ebbad6e	0.36655754
1	0xbea55fd8	-0.32299685
2	0x3e731040	0.23736668
3	0x3dbde340	0.0927186
4	0x3e1091bc	0.14118093
5	0x3e30b834	0.17257768
6	0x3cb6a9b0	0.02229771
7	0xbd2486d0	-0.04016763
8	0xbe8c5f9c	-0.27416694
9	0xbea4ed16	-0.32212132
10	0x3eca0d08	0.39463067
11	0x3e12ab8c	0.14323252
12	0xbe0ad3b0	-0.13557315
13	0xbedda8d4	-0.43292868
14	0xbe3fdb74	-0.18736058
15	0x3e243ae0	0.16038084
16	0x3eb1dd32	0.3473907
17	0xbe66833f	-0.22511004
18	0xbe474fac	-0.19463986
19	0x3e27d158	0.16388452
20	0xbe98bcd0	-0.29831553
21	0xbe8ddff8	-0.27709937
22	0x3e45cdb8	0.19316757
23	0xbe20e242	-0.1571131
24	0x3d882828	0.06648284
25	0xbe916e78	-0.28404593
26	0xbedf7b44	-0.43648732
27	0xbedc6c6d	-0.43051472
28	0xbe376666	-0.17910156
29	0xbec1178f	-0.37713286
30	0x3ee16eb0	0.4402976
31	0x3dbf0a10	0.09328091
32	0xbec9da84	-0.39424527
33	0x3e69c1ec	0.22827882
34	0x3ecbb620	0.39787388
35	0x3e8bc0de	0.27295583
36	0x3e852352	0.2600351
37	0x3ea470c0	0.3211727
38	0x3e39a694	0.18129951
39	0x3ca9fbd0	0.020749956
40	0x3de312b0	0.11087549
41	0x3da58390	0.08081734
42	0xbec4c9c8	-0.38435197
43	0xbddcc7f8	-0.107803285
44	0xbca395c0	-0.019968867
45	0x3e9dc5f0	0.30815077
46	0x3da3b410	0.079933286
47	0x3e2b2afc	0.16715616
48	0x3ead1c0c	0.3381046
49	0xbccd66d0	-0.025073439
50	0xbedfad67	-0.43686983
51	0x3e905658	0.28190875
52	0xbec8ba58	-0.3920467
53	0x3ec9b95a	0.39399225
54	0xbea4e3a4	-0.32204926

regression1.2.weight f4 [1, 55]
0	0xbe082cb5	-0.13298304
1	0x3d2f735c	0.042834625
2	0x3da0307a	0.07821746
3	0xbd8a1341	-0.06741954
4	0xbdb6e112	-0.089296475
5	0x3dcab70a	0.09898193
6	0x3dd88b1c	0.10573408
7	0xbe0552e4	-0.13019902
8	0x3dd76494	0.10517231
9	0xbd1db004	-0.03849794
10	0xbd6ca32e	-0.057772808
11	0x3db5b472	0.08872308
12	0xbe08697a	-0.13321486
13	0x3d1282bc	0.03576921
14	0x3c3c8930	0.011507317
15	0xbcfb7398	-0.030694768
16	0xbdb25580	-0.08707714
17	0xbdc2be73	-0.095089816
18	0xbdc1c48a	-0.09461315
19	0xbd65bf68	-0.056090742
20	0x3dcbe108	0.09955031
21	0xbdac8555	-0.084238686
22	0xbcb1f99c	-0.021725468
23	0x3dd0e29e	0.10199474
24	0x3d30ca50	0.04316169
25	0x3b8ac240	0.004234582
26	0xbcc58344	-0.024110444
27	0xbd974716	-0.073866054
28	0xbd1cdcf6	-0.038296662
29	0x3d1ae8b8	0.037819594
30	0x3d0215b8	0.031758994
31	0xbcc9d32c	-0.024636827
32	0x3db4d3ce	0.08829461
33	0x3de08192	0.109622136
34	0xbd113b06	-0.03545668
35	0xbdc31211	-0.0952493
36	0xbc9e5f24	-0.019332476
37	0xbda85160	-0.08218646
38	0xbdd3c47e	-0.10340212
39	0xbdd2d187	-0.102938704
40	0x3db9987e	0.09062289
41	0x3db5c7f6	0.0887603
42	0x3e0830ef	0.13299917
43	0x3dc1c79a	0.09461899
44	0x3d02edec	0.03196518
45	0x3dc613e4	0.096717626
46	0xbe04c677	-0.12966333
47	0x3dd5f510	0.104471326
48	0xbdc84cbc	-0.09780261
49	0xbdce927a	-0.10086532
50	0x3d45c79c	0.048286065
51	0xbd1bc15c	-0.0380262
52	0xbc8adb5c	-0.016950302
53	0x3e06de95	0.13170846
54	0xbce647b4	-0.028110363

regression4.0.weight f4 [6, 5]
0	0x3e276978	0.16348827
1	0x3ecd24ea	0.40067226
2	0xbe9ce57a	-0.30643827
3	0x3e9d78ce	0.3075623
4	0x3ea2f91c	0.3183068
5	0x3dfba5c0	0.12287474
6	0x3dd221e0	0.102603674
7	0x3ed9287c	0.424137
8	0x3e411a94	0.18857795
9	0xbe2c7c02	-0.1684418
10	0x3ea6bdba	0.32566625
11	0xbdec936c	-0.11551556
12	0x3ecacb26	0.39608115
13	0xbeb499b2	-0.3527351
14	0xbda39350	-0.07987082
15	0x3dbd51b0	0.09244096
16	0xbeb5d174	-0.35511363
17	0xbed51cc4	-0.4162351
18	0x3ed8a798	0.42315364
19	0x3b29c500	0.0025904775
20	0xbe1cc84a	-0.15310779
21	0x3e7b0a84	0.2451573
22	0x3e63d588	0.22249424
23	0xbe2633bc	-0.16230673
24	0xbede4f0a	-0.43419677
25	0xbe6ef407	-0.23335277
26	0xbe0e2ae2	-0.13883546
27	0x3c911b90	0.017713338
28	0xbe05876a	-0.13039938
29	0x3e7574d8	0.23970354

regression4.0.bias f4 [6]
0	0x3c785e60	0.0151592195
1	0x3e5424c4	0.2071715
2	0xbebd8638	-0.37016463
3	0x3ecb0314	0.39650786
4	0x3c038b20	0.008028775
5	0xbddb15a4	-0.10697487

regression4.2.weight f4 [7, 6]
0	0xbebc7cb4	-0.3681389
1	0x3e2aa1f8	0.16663349
2	0xbe502055	-0.20324834
3	0x3c9c8940	0.019108415
4	0xbe8e62a0	-0.2780962
5	0xbe3efdc5	-0.18651493
6	0xbdaf371c	-0.08555433
7	0xbe4cd015	-0.20001252
8	0x3eaff2aa	0.34364825
9	0x3ec54758	0.38530993
10	0xbc5e55a0	-0.013570219
11	0xbebdde13	-0.37083492
12	0xbe258976	-0.16165718
13	0x3ece9e2e	0.40355057
14	0x3dab07a4	0.08351067
15	0xbe90cd8c	-0.2828182
16	0x3ea20638	0.3164537
17	0x3e487e48	0.19579422
18	0xbeb0058e	-0.34379238
19	0x3ea49a1e	0.32148832
20	0x3e20f870	0.15719771
21	0xbe0191d2	-0.12653282
22	0xbe254f95	-0.1614364
23	0xbe9997ca	-0.29998618
24	0xbe7f876d	-0.24954005
25	0x3ecf13e4	0.40444863
26	0xbe637499	-0.22212447
27	0x3e99f07c	0.30066288
28	0xbde16d38	-0.1100716
29	0xbe88516c	-0.2662462
30	0x3ec7ec24	0.39047348
31	0x3d917dd0	0.07104075
32	0xbec9f044	-0.3944112
33	0x3e8eca3c	0.27888668
34	0xbeb3dc49	-0.35129002
35	0xbdab4bd0	-0.083640695
36	0x3ebe9d62	0.3722945
37	0x3e59a03c	0.21252531
38	0x3ecfe9c4	0.40608037
39	0x3ece75f4	0.40324366
40	0x3e5e9208	0.21735394
41	0x3eaed9de	0.34150594

regression4.2.bias f4 [7]
0	0xbeb6d014	-0.35705626
1	0xbcd457b0	-0.025920719
2	0x3d3d2388	0.046176463
3	0xbe97b02d	-0.296266
4	0x3d9b8c78	0.07595152
5	0x3e2521bc	0.1612615
6	0xbcf39410	-0.029733688

regression4.4.weight f4 [8, 7]
0	0xbdb7008c	-0.08935651
1	0x3eb14faf	0.34631106
2	0xbebd36c8	-0.36955857
3	0x3d6be400	0.057590485
4	0xbeaf36dd	-0.34221545
5	0x3e962eff	0.2933273
6	0x3e18634a	0.14881626
7	0x3e5ac9ba	0.21366015
8	0xbe12aca2	-0.14323667
9	0x3eaa394b	0.33246836
10	0x3c1aaea0	0.009441048
11	0xbe9ed911	-0.31024984
12	0xbe4f9962	-0.20273355
13	0xbe914236	-0.28370827
14	0x3e20d5e2	0.1570659
15	0x3e5b1bbe	0.21397302
16	0xbe22d6a5	-0.15902193
17	0xbe99e874	-0.3006016
18	0xbe49d483	-0.19709973
19	0xbda0d290	-0.078526616
20	0x3cc9fde0	0.02465719
21	0x3e674e0e	0.22588369
22	0xbe0c0de3	-0.13677172
23	0x3ea1b549	0.31583622
24	0xbe8c0b7d	-0.27352515
25	0xbe8df6f0	-0.2772746
26	0xbe08c800	-0.13357544
27	0x3ea8798f	0.32905242
28	0xbe3e4c86	-0.18583879
29	0xbe749c8a	-0.2388784
30	0xbe917d9f	-0.28416154
31	0xbe186d2b	-0.14885394
32	0xbe33c778	-0.1755656
33	0x3d0fd140	0.035111666
34	0xbebda032	-0.37036282
35	0xbdc0c884	-0.09413245
36	0xbe90aaf3	-0.28255424
37	0x3d820ae0	0.063497305
38	0xbd37fb58	-0.044917434
39	0xbeb8026a	-0.35939342
40	0xbeb06347	-0.34450743
41	0xbe9637d9	-0.29339483
42	0x3d9c14f0	0.07621181
43	0x3e1a28ee	0.15054676
44	0x3ebc07fb	0.3672484
45	0x3e2d7846	0.16940412
46	0xbeb2d82f	-0.3493056
47	0x3e28ac16	0.16471896
48	0xbeb9fc4a	-0.36325294
49	0xbea6df62	-0.32592303
50	0xbe6e7e99	-0.2329048
51	0x3e85c489	0.26126507
52	0x3df02f80	0.1172781
53	0x3ebee7e5	0.37286296
54	0x3ea2edf7	0.31822178
55	0xbe992fee	-0.2991938

regression4.4.bias f4 [8]
0	0xbe8feccc	-0.2811035
1	0xbddd8cd4	-0.108178765
2	0x3eb20919	0.34772566
3	0xbe6043fa	-0.21900931
4	0xbe99b67a	-0.3002203
5	0x3e92892f	0.28620288
6	0xbea65c74	-0.3249241
7	0xbe8b1225	-0.2716228

regression4.6.weight f4 [7, 8]
0	0xbcbb32d0	-0.022851378
1	0x3dd0db10	0.10198033
2	0xbe364542	-0.17799857
3	0x3e03e52e	0.12880394
4	0x3e3e6fba	0.18597308
5	0x3dbe4100	0.092897415
6	0xbe31b1e1	-0.17353012
7	0xbe87b40a	-0.26504546
8	0xbd9fa68c	-0.07795438
9	0xbe8f57b8	-0.27996612
10	0xbead2f05	-0.33824936
11	0xbe8dba43	-0.2768117
12	0x3e74f9ea	0.2392346
13	0x3e244366	0.16041335
14	0xbe5ac5ac	-0.21364468
15	0x3e579c0e	0.21055624
16	0xbe5b3ce6	-0.2140995
17	0x3d9b637c	0.075873345
18	0x3cad9800	0.021190643
19	0xbea3c639	-0.3198717
20	0xbb459080	-0.0030145943
21	0xbeb0b484	-0.34512722
22	0x3e38b7b6	0.1803883
23	0x3d144340	0.036196947
24	0xbe7c3120	-0.24628115
25	0xbda193c0	-0.07889509
26	0xbe5ddb1d	-0.21665616
27	0xbc2b5740	-0.010457814
28	0xbe9c06db	-0.3047398
29	0x3ea4f1b5	0.32215658
30	0x3ea99651	0.33122495
31	0xbe00befd	-0.12572856
32	0xbe92ec18	-0.2869575
33	0x3e825e4d	0.2546257
34	0x3e6f334a	0.23359409
35	0xbd8407fc	-0.064468354
36	0xbe7a4498	-0.24440229
37	0xbda431d0	-0.080173135
38	0xbdc13198	-0.094332874
39	0x3d61f0a8	0.05516115
40	0xbdf9ba0e	-0.1219369
41	0xbdf1fb10	-0.118154645
42	0x3e9337a1	0.2875338
43	0x3e81f0e1	0.2537909
44	0xbd6bf068	-0.057602316
45	0xbeaa64cc	-0.33280027
46	0xba4d9a00	-0.0007843077
47	0x3e455d52	0.1927388
48	0x3e098d3e	0.13432786
49	0x3e1c9c02	0.15293887
50	0xbe910d0b	-0.28330263
51	0x3cb2bef0	0.021819562
52	0xbd430358	-0.04761061
53	0x3deeca50	0.11659682
54	0x3e5d165e	0.21590564
55	0xbdea4dca	-0.11440618

regression4.6.bias f4 [7]
0	0xbe595b59	-0.21226253
1	0x3e868d2f	0.2627959
2	0xbe7e3dc1	-0.24828245
3	0xbe1486e0	-0.14504576
4	0xbe25a6c0	-0.16176891
5	0x3e963021	0.29333594
6	0xbe8b655e	-0.27225775

regression4.8.weight f4 [6, 7]
0	0x3ec08455	0.3760096
1	0x3df90548	0.121592104
2	0x3e341792	0.17587116
3	0xbe8479f3	-0.2587429
4	0xbe138a6d	-0.14408274
5	0xbeae7d9e	-0.34080213
6	0xbe4157bc	-0.18881124
7	0xbea0ae87	-0.31383154
8	0xbe4c8e1d	-0.19976087
9	0xbe968d76	-0.294048
10	0x3de79fb0	0.11309755
11	0x3d32b6a8	0.043631226
12	0x3ebf56af	0.37370822
13	0x3bbccf40	0.005762011
14	0xbe8dab58	-0.27669787
15	0xbe74a909	-0.23892607
16	0xbebdfaf8	-0.37105536
17	0x3e34e12a	0.17664018
18	0xbdab6060	-0.083679914
19	0xbe9ed2ce	-0.31020206
20	0x3e94829d	0.290059
21	0x3e01b50a	0.12666717
22	0xbe212c72	-0.15739611
23	0xbeb6e696	-0.35722798
24	0xbe7bc08a	-0.24585167
25	0xbc859510	-0.01630643
26	0x3dbe783c	0.09300277
27	0x3dc5a49c	0.09650537
28	0xbeb60d87	-0.35557196
29	0x3eb04183	0.3442498
30	0xbea1da02	-0.3161164
31	0xbe0e766e	-0.13912365
32	0x3d1aa420	0.037754178
33	0x3df51c20	0.11968255
34	0x3e8eb667	0.27873537
35	0x3e32e6c6	0.17470846
36	0x3e87945f	0.26480386
37	0x3e01a4b2	0.12660483
38	0x3eadd017	0.33947822
39	0xbd479f70	-0.048736036
40	0x3e710056	0.23535284
41	0x3d395140	0.0452435

regression4.8.bias f4 [6]
0	0xbe56899d	-0.20950933
1	0x3ec091fd	0.3761138
2	0xbe4bd903	-0.19907002
3	0x3e758f32	0.23980406
4	0x3e9affbf	0.30273244
5	0xbd667470	-0.056263387

regression4.10.weight f4 [1, 6]
0	0xbe711e51	-0.23546721
1	0xbdd06dd4	-0.10177198
2	0xbdfd3dd0	-0.123653054
3	0x3e704d78	0.23467052
4	0xbe965fb8	-0.29369903
5	0xbd9f8bd8	-0.07790345
